RNAModXApp/model/multi-class-type-G.pt (torch, 143539 bytes, 39 tensors)

weight f4 [94, 16]
00000000: 3337 90be 7968 813f 76ed b1bf be29 6d3f
00000010: ce16 0e3f 7bae 84be 7177 69bf 3cc5 c33f
00000020: dd2d 0c40 af24 13c0 16ed f83c d433 0a3d
00000030: 6a7d 82bf 6356 aa3e b87f 0140 c5f8 5bbe
00000040: 1916 adbf a968 bbbe 473d 62be eefa 2c3f
00000050: 807e c33f e87a b4bf 616c 033d 4b34 e7bc
00000060: 2dc5 a9be ee20 e63f 5146 0cbe 38d3 b23e
00000070: a6cf 1fbf 3829 dc3f 6a5a 82bf 782b 523c
00000080: 50bc 04bf 3fe1 373f 9439 6e3f bff9 843f
00000090: 5b09 cf3e b7a1 433f ba66 d93f 46e0 d6be
000000a0: 04b7 b53f 6a0c 08bf 88f2 6e3e c326 5bbf
000000b0: a3ea 993f d1eb 673d 4673 843d 2ca4 a83f
000000c0: 24e2 d23e ef22 6c3f 0498 7abe c5bf 963e
000000d0: 259e 8e3f 748b d5bf 75e3 22bf 0e90 63bf
000000e0: e22e 42bf 7d36 9b3c 95c3 1440 5ec3 3cbe
000000f0: 5e47 c3bf d5ba 1c3f c755 c83f d69e 603f
00000100: edb6 cc3f a412 443f 45fb 3a3e 4f07 483d
00000110: fd56 173f d7d1 d2be f949 1bc0 4efa cf3f
00000120: 0909 d93c 5e90 00bf 829a 54bf d33e 333f
00000130: 1a45 e63f bbfe b0bc 43ad f73e dd2c b93f
00000140: dbda b6be 748b 06bf 4882 643f e1f6 3ebf
00000150: aa0c 7d3e ec77 553f a35b 23bf 897e 01bf
00000160: 9c87 313d 41e4 243f 4978 4d3f 8920 9ebf
00000170: d9c5 aa3e e9ed ccbf 81e1 bdbe 43c7 eabe
00000180: b5ef 8abe 6887 743f 9826 0d3d d6d0 73bf
00000190: 4255 cbbd e770 283f d3e9 9d3d 3fb5 3fbf
000001a0: 4f0f 13c0 fc25 d0be 06c4 fbbc 31b1 89bf
000001b0: ed59 dfbe e675 893f 0569 06bf 4c22 e23d
000001c0: d263 b2be 8a11 923f 85c6 5bbf 9a00 f03e
000001d0: 4392 f8bf ef51 373f ed61 fb3e 9705 0dc0
000001e0: 20f9 213f a1e4 ae3f 60ca aabf b57e 9fbd
000001f0: 0a32 3d40 3d73 55bf 494a 30bf 1186 2c40
00000200: cdc9 033f 7481 2ebe 23bc c4bf 1615 50bf
00000210: 559f a7bf d89b 3fc0 19c7 d6bf a0c1 303e
00000220: 1e91 7ebf 994b b23f 0dde a9be 1939 143f
00000230: fbf9 d13d 21ad ad3f 6b95 1f40 95ca 9c3f
00000240: bcaf cabe a421 5dbf 1298 9a3f 1296 f1be
00000250: 2c4e 1a3f 26af 29bf 659c da3e 6037 b7bd
00000260: 8de9 743f baef bf3f fbea 99bf 8fc0 c5be
00000270: 5d19 483f 9753 213f 3453 bf3f d9b7 843f
00000280: f835 8cbe f089 8cbf 70c3 913f a4d1 b23d
00000290: 588f afbe b42e b1bf 16b5 d63c 765f 7e3e
000002a0: 0b21 23bf 253e ac3e bd0b fb3e f3a8 dd3f
000002b0: 81a5 c13f 6389 fcbe 3cb1 66bf e208 ecbe
000002c0: 9dfc d73e 341d 42bf 5517 dfbe b864 debf
000002d0: 2dd7 4e3f 4899 a4bf c560 b93f 0c9f 553c
000002e0: 3ca0 2f3f b8ff 5cbe 1320 e33d 6155 aa3f
000002f0: 71e0 3dbf 7ea6 db3e f40c 31bf 667c c63f
00000300: 865c 9c3e c82c 3cbf 610a 8b3e a668 083e
00000310: fbd3 683f e1a8 c23f 36ca eabe db91 7b3e
00000320: 4eaa 40c0 2823 7fbf 3bb5 c63e 229f e7bf
00000330: 7adc 723e b4d5 4bbf e090 0140 01cd d13d
00000340: 393e e1be 7bb2 e2bd 2b03 91bf 4a27 053e
00000350: 9534 d33e 7229 debe 6832 a6bf a27e 27bf
00000360: ef81 7d3f d9a2 10c0 e453 1e3e 127e 07bf
00000370: 5fb5 2cbf 6707 61bf fdb4 053f e723 e0bf
00000380: 57d6 10bc cb7e 59be 3606 08bf 4845 1dbf
00000390: e4f1 2cbf 984e 8bbd 3d81 bebe 10a4 b6bf
000003a0: a49a 13c0 a7f0 81bd 2006 80be 97cd 113f
000003b0: 98f1 143e a138 2040 f98d 463e 8f79 923f
000003c0: 4c54 2240 2e9c 89be 13c0 77bf f085 1bbe
000003d0: 2d1e c63f 6f2e 23bf bcd6 e0bf 65c0 023e
000003e0: 500e 5abf 6954 1bbf f900 a5bd 3417 dbbf
000003f0: 8baa 08c0 cebd 0a3e f982 9abf 7547 6bbe
-0.28167114 1.0110008 -1.3900592 0.9264182 0.5550355 -0.25914368 -0.9119788 1.5294566
2.1902993 -2.299114 0.030386489 0.033740833 -1.0194523 0.33269033 2.0234203 -0.21481617
-1.3522369 -0.36603287 -0.22093688 0.6757039 1.527298 -1.4100008 0.03208578 -0.028223177
-0.33158246 1.7978799 -0.13698699 0.34926772 -0.6242622 1.7200079 -1.0183842 0.012827747
-0.5184984 0.71828073 0.9305661 1.0388716 0.40436825 0.7641863 1.6984475 -0.41967982
1.4196477 -0.5314394 0.23334706 -0.8560602 1.202473 0.056621376 0.06467299 1.3175101
0.41188157 0.92240804 -0.24472052 0.29443184 1.1142012 -1.6683183 -0.6362832 -0.88891685
-0.7585279 0.01894688 2.3244374 -0.18433902 -1.5256155 0.61222583 1.5651177 0.87742364
1.5993325 0.76590943 0.18259914 0.048835095 0.5911711 -0.4117572 -2.42639 1.6248262
0.026493566 -0.50220287 -0.8304826 0.7001774 1.7989838 -0.02160584 0.48374376 1.4466816
-0.35713848 -0.5255654 0.89261293 -0.7459546 0.24711862 0.8338611 -0.638117 -0.505837
0.043342218 0.6441079 0.80261666 -1.2353679 0.3335407 -1.6010104 -0.37086108 -0.4585515
-0.27136007 0.95519114 0.034460634 -0.95240533 -0.09928371 0.65797275 0.07710614 -0.74885935
-2.2978094 -0.4065398 -0.03073312 -1.07572 -0.43623295 1.0739105 -0.52504 0.11041698
-0.34841782 1.1411602 -0.8584979 0.4687546 -1.9419636 0.71609396 0.4909815 -2.2034662
0.6327076 1.3663522 -1.334301 -0.07787839 2.9561791 -0.83378965 -0.6886335 2.6956828
0.514798 -0.1704157 -1.5369915 -0.81282175 -1.3095499 -2.993887 -1.677951 0.17261362
-0.9944018 1.392932 -0.33177224 0.57899624 0.10252758 1.356846 2.4934947 1.2249323
-0.395872 -0.86379457 1.2077658 -0.47184807 0.6027553 -0.6628288 0.42697445 -0.08946109
0.9566887 1.4995034 -1.2024835 -0.38623473 0.781637 0.6301817 1.4947267 1.0368606
-0.27384925 -1.0979595 1.1387768 0.08731392 -0.3428905 -1.3842378 0.026209395 0.24841103
-0.63722295 0.33641163 0.49032393 1.7317184 1.5128633 -0.49323568 -0.9011419 -0.46100527
0.42184916 -0.7582581 -0.43572488 -1.7374487 0.8079708 -1.2859278 1.4482657 0.013038408
0.68603873 -0.21581924 0.11090102 1.3307306 -0.74170595 0.4290046 -0.6916039 1.5506713
0.3053934 -0.7350583 0.27156356 0.1332117 0.90948457 1.5207788 -0.458574 0.24567358
-3.0103946 -0.9966302 0.38810143 -1.8095438 0.23716918 -0.7962296 2.0244675 0.102441795
-0.43992785 -0.11069199 -1.1329092 0.13003269 0.41251054 -0.43390995 -1.2984133 -0.654276
0.9902639 -2.2599394 0.15461689 -0.52926743 -0.6746425 -0.8790192 0.5222929 -1.7510957
-0.008840165 -0.21239774 -0.5313448 -0.6143384 -0.67556596 -0.068021 -0.37207976 -1.4268818
-2.3063135 -0.06344729 -0.25004673 0.5695433 0.14545286 2.5034564 0.19390096 1.1443347
2.536395 -0.26876968 -0.96777457 -0.15187812 1.5477959 -0.6374273 -1.7565532 0.12768705
-0.8517809 -0.60675675 -0.08056826 -1.7116456 -2.135409 0.13548967 -1.207122 -0.22976477

in_proj_weight f4 [48, 16]
00000000: 26ca cf34 d12e 14be a703 4fbd d00a e13c
00000010: 2f81 c3bb a7f5 29be dc7a d5bd 2c85 a83b
00000020: 51c8 97bd cd64 b4bd ae30 843c 8224 8a3d
00000030: a59f 42bd 2e0d 2b3a a113 a03b 3716 2e3a
00000040: f5cf f03a fb28 773d 7cc5 7736 ec8b b837
00000050: c7c3 8f3d 2a9a bfb9 6c52 943d 88b6 11be
00000060: 02a6 1dbd 2a34 283e 33ae 263b 0688 a93d
00000070: 6c5b b1bc 0f9d 14be 09d1 b43d c643 0a3e
00000080: 6542 c9b7 e9f5 d9b9 f27e b33c 9041 88b6
00000090: b052 0bbe b74f 9cb4 3f42 20be bde2 e0ba
000000a0: cb22 303e 0d4d 203e 84be 1ebd e697 df3d
000000b0: fcc2 1e3e bf33 893d 6c45 883d 071e 0ebe
000000c0: dd6d 9fbd b37d 0e3e 325c 0dbd 0a80 aa3c
000000d0: be70 bc3d 2487 083e 4cbf 8e39 f118 df3d
000000e0: a6f3 99bd fdf5 063d 3336 27bd 7369 9a3b
000000f0: ab87 403d c7ed 3fbd 7c25 69bb 4f32 383c
00000100: 9f97 3237 8cef e1bd 3f2d 873d be3c 5bba
00000110: 47f8 0838 ae9f febd e902 1d3c 0a96 ccbb
00000120: 5cd9 94bc 7421 af3c 6a72 843b 7da8 203e
00000130: c8e5 77bd 620c 5abc acac 74bd 943a 86b4
00000140: 5998 d3bc fa2b 9f3d d41c 463c 325b ffbd
00000150: bdc0 c834 8384 20be 5d50 1f3e 0608 273e
00000160: 760b 28be 4f8e 98bc db3c 02bd 9b5d baba
00000170: 298e 95b0 23e5 e03d 49bc 00be 7409 ffbd
00000180: 7d72 c43c 9b4b 33be 0831 2fbe 75e9 2abd
00000190: ad2b 31bd 1896 9a3d 0dbe b93d 6ab4 0fbe
000001a0: a6b7 dfb7 7af1 713d db68 d33d 48b0 53bd
000001b0: e7a7 cd3d 976b e4b7 afd2 0934 0230 d93d
000001c0: 52cd 2c3d 05be 9bbd a5c6 123e 0461 2abe
000001d0: 3b10 7cbb 87a8 28bb 5b9e 2c3d 1387 c73d
000001e0: b718 2031 0765 75bc 23ba d63d 8e39 e43d
000001f0: d659 1830 bc50 cfbd 0ace 7dbc 1b54 2ebe
00000200: a4fb 09be f8d1 0bbb fc97 16b8 232f 3639
00000210: 319f bb3d a041 9a3d 9c74 48bb 70a2 1e3e
00000220: d689 123e afc4 c83d 4d3c 35b4 fa60 92bd
00000230: 4515 a63d 5362 2f3e edee ebb5 6be3 d53d
00000240: 95ae dbbd 0a17 f4bd 7611 1c3e 5b30 063e
00000250: d36f 08be 3dd6 03be 2fd1 03be c7d4 98bd
00000260: f9a2 2c3e 9650 dd3d 37a3 d1ae 0449 323e
00000270: f37b 05be 4c6a b33c 98b6 4ab5 85b9 aabd
00000280: e536 a5bd 89be 05be 4e11 acbc 8e58 b43c
00000290: 5bcc a9bd a0de 2dbd afdc 3c3c f8a7 adbd
000002a0: e438 5e39 4800 0b3e 679f 393b b084 91bd
000002b0: a404 1f3d 1cbd 9cbd c40e 873c 487b 9a3a
000002c0: 3236 ce3d a396 59bd 0014 df3d 31ad 8cb3
000002d0: 6eac b6ba 6e4a 93bc 1dbd d2bd 310e 083d
000002e0: e726 96bd 4893 323e ab96 c1bd 2a1e dabc
000002f0: 7013 b4b8 1173 113d c293 713c 6cae 68ba
00000300: 01b0 af3d 7f8c 0abe 1d3c 273e a01d 073c
00000310: 91d2 26b7 dac2 34bd 0340 0fbe 9453 213e
00000320: 41ba b4bd 6b77 fd3c 1c6e 22be 2d6f 26be
00000330: 3341 4e31 abde f0bc d268 f135 8b5b 9eb2
00000340: b7a3 0b3c 2fb8 abb7 ae0f d7bd 62c4 28be
00000350: 8382 cdbc 5d86 90bd 5004 12be da80 d73d
00000360: 1a10 22be 44be b0ba 5a52 f733 7193 60bd
00000370: 04dd 6cb3 639c ce3b d9f5 a03d 092f 9abd
00000380: c789 b9bc a462 f82f 6b59 6638 d996 73b9
00000390: a6f2 cb3d 69c4 323e f601 b8bd 3be6 16be
000003a0: 0ef4 d23c e2c9 68bc ddac 473d 0b74 9fbd
000003b0: 13e1 0bbe 985e 153e 7756 c4bd 65ee 30bd
000003c0: 5576 91bc dcb1 aa37 91c2 ebbd 8f6d 1bbd
000003d0: 1452 e83b a98f ed3d 4314 0dbd d619 78bd
000003e0: ee54 d5bc 488d 8b37 fc72 f53d 8764 be3d
000003f0: db25 d73d 3904 8739 4baf b3ba e02b 9f3c
3.8703837e-07 -0.14470984 -0.050540593 0.027470976 -0.0059663276 -0.16597615 -0.10423824 0.0051428284
-0.07411254 -0.08808289 0.016136494 0.067452446 -0.04751553 0.0006525096 0.0048851524 0.00066408835
0.0018372523 0.060341816 3.692082e-06 2.1999665e-05 0.070197634 -0.0003654522 0.07242283 -0.14229786
-0.038488396 0.16426149 0.002543342 0.082778975 -0.021650039 -0.14513038 0.08828933 0.13502416
-2.3991985e-05 -0.00041572683 0.021911118 -4.0607483e-06 -0.13605762 -2.9115265e-07 -0.15650271 -0.0017157417
0.17200772 0.15654393 -0.03875591 0.10917644 0.15504068 0.06699323 0.06653866 -0.13878642
-0.07784627 0.13915138 -0.034511752 0.020813007 0.09201191 0.13332802 0.00027226878 0.10893429
-0.075171754 0.032949436 -0.040823173 0.0047122776 0.047004383 -0.04685762 -0.003557532 0.011242463
1.0644929e-05 -0.11032018 0.06600427 -0.00083632383 3.2656153e-05 -0.124328 0.009583213 -0.006243472
-0.018170051 0.021378256 0.0040419595 0.15689273 -0.06052187 -0.013308616 -0.059734985 -2.5002066e-07
-0.025829481 0.0777206 0.012091834 -0.12468566 3.7393139e-07 -0.15675549 0.15558 0.16311654
-0.16410622 -0.018622546 -0.031796318 -0.001421857 -1.0881581e-09 0.10981204 -0.12571825 -0.12452975
0.023980374 -0.1750931 -0.17108548 -0.04172655 -0.043254543 0.07548159 0.090694524 -0.14033666
-2.666919e-05 0.05906818 0.10322734 -0.051681787 0.100417905 -2.7229818e-05 1.2835766e-07 0.1060486
0.042187996 -0.07604603 0.1433359 -0.16638571 -0.0038461823 -0.0025735216 0.042143207 0.0974256
2.3297113e-09 -0.0149777 0.104847215 0.1114379 5.542494e-10 -0.10122821 -0.015491018 -0.17024271
-0.134749 -0.0021334868 -3.5904333e-05 0.00017374432 0.09161223 0.07532048 -0.0030587083 0.15491652
0.14310393 0.098031394 -1.6878876e-07 -0.07147403 0.081095256 0.17127351 -1.7578401e-06 0.10443767
-0.10726658 -0.11918457 0.15241036 0.13104384 -0.13323908 -0.12874694 -0.12872766 -0.07462459
0.16859044 0.10806386 -9.5332124e-11 0.17410666 -0.13035564 0.021901272 -7.5516573e-07 -0.08336166
-0.08067111 -0.13060965 -0.021004345 0.022014882 -0.08290931 -0.04244864 0.011527224 -0.08479303
0.00021192763 0.13574326 0.002832377 -0.07105386 0.038822785 -0.07653257 0.016486533 0.0011786008
0.10068931 -0.053122174 0.108924866 -6.5507614e-08 -0.0013936886 -0.017979827 -0.10289977 0.03321666
-0.07331639 0.17438996 -0.09452566 -0.026625711 -8.5866894e-05 0.035510127 0.014744701 -0.00088760885
0.08578492 -0.13530158 0.16331525 0.008246809 -9.943397e-06 -0.044131137 -0.13989262 0.15754539
-0.088245876 0.030940732 -0.15862316 -0.16253348 3.0014007e-09 -0.029403051 1.7986406e-06 -1.843525e-08
0.008522919 -2.0470556e-05 -0.105010375 -0.16481164 -0.025086647 -0.07056878 -0.14259458 0.10522623
-0.15826455 -0.0013484438 1.15168135e-07 -0.05482811 -5.5149044e-08 0.006305264 0.07859392 -0.075285025
-0.022648705 4.5181026e-10 5.491955e-05 -0.00023230481 0.09958391 0.17457737 -0.08984749 -0.14736263
0.02575114 -0.014208289 0.04874884 -0.07785805 -0.13660078 0.14586866 -0.09586804 -0.0431961
-0.01775662 2.0348401e-05 -0.1151172 -0.03794628 0.0070898626 0.115996666 -0.03444315 -0.060571514
-0.026041474 1.663588e-05 0.11984822 0.09296518 0.10505267 0.00025752353 -0.0013708858 0.0194301

in_proj_bias f4 [48]
00000000: 0000 0000 0000 0000 0000 0000 0000 0000
00000010: 0000 0000 0000 0000 0000 0000 0000 0000
00000020: 0000 0000 0000 0000 0000 0000 0000 0000
00000030: 0000 0000 0000 0000 0000 0000 0000 0000
00000040: 0000 0000 0000 0000 0000 0000 0000 0000
00000050: 0000 0000 0000 0000 0000 0000 0000 0000
00000060: 0000 0000 0000 0000 0000 0000 0000 0000
00000070: 0000 0000 0000 0000 0000 0000 0000 0000
00000080: 0000 0000 0000 0000 0000 0000 0000 0000
00000090: 0000 0000 0000 0000 0000 0000 0000 0000
000000a0: 0000 0000 0000 0000 0000 0000 0000 0000
000000b0: 0000 0000 0000 0000 0000 0000 0000 0000
0.0 0.0 0.0 0.0 0.0 0.0 0.0 0.0
0.0 0.0 0.0 0.0 0.0 0.0 0.0 0.0
0.0 0.0 0.0 0.0 0.0 0.0 0.0 0.0
0.0 0.0 0.0 0.0 0.0 0.0 0.0 0.0
0.0 0.0 0.0 0.0 0.0 0.0 0.0 0.0
0.0 0.0 0.0 0.0 0.0 0.0 0.0 0.0

weight f4 [16, 16]
00000000: cffd e13d d858 fb3c 9a8b 2e3d 7606 22bd
00000010: 616c acbd d553 ce3c 2765 1cbd cb84 aeba
00000020: 4664 bcbc b291 99b8 5272 873c d336 75bc
00000030: 3c0d b1bd 2ce0 873b c21f bc3d 5b23 3dbd
00000040: d35d 6db9 a504 b1bd 2d53 273d a926 95b5
00000050: 7c69 96bd 9d72 8ebd bd89 94bc 4810 e4bd
00000060: 3c0a 34bd b698 493c 228e 9a3d 66aa a5bd
00000070: 6853 27bb 2539 b2bb 0396 02bd 3036 923a
00000080: e13f 4b3d fc64 90bd ed1f 503c 5ce2 913c
00000090: a8a3 8ebd 1b3a e5bb 09b1 d7b8 df5c 033c
000000a0: b428 c33d a1c3 d7bc f163 2b31 3f68 d93d
000000b0: 0dac e8bc f37c 61bb 8556 72bc 2955 a93d
000000c0: b1ba fcb5 755f 073d 276c 19b4 353b 663d
000000d0: 9fe6 683b 454d aabc 9da9 5a3c 616e 73bd
000000e0: e0ca eb3a c763 15bd b098 55ba 1303 853d
000000f0: 1581 bebd 8456 64bd c5c5 5bbd 89d1 cd3d
00000100: 5c4e 63bc 47ab f53a a75c 833d f34e e93d
00000110: f8a3 4abc 8e06 8abc 9ead a137 c5a3 1639
00000120: b76b acba c431 ff3c 68c3 c13a 3065 14b0
00000130: 7155 e7bc 9c29 843d 4fdf fc3d 0d68 993d
00000140: 811a 9c3a 703c d8bc d68f a4bd f68e 003c
00000150: f2b5 aeb7 0295 21bb 69c3 0e3d 8bd7 cebc
00000160: f26d c43d 689e 6e36 2819 373d fd60 c9bd
00000170: 7dd6 c13d ae64 a03c 5e6a 8b38 3a00 e5bd
00000180: 3d1e 86bd 2f69 19bd ad3c 77bd 5ecb 8cbd
00000190: 7e08 8dbd 13a2 893d 5f74 c3bc 63b4 1bbd
000001a0: 500a 1db9 0c3c 9d3d 2600 a9ba e001 423b
000001b0: d5a1 753d 2016 7cbd 0f95 a1b6 c6d2 8dbd
000001c0: 48d8 f93d 2c3c b639 7d86 9d3d 77ec be3b
000001d0: 6fe3 4334 6c9c abbd 1d8e f23d 5d96 413a
000001e0: 54bd 31bd 3d7e 24bd b74a 82b8 5757 8a3d
000001f0: b947 bfbd e04d ec3c dd1f 6238 09f9 1dbc
00000200: 2bcc 663d 6975 983a 0306 853d 3dea 1834
00000210: 1b1a d33c 44d8 60bd 4d88 bc3d 3c0a 96bd
00000220: 7dc5 8f38 0e4b 163a c38b 7a3d 3e3f e53d
00000230: 3a15 343b b04b 8b3d d819 2a3d 7f8e 593d
00000240: c1a4 64bd 9d0b 6b3a de03 f7bd 8f7f 30bc
00000250: 3f4f 28bd ad7f b639 c0b8 4f3d 3bc1 f4bd
00000260: a0a4 513d 0ccc c23d ad46 dbba 9061 d630
00000270: e24c a339 3f84 a5ba 307f 8eb2 caee f53d
00000280: 62c0 91bb b450 d5b0 3f57 d23d 6cc6 48bd
00000290: 61b3 71bd 518d c43b bad5 98bb 9156 26b8
000002a0: cb34 ccbd a956 0e3c baac 9dbd 423f 203d
000002b0: 7d85 c1bb b76b c8b9 a7dd 3638 28e9 e33d
000002c0: 4e92 83bb 177f 23bd b61a d93c 0c95 16bd
000002d0: 7697 ae3d d9dd 233b 3a4c b8bd d761 fcba
000002e0: 6ea1 2fb1 d1c0 9ebd cf50 fb39 605b aa3d
000002f0: fdef 943d c9a7 d23d dc3b d03d acb4 f7bd
00000300: 4903 693c aca1 a93c 3683 b23c e74d d734
00000310: fed0 cc3b fc4d 81bc b928 63bd f101 2cbd
00000320: f0c9 3abc 10b6 f5bd d518 4ebd 3215 ac3d
00000330: bc5b 3233 cf75 103d 878f c3b8 c99c be3d
00000340: 433a a53d 26a5 2f38 c14f e238 5063 7e3d
00000350: 0783 ea3a 070c 9d3d 8df3 933d 98c6 443c
00000360: 72a9 86ba 9da2 943d 23aa f03c 084a 3a3c
00000370: 2ac0 0b2d f07b 0a3d 6d0d bdbc 3d57 69ba
00000380: dee7 913d 0497 8bbc 4868 d5b7 93fa 5cb5
00000390: 1ce3 8a3d 71d0 26bd b888 67bc a9f9 83bd
000003a0: 94b7 9d37 ea46 c73d 44ef bebc 8338 0b38
000003b0: 0f29 a63d 2e71 503d 173d c9bd fe67 e83d
000003c0: 1561 a5ba 9c2d 4f3c 9f80 f3bd 7f1b 8ab5
000003d0: 7d85 d7bd 8a4e fabd 7cae dc3d d580 f2bd
000003e0: 7155 f93a dcdd ae3d 9581 95bd d964 413c
000003f0: 3cf5 a33c f412 fc3c 07f5 f03a 2b01 993d
0.11034738 0.030682012 0.042613603 -0.039556943 -0.08419109 0.025186459 -0.038182404 -0.0013314722
-0.022997033 -7.3227464e-05 0.016534004 -0.014966684 -0.086451024 0.0041465964 0.09185745 -0.046176296
-0.00022637034 -0.08643464 0.040850807 -1.1112617e-06 -0.07344338 -0.069554545 -0.018132085 -0.11135918
-0.043955073 0.0123044755 0.07546641 -0.080891415 -0.0025531892 -0.005438941 -0.031881344 0.0011155065
0.049621467 -0.07050511 0.012702924 0.017808132 -0.06964809 -0.006995452 -0.00010284974 0.008017748
0.09529248 -0.0263384 2.4940585e-09 0.106155865 -0.028402353 -0.003440675 -0.014791136 0.08268196
-1.8829797e-06 0.03305002 -1.4288581e-07 0.056208808 0.0035537852 -0.020788798 0.013346103 -0.059431437
0.0017989539 -0.03647211 -0.00081480574 0.06494727 -0.09301964 -0.05574657 -0.053655405 0.10049731
-0.013873663 0.0018743061 0.064141564 0.113920115 -0.012368195 -0.016848829 1.9273542e-05 0.00014366124
-0.001315466 0.03115166 0.0014782967 -5.398588e-10 -0.028238984 0.06453249 0.1234728 0.07490549
0.0011909754 -0.026396006 -0.08035247 0.007846585 -2.0827141e-05 -0.0024655466 0.034854326 -0.025249263
0.09591283 3.5556968e-06 0.044701725 -0.09832952 0.094647385 0.019579258 6.647849e-05 -0.11181684
-0.06548736 -0.037453827 -0.0603606 -0.06874727 -0.068863854 0.06720366 -0.023859201 -0.038013827
-0.00014976528 0.07677469 -0.0012893721 0.0029603168 0.05996879 -0.061544538 -4.8155266e-06 -0.069249675
0.121994555 0.00034758577 0.07691667 0.0058265286 1.824353e-07 -0.083794445 0.11843512 0.00073847716
-0.043393448 -0.040159453 -6.2128e-05 0.0675494 -0.09339852 0.028845727 5.3912274e-05 -0.009641894
0.056347053 0.0011631671 0.06495287 1.4241319e-07 0.025769284 -0.054893747 0.09205685 -0.07326171
6.8555564e-05 0.000573323 0.061168443 0.11193703 0.0027478472 0.068015456 0.041528553 0.05311441
-0.055821184 0.0008966269 -0.120612845 -0.0107726 -0.0410912 0.0003480887 0.0507133 -0.11950918
0.05118239 0.09511575 -0.0016729437 1.5598278e-09 0.00031147065 -0.0012627913 -1.6588814e-08 0.12008436
-0.0044479826 -1.5520727e-09 0.10270547 -0.049017355 -0.05900896 0.0059982915 -0.00466415 -3.9658105e-05
-0.09971007 0.008687654 -0.076989606 0.039122827 -0.0059058056 -0.00038227226 4.359861e-05 0.111284554
-0.0040152436 -0.039916124 0.026501995 -0.036763236 0.08524983 0.0025004058 -0.08998914 -0.0019255233
-2.5557614e-09 -0.077516206 0.00047934658 0.0831821 0.07272337 0.10285909 0.10167667 -0.12095007
0.014221975 0.020706974 0.021791082 4.0103552e-07 0.0062504997 -0.015784256 -0.055458758 -0.04199404
-0.011400685 -0.11997616 -0.05031665 0.0840248 4.1527286e-08 0.0352686 -9.3250586e-05 0.09307248
0.08067753 4.1877058e-05 0.00010791375 0.06210643 0.0017891832 0.0766831 0.07224188 0.012010239
-0.0010273887 0.072575785 0.029378003 0.0113701895 7.943904e-12 0.033809602 -0.023077691 -0.0008901244
0.07124303 -0.017039783 -2.5440138e-05 -8.232102e-07 0.06781599 -0.04072613 -0.014131717 -0.06444103
1.8801344e-05 0.09730323 -0.02330745 3.3192813e-05 0.081133 0.050889187 -0.09826105 0.1134796
-0.0012617434 0.0126451515 -0.11889767 -1.0289804e-06 -0.10523508 -0.122220114 0.10775468 -0.11840979
0.0019022656 0.0853841 -0.073001064 0.011803829 0.020014398 0.030770756 0.0018383571 0.07470926

bias f4 [16]
00000000: 0000 0000 0000 0000 0000 0000 0000 0000
00000010: 0000 0000 0000 0000 0000 0000 0000 0000
00000020: 0000 0000 0000 0000 0000 0000 0000 0000
00000030: 0000 0000 0000 0000 0000 0000 0000 0000
0.0 0.0 0.0 0.0 0.0 0.0 0.0 0.0
0.0 0.0 0.0 0.0 0.0 0.0 0.0 0.0

weight f4 [256, 16]
00000000: 538e dd3d b723 01b2 c760 93bd 7ddb d83d
00000010: f788 61b1 bc2c e2b8 75ae 42bb 81fb 08af
00000020: 5fb1 853c 7218 95bc f883 acbc b839 113d
00000030: d9d8 bb3c 0472 763c 7649 09b3 3ed9 8d38
00000040: c1e2 a23d 85d6 c43d f587 f03d 90bc adbd
00000050: f251 b2bc aa0b 48bd 63f1 babd d6da bf3d
00000060: 879e 30b4 ab03 963d 7d1d 753b 057f b8bc
00000070: 2ab2 c9bd e745 65b5 f740 ae3d 3b92 7bbc
00000080: 912e f23d 50cf 2238 d21e a2bd a4ec 6e3c
00000090: b0dd 12b3 ed06 a8bc 5ad6 bfbc e44a 8dae
000000a0: b8b7 c5bd 06ce 14b3 be20 19bd 30a8 32bd
000000b0: 41d5 bd3b 5398 44b4 4aed 11b7 209d dabd
000000c0: 8d3c cdbc 444e df3d 4421 ca32 8be9 82bd
000000d0: 541b ff35 7335 1130 edfb 5434 0b1c 70b7
000000e0: 35cd 88bd 3dee 8abd b02d 09bd 9fbf 322f
000000f0: 20ad 923b 2414 23b2 96b2 9abd d9e7 ebbc
00000100: 30ed 97bc 88a9 d23d a113 923b 7294 acbc
00000110: c900 e7bd 495c f9bd fd04 52ba 3903 8a3c
00000120: 1bcd 61bd 9055 5b3d 297e 8632 95f7 04b3
00000130: 7b67 8739 0f2b 22b2 9273 8b32 37f1 6d3b
00000140: 21bc c1ba 1d75 b330 69ff 4e3c fac8 8f3d
00000150: 71f8 ca3d f113 a03c 27d6 9e3a ad91 5a3d
00000160: 1b75 2b39 5e96 893c 1a68 d7b8 1819 e13d
00000170: 362b f7bd 47bd a534 775b e2bd d928 d13d
00000180: 518e 3cbb 8d2a 21bd 24f5 6e3c 5e7e 8cae
00000190: 68b4 6ebc 6e1a 74bd 6790 67bd 572a 18bd
000001a0: 0951 563c 28e6 e1bc bb0b 513d 2d1b c53d
000001b0: 02c4 84ba 0694 b8bd 34ca a4bd e268 00bb
000001c0: 2083 0b3d d4c6 30bc 4f9b 3f3c e6e7 0a31
000001d0: 13f6 08bd 05dd 28bd 5d63 4335 75f9 d63d
000001e0: ea52 ba3a ad7a 00bd 9018 8bbd a8d8 1534
000001f0: d3cf 56ba ceb2 762e 6ea5 40bd 89c7 cdbd
00000200: ad19 7f35 23aa 34bb 9183 2833 55ca 0a3c
00000210: e005 a5bc 6bf0 7e3c 34b9 fcb8 b12c bcb8
00000220: e3f7 833d 7ab3 9d3c 7361 81bc 9be2 0d38
00000230: 9f5a bbbb 331f 72b2 7b7d bf3d 5bba 99bd
00000240: 360a 8e3d 8d0d 6139 8ebc aa3d b0e9 bc3d
00000250: 6e0b de3c f2e4 033d 4209 ea3b f23c 0538
00000260: 749e 0e3d ac73 ac35 2760 cb3b af44 853d
00000270: ac07 ebbb f295 9ebd d6dc c4bd 05f8 8dbd
00000280: 1413 c43c 8f3f cdb7 54f0 c0bd 6274 c23d
00000290: ef54 843d 0743 cfbc 4e7c 5aba 96a5 88bd
000002a0: 3e23 c53d a4d3 bc3d 0ae6 ef3b 8928 bc3d
000002b0: e055 50bd da16 9c3d 096f bbb8 a3de af3d
000002c0: 5af9 94bd 34fe d7bb e264 a8b9 ec2e 41bc
000002d0: ff86 b5bd e65f f83d bde9 06bd 1e9f 4f3d
000002e0: 32e3 a638 9e3b 973d fc86 0c3c 2c9f e3bc
000002f0: 35d9 a53d 550d 293d ea6f 803d 8e8c 22bd
00000300: a3d0 3a3d cdaf 1b35 b536 aabd 1e92 973c
00000310: a561 90bd f780 773c bf11 f43a 2a8e 903c
00000320: f5e4 44bb 0410 9dbc 5cff f2bd 6dfa 623d
00000330: 3628 a5bd 9947 acbc 3ded b23d ffaf 1abb
00000340: f013 39bc c950 03bc bb8b dd3a cee1 0a34
00000350: 1247 2eb8 2995 74bd 74ab d63d 4f09 d63b
00000360: 0eb1 d33d 4529 ec3b 7e14 a23c 155b 85bd
00000370: d749 b6bd 6cf8 7db9 a497 913d 6fe7 b2bd
00000380: b549 4bbd 29f5 613d 032f fb3d a752 9b3c
00000390: d5d1 ad3c 5a54 c93c 667b fabd 19a9 3abd
000003a0: e765 71bb c5f3 8cb9 4f0c 71bd 170c 2d3d
000003b0: b77b 8dbd 2816 173b a7bd 04bd 5404 9dbd
000003c0: 860f b7ba 4d67 90bd 2d3f 883d 7f49 19bc
000003d0: aaae a8b5 e5ad f4bd ebcd 743d 8970 aabc
000003e0: aa99 e0b4 d602 c33d b8e5 99bb 9c30 913b
000003f0: 8b82 273d d702 4737 e3eb afb2 b451 0bb9
0.10818162 -7.516909e-09 -0.07196193 0.10588739 -3.2819665e-09 -0.00010784852 -0.0029706035 -1.245848e-10
0.016319929 -0.018200133 -0.021059021 0.035455436 0.02293055 0.015041832 -3.196461e-08 6.7638684e-05
0.07953406 0.09611229 0.11744682 -0.08483231 -0.02176759 -0.04883925 -0.09128072 0.093679115
-1.6448949e-07 0.07324918 0.003740161 -0.022521505 -0.09848435 -8.541087e-07 0.08508485 -0.015354688
0.11825288 3.8816885e-05 -0.07916035 0.014582787 -3.4194898e-08 -0.020511115 -0.02341764 -6.425241e-11
-0.09654182 -3.4646312e-08 -0.03738474 -0.043617427 0.005793244 -1.8309338e-07 -8.697922e-06 -0.106745005
-0.025053287 0.109036 2.3531022e-08 -0.06392201 1.9006934e-06 5.282665e-10 1.9835689e-07 -1.4311644e-05
-0.06679765 -0.067837216 -0.033490837 1.6257083e-10 0.0044762045 -9.492428e-09 -0.07553594 -0.028797077
-0.018545717 0.10286242 0.0044579064 -0.021066878 -0.11279447 -0.12175805 -0.00080116076 0.01684724
-0.055127244 0.053548396 1.5657024e-08 -3.095882e-08 0.00025826306 -9.4394315e-09 1.6234285e-08 0.0036307105
-0.0014780798 1.305725e-09 0.012634137 0.07020755 0.09910668 0.019540759 0.0012118266 0.053361584
0.00016351456 0.016795333 -0.00010271389 0.109911144 -0.12068789 3.0871362e-07 -0.11052602 0.10212869
-0.002877135 -0.03934722 0.014584813 -6.38891e-11 -0.014569379 -0.059595518 -0.056534197 -0.037149753
0.013080844 -0.027575567 0.051036578 0.09624324 -0.0010129216 -0.09012608 -0.0804638 -0.0019593765
0.034060597 -0.010789592 0.011694743 2.0213462e-09 -0.0334378 -0.041226406 7.2787753e-07 0.10496799
0.0014215384 -0.031366993 -0.06791794 1.3955525e-07 -0.00081944204 5.6092735e-11 -0.047032766 -0.10047824
9.5032266e-07 -0.002756723 3.9235207e-08 0.008471091 -0.020144403 0.01556025 -0.00012050793 -8.972863e-05
0.06443765 0.01925062 -0.015793538 3.3828062e-05 -0.00571759 -1.4093348e-08 0.093501054 -0.075062476
0.06935541 0.0002146272 0.08336745 0.0922426 0.02710506 0.03220076 0.007142217 3.176643e-05
0.03481908 1.2848664e-06 0.0062065306 0.06507241 -0.0071725454 -0.077434435 -0.096124336 -0.069320716
0.023934878 -2.4467501e-05 -0.09420839 0.094948545 0.06461512 -0.025300516 -0.0008334563 -0.06672208
0.096258625 0.09220055 0.007321124 0.09187419 -0.050863147 0.07621546 -8.937537e-05 0.085873865
-0.072741225 -0.0065915827 -0.0003211862 -0.011790972 -0.08863639 0.12127666 -0.032937754 0.050688855
7.957815e-05 0.07384418 0.008577105 -0.02778586 0.080980696 0.04127248 0.06271346 -0.039684825
0.045609128 5.7997823e-07 -0.08311216 0.018502291 -0.07049874 0.015106431 0.0018621011 0.017645914
-0.0030043696 -0.019172676 -0.11865112 0.055414606 -0.0806431 -0.021030234 0.08736656 -0.0023603437
-0.011296257 -0.008014866 0.0016902605 1.2934399e-07 -4.1551022e-05 -0.059712563 0.10481921 0.0065318714
0.10336505 0.007207068 0.019785162 -0.06511513 -0.089008026 -0.00024220505 0.07109001 -0.08735549
-0.04963084 0.055165444 0.12264826 0.01896031 0.02121822 0.024576355 -0.12230568 -0.04557142
-0.003683442 -0.00026884503 -0.05884963 0.042247858 -0.06908362 0.0023053978 -0.03240743 -0.07666841
-0.0013966418 -0.07050953 0.06652675 -0.009355902 -1.2567809e-06 -0.1194723 0.05976669 -0.020805614
-4.1835057e-07 0.09522025 -0.004696574 0.0044308435 0.04089598 1.18619855e-05 -2.047995e-08 -0.0001328651

bias f4 [256]
00000000: 4dd6 a83c b458 88ae 0ad8 a7bd aad3 383d
00000010: 4f47 dabd 946a 2a3a 884b 93bc 82bc 0c3d
00000020: 5d3b 31bd fb3d f03a 552a 7537 3beb a7bd
00000030: f1bf f9b8 dc5a 9fb4 e832 3a38 cf9a adbd
00000040: e32b 833b 1f81 cc3a 2930 fcbb 5c91 54b9
00000050: eff3 43bc 3f3d 71bd 9abd bd3d 4ff7 c139
00000060: a250 3abd 29b0 0e3d b98c 9e3d b562 97b8
00000070: c0c4 3c3c be6b e6bd 473f cebd 1bcc 1ebc
00000080: cb3b f6bd ecf3 febc 65ce c83b 6adf ee3d
00000090: 8939 f3b5 9890 5c3d 61fc 75bd d00c 0c33
000000a0: 9b8e 6c31 27a8 c13d bf40 bdbc fdb3 f8b7
000000b0: 0c6b 41b3 a62b ce3d 6e6a 883d 0492 41bb
000000c0: f269 f33c 1008 e63b 6eb9 5138 0658 c1b5
000000d0: ed22 76b4 98de d5bb 9041 173c 1a6a 95bb
000000e0: 0f03 abb9 c52b 09bd 33ed 4bb6 602f 3eb0
000000f0: 2d1c 0bbb d47c ce3c ff08 b1b9 1778 89ba
00000100: a64f ea3d 1ca9 87bd 2c46 0eb8 4586 c7b6
00000110: 1cdd 28b4 81a1 663b de51 c83d 5162 8bbd
00000120: 79ae cf3c 98c2 81bd 73c6 b0bc 2c54 24ba
00000130: 7e98 ae3d cf8a f13d e1af 8d3d a30a 8dbd
00000140: d0a8 67bd 1741 7f3c d091 0c3c 3973 c5b6
00000150: f734 4f3c 041d 193c 7367 963d 0a61 183c
00000160: c1f0 943d 53c5 9ebb dfce 18bd dd2d c9bd
00000170: 492c e3bb bfab 17b9 5e56 833d 7aea 00bb
00000180: a21f 41b9 7d91 ad3d faee cf3d 46ab e936
00000190: 8988 1f3d ce5b ee38 290b 75bb 573b cfbb
000001a0: f604 c83d 698d bbbd accb 123c 8588 0f38
000001b0: d958 d93c 7d22 393d 6352 c1bd 2e60 11bc
000001c0: f4bb cd33 58a3 e43b 245b 93b3 7a0f f63d
000001d0: 5473 5dbb 139e 4a3a 7fdb 7c3c 13c2 123c
000001e0: 095b f03d 1570 e1bd 6e00 9bbd e5bf f2bc
000001f0: dbe7 a3b9 2008 60bc 49ce 8737 dcab 3636
00000200: 36cd 2a3c bbc5 b53d 8841 f734 a281 de33
00000210: 2a6e 553d 82a1 9c34 c216 eabc 1af9 e939
00000220: c7ce f63d ba24 fbbd 3932 24bc c219 b4bd
00000230: 926f 24b5 f013 95bd 7cb3 1fb8 741d 99bd
00000240: 5f22 b63d 50e5 e4bd df91 b2bd 4225 58bd
00000250: d05e d33d e758 1f3b 802d c83d af9d 4fba
00000260: 6c6d e2b2 afab 79bd 0f55 d732 db42 40bd
00000270: 5d18 6fb9 cd9c 383d dcf1 1b3c 16f7 7f3d
00000280: deb5 2e3d d156 b2bd 971c adbd fe83 1ebd
00000290: 62ac 42ba aad0 7f3c d0bc 7bbd a9d0 733d
000002a0: 6fde 16bd 8b48 1cbc 9093 93af 8416 d3b4
000002b0: 3210 82bb 0895 75bd 6739 4532 d996 61bd
000002c0: a074 a0bd 2ace 33bc 7093 debd 495c aabc
000002d0: b423 9c3b 857a 04ba e9e6 79bb d5c0 503d
000002e0: 096f c9b3 a410 ad3d d3a3 3cbd 4ad2 7c38
000002f0: 9191 6e3c f505 9abd 5317 a4bd e4e0 1c39
00000300: 802c 23bc d9a6 e63d ad9e 09bd aaa9 bd3b
00000310: fbe8 8a3d ac52 04b6 3f9e a8bc 7d58 1d39
00000320: 87b0 5ebd 7010 0f33 76e4 d43d 535c cfbd
00000330: 576b f2bd 2aa0 36bc 25da 5eb8 9963 df3b
00000340: 8f4a 2c38 e449 17bb f121 83bd aba5 0bb4
00000350: 270e bf3d 5df3 0bb8 43af c43d 534b 0b3d
00000360: bb82 4f3b 9f88 9cbd de45 9d3d 404b ec3d
00000370: e30f cbb9 6e7c ffbc 6425 e33d b1c4 9a2f
00000380: b8b1 1d3d 5ede eb3d e732 b2bd ead6 0a37
00000390: d751 6a3c ee1e cabd 0533 863d e484 693d
000003a0: abb2 e136 b264 c5b8 8cdb 24ba 83d8 5e2e
000003b0: eea3 b43d 98a1 12bb 6ab3 cfbc 1372 5ebc
000003c0: dbda 18bd 3c99 2f3b 6009 3a3d 3961 933c
000003d0: b003 9f3d d7e7 0e3d 8d01 a53d f56e 5dbd
000003e0: 57ff 7f36 9935 b9bc a50b 693d 6ecb 15bd
000003f0: 556d de3d ea5f b2bd 2315 fdbd 13ae b4bb
0.02061 -6.200321e-11 -0.08195503 0.045123734 -0.10658132 0.0006500867 -0.017980352 0.034359463
-0.043269504 0.0018329018 1.4612994e-05 -0.081991635 -0.00011908997 -2.9682167e-07 4.4393266e-05 -0.08476793
0.0040030344 0.0015602446 -0.007696171 -0.00020272046 -0.011960014 -0.0588963 0.09264679 0.00036996088
-0.045487054 0.03483597 0.077416845 -7.218627e-05 0.011521518 -0.11251019 -0.10070663 -0.009692217
-0.12023123 -0.03112217 0.00612812 0.116637066 -1.8121656e-06 0.053848833 -0.06005514 3.2607943e-08
3.4423582e-09 0.09455901 -0.023102162 -2.9647717e-05 -4.5033673e-08 0.10066919 0.06660925 -0.0029536495
0.029713605 0.007020004 5.0002178e-05 -1.4405239e-06 -2.2923241e-07 -0.0065267794 0.00923194 -0.0045597674
-0.0003261794 -0.033489008 -3.0387425e-06 -6.918892e-10 -0.002122651 0.025206007 -0.00033766773 -0.001048806
0.11440973 -0.06624052 -3.392079e-05 -5.946293e-06 -1.5726658e-07 0.0035191479 0.0978124 -0.06805862
0.02535175 -0.06335944 -0.021579003 -0.0006268646 0.08525179 0.11794054 0.06918312 -0.068867944
-0.056557477 0.0155794835 0.008579686 -5.884471e-06 0.012646905 0.009345297 0.0734395 0.00930048
0.07272483 -0.0048453 -0.037306663 -0.09823201 -0.0069327694 -0.00014464463 0.064129576 -0.001967101
-0.00018417698 0.08475015 0.10153003 6.96388e-06 0.03894857 0.00011365824 -0.0037390685 -0.0063242125
0.09766571 -0.09157831 0.008959692 3.4221e-05 0.026531624 0.045198906 -0.09439542 -0.008873029
9.580245e-08 0.00697748 -6.861799e-08 0.12014671 -0.0033790665 0.00077292434 0.015433191 0.008957404
0.117361136 -0.11007706 -0.07568441 -0.029632518 -0.00031262529 -0.013673812 1.6189313e-05 2.7220149e-06
0.010424903 0.08875605 4.6055015e-07 1.0361261e-07 0.052107014 2.9174777e-07 -0.028575305 0.00044626818
0.120511584 -0.122628644 -0.01002174 -0.087939754 -6.1257117e-07 -0.072791934 -3.8075712e-05 -0.07476321
0.088932745 -0.111765504 -0.08719229 -0.052769907 0.103208184 0.0024314465 0.097743034 -0.000791992
-2.6359622e-08 -0.060954746 2.5067974e-08 -0.04693876 -0.00022801892 0.045071412 0.009518113 0.0624915
0.04265391 -0.08707965 -0.08452719 -0.038700096 -0.00074262 0.015613714 -0.061459363 0.059525166
-0.036833223 -0.00953878 -2.6843994e-10 -3.9318195e-07 -0.003969216 -0.05995658 1.1479961e-08 -0.0550755
-0.078347445 -0.010974446 -0.10867965 -0.020795958 0.0047649983 -0.0005053657 -0.0038132018 0.05096515
-9.379989e-08 0.084504396 -0.046054672 6.027733e-05 0.014561073 -0.075206675 -0.08012261 0.00014961098
-0.00995934 0.112622924 -0.03359859 0.005788048 0.06782719 -1.9717654e-06 -0.02058327 0.00015005651
-0.05436757 3.3309732e-08 0.10395138 -0.10125031 -0.1183688 -0.0111465845 -5.3132087e-05 0.006817293
4.1077434e-05 -0.0023084814 -0.06402958 -1.3005653e-07 0.09328871 -3.3366832e-05 0.09603741 0.03400738
0.0031663615 -0.07643246 0.07679342 0.1153779 -0.00038731014 -0.031187262 0.11091116 2.8152194e-10
0.038499564 0.115170226 -0.08701115 8.27548e-06 0.014301739 -0.098691806 0.065527 0.0570115
6.726322e-06 -9.412448e-05 -0.00062888185 5.0669257e-11 0.088203296 -0.002237415 -0.025354106 -0.013577002
-0.03731809 0.0026794216 0.045419097 0.017990695 0.07764375 0.03488907 0.080569364 -0.054060895
3.8146588e-06 -0.022608565 0.05689587 -0.03657096 0.10860697 -0.087097004 -0.12357547 -0.0055139153

weight f4 [16, 256]
00000000: 1e86 dcb4 9854 baaf d483 eaaf f70a 2a3a
00000010: 6bde da38 df2d 2039 5c24 8ab1 0a65 82b9
00000020: 0890 13ba ae4a af3a fcaf 77b0 a770 2fb9
00000030: d18d ccb9 abbe 303a e7c7 c539 9afb 6fb9
00000040: 15dd b438 d79d b13a 53e9 9bb8 59a6 fa30
00000050: a934 b6ba f64f ae3a 4de1 a936 c959 863a
00000060: a2d4 35b3 5ab0 88b4 39a7 d1ba 758c a3b9
00000070: c526 7f30 0b0d 0939 4059 0bb8 d1bc ddb9
00000080: 8162 c83a da32 04ba 1f18 3836 10ed 13b2
00000090: db03 94b5 735f d530 27a4 053a 9b44 a6b8
000000a0: e03a bf34 51b9 40b4 3af2 8e3a 0f54 2b32
000000b0: 3cf5 8a39 59b7 b0b9 946d 6fb8 fce9 7b39
000000c0: d40c ef37 e5bc 283a 1e6a c837 e04c 243a
000000d0: dc6e 51ba a516 8a3a dd89 1e3a 0917 c8ba
000000e0: a51e de34 8b21 f03a 5d3f a8b5 8027 e23a
000000f0: 84ad 2c31 2fd1 53ba 6656 ae3a 404f 413a
00000100: 278e 0c34 65c2 deba 4d98 1636 29df 22b9
00000110: 2652 ae3a 1293 e03a 2432 70b2 7c17 9d36
00000120: 0cdf 122d 2ff5 b8b0 698a fa30 98ce f139
00000130: 0032 83ba 9b34 2c37 d327 01b3 2431 943a
00000140: d57c 79b9 6dc5 9d38 a9ae e73a ae89 d7ba
00000150: 021c 903a b680 6b39 7e73 cfae e7b6 3832
00000160: 647f 4f3a b239 0bba 1489 412f cb37 9c3a
00000170: 38e8 7c38 d2dc 22b5 4b26 0db5 ad0d 26b8
00000180: dd14 b1b8 67b1 2b34 d86f 54ba 14ad 2f3a
00000190: eade 2339 8aad 363a ce3f 8235 8078 9a33
000001a0: fa26 2037 69c1 9fb9 b6ba bf38 105c 09b9
000001b0: 92cd 0239 21c8 e6b9 185c a4ba 621c 09b5
000001c0: ebf3 94b0 9388 57ba d52b cd35 c0b2 5535
000001d0: b8be a532 5520 87b1 5ced 8537 c55c 9eb0
000001e0: 5de1 a338 e4f7 1334 8316 c239 013c 12b8
000001f0: a2da c83a 51fa ae37 56cd 10b3 8103 9037
00000200: 4273 c3b0 937d 2331 eac3 1833 efce f3b9
00000210: 83b4 9039 6f7c c4ba 940b 002f 07bc 3439
00000220: c758 2739 3a44 02ba 3020 4d36 59e8 eb3a
00000230: c555 edb9 8285 69b4 d615 b338 162e 0137
00000240: 6b58 acb5 d977 e531 bec3 6930 cbf3 2bb7
00000250: 08af 1eb6 f4ad 24b7 dc48 93b3 3a11 cdb9
00000260: f7c8 3bba c765 f63a fc9d 1b39 9503 1f38
00000270: c34c e8ba af1b f4b6 d971 81b7 9531 07b8
00000280: 12f5 c035 c70e 873a 10b7 ce3a d17d d830
00000290: cb54 8d3a 2adc 51b5 0644 1138 0f29 0d32
000002a0: bc22 26b9 e3d8 8439 6ea7 1533 52dc d1b0
000002b0: 6913 e1ba 7ef1 cbba 3ff2 8638 3e3e 98ba
000002c0: bb1f 8039 ebb0 1ab3 b115 70b8 563b 29b9
000002d0: 7a78 be36 08f8 2a31 1292 bc37 dc48 f9b3
000002e0: 1b7d 0ab8 ad5e 2cb6 f082 3ab4 333f 88ba
000002f0: a55a ddb0 df06 ec38 4483 ea39 fbb4 70ba
00000300: 1666 33b9 940f 2834 b257 07b9 ee51 7b38
00000310: 57de 3a38 b9b4 1737 80e2 0b39 5525 9fb8
00000320: 85ed e338 721c 94ba d1cd a8ba 2f9e 0437
00000330: 961a c938 4502 1330 ace7 d0ba b973 7b39
00000340: ca1e 7c38 b624 4634 6000 973a 5599 9eba
00000350: 538c 1bb8 9b1d b532 012b 62ba 4237 942f
00000360: 7527 1fb3 dc0e b239 9588 e6b5 d576 8e34
00000370: a61a ec36 e29c 2d2c d04a 5c38 7c64 31b9
00000380: 6698 9db6 571b 9f34 2c1f 3d36 5304 16b9
00000390: 8356 2fb9 362b a532 7427 90ba bbf3 37b1
000003a0: 77bb 0336 3663 0439 33a1 f5ba f2e8 2d3a
000003b0: ac8f 76b7 efec 88b7 a894 abb3 d4dd efba
000003c0: 3f46 9439 4b2e dd33 d9ad 7f32 12b0 2fb6
000003d0: d293 2634 8897 3eb4 73db f03a a1c6 e9b3
000003e0: b61e a8b9 df28 46b6 6b14 0e34 e444 d2af
000003f0: 5aab 2fb3 0a9d c0b7 df68 abb8 e2f4 f133
-4.1075776e-07 -3.389331e-10 -4.2658022e-10 0.0006486619 0.000104364786 0.00015275877 -4.020462e-09 -0.00024870812
-0.00056290673 0.0013373697 -9.0108165e-10 -0.00016731267 -0.00039015574 0.0006742279 0.00037723707 -0.00022886545
8.6242486e-05 0.0013551068 -7.434436e-05 1.8237173e-09 -0.0013901192 0.0013298977 5.062821e-06 0.0010250147
-4.2335735e-08 -2.5460287e-07 -0.0015995271 -0.0003119443 9.2823554e-10 0.00013070197 -3.3223303e-05 -0.00042293084
0.0015288146 -0.0005042978 2.7432177e-06 -8.610428e-09 -1.1027981e-06 1.5524918e-09 0.0005098008 -7.9282756e-05
3.561936e-07 -1.7948811e-07 0.0010905929 9.972623e-09 0.00026504125 -0.0003370594 -5.7084093e-05 0.00024024391
2.8496994e-05 0.0006436839 2.3891273e-05 0.0006267559 -0.00079892366 0.0010535313 0.0006047765 -0.0015265654
4.137302e-07 0.0018320543 -1.2535417e-06 0.0017254204 2.5127926e-09 -0.0008080182 0.0013300895 0.0007374175
1.3090231e-07 -0.001699519 2.2440393e-06 -0.00015532658 0.0013299629 0.0017133674 -1.3981239e-08 4.6816986e-06
8.3486655e-12 -1.3457447e-09 1.8229233e-09 0.00046121026 -0.0010009408 1.0264247e-05 -3.0071373e-08 0.0011306149
-0.00023792994 7.523117e-05 0.0017675954 -0.001644423 0.0010994675 0.00022459295 -9.433786e-11 1.0751797e-08
0.0007915406 -0.00053110265 1.7601948e-10 0.0011918483 6.0297752e-05 -6.067104e-07 -5.2582317e-07 -3.959022e-05
-8.443904e-05 1.5990155e-07 -0.0008103824 0.0006701511 0.00015627933 0.00069686084 9.704324e-07 7.193103e-08
9.545818e-06 -0.00030470945 9.142367e-05 -0.00013099634 0.00012474347 -0.00044018126 -0.0012539653 -5.107778e-07
-1.0837743e-09 -0.000822195 1.5286447e-06 7.96088e-07 1.9295257e-08 -3.932693e-09 1.5965365e-05 -1.152238e-09
7.814423e-05 1.3780624e-07 0.00037019336 -3.4864996e-05 0.0015323947 2.0858979e-05 -3.3714365e-08 1.716777e-05
-1.4220876e-09 2.3791003e-09 3.556844e-08 -0.0004650275 0.00027600312 -0.0014990697 1.1645646e-10 0.00017236183
0.00015959433 -0.0004969273 3.0566116e-06 0.0017998322 -0.00045268066 -2.1748386e-07 8.5394524e-05 7.699729e-06
-1.2840732e-06 6.6784023e-09 8.504307e-10 -1.0249157e-05 -2.3645716e-06 -9.815663e-06 -6.858474e-08 -0.00039113482
-0.000716343 0.0018798643 0.00014840806 3.791189e-05 -0.0017723072 -7.2749895e-06 -1.5431013e-05 -3.2232685e-05
1.437644e-06 0.0010304087 0.001577111 1.5751828e-09 0.0010782717 -7.817895e-07 3.4634046e-05 8.216616e-09
-0.00015843933 0.00025338595 3.4844042e-08 -1.526937e-09 -0.0017171922 -0.0015559641 6.43474e-05 -0.0011615229
0.00024437704 -3.6016825e-08 -5.724066e-05 -0.000161392 5.6764666e-06 2.4879245e-09 2.2479366e-05 -1.1608219e-07
-3.3018277e-05 -2.5685106e-06 -1.7370235e-07 -0.0010394811 -1.6105629e-09 0.00011254637 0.00044729759 -0.00091822416
-0.000171088 1.5651887e-07 -0.00012907272 5.9919366e-05 4.4552926e-05 9.042379e-06 0.00013340451 -7.5886644e-05
0.00010868445 -0.0011299981 -0.0012878721 7.904643e-06 9.589379e-05 5.3481514e-10 -0.0015938184 0.00023980335
6.0110156e-05 1.8453542e-07 0.0011520498 -0.001210014 -3.7085567e-05 2.1084636e-08 -0.0008627624 2.6960306e-10
-3.705596e-08 0.00033961877 -1.7176086e-06 2.6536023e-07 7.0364504e-06 2.4671866e-12 5.2521762e-05 -0.00016917469
-4.696706e-06 2.963595e-07 2.818134e-06 -0.00014306726 -0.00016721529 1.9228178e-08 -0.0010998086 -2.676855e-09
1.962964e-06 0.0001262546 -0.0018740058 0.0006634138 -1.4696194e-05 -1.6322794e-05 -7.9898484e-08 -0.0018300363
0.00028281097 1.0299535e-07 1.4882482e-08 -2.6179518e-06 1.5513731e-07 -1.7750256e-07 0.0018375948 -1.08860384e-07
-0.00032066338 -2.952809e-06 1.3232209e-07 -3.8247727e-10 -4.0901206e-08 -2.296131e-05 -8.173449e-05 1.1266981e-07

bias f4 [16]
00000000: 8bed 89ba 7421 9bb9 4654 bfba eb6f 80b6
00000010: b349 8faf 2dc7 edba eb62 b5b6 0320 3eba
00000020: 02a7 0fb8 7b5e a139 d37d 8bb9 837b 0c3a
00000030: 8aff 28b8 ae95 bc38 dd47 16ba 8460 3eba
-0.0010523064 -0.00029588828 -0.0014597259 -3.8277262e-06 -2.6063915e-10 -0.0018141024 -5.405736e-06 -0.0007252695
-3.4249395e-05 0.00030778706 -0.00026605892 0.0005358981 -4.029231e-05 8.9924186e-05 -0.00057327544 -0.0007262307

weight f4 [16]
00000000: f799 5a3f f799 5a3f f799 5a3f f799 5a3f
00000010: f799 5a3f f799 5a3f f799 5a3f f799 5a3f
00000020: f799 5a3f f799 5a3f f799 5a3f f799 5a3f
00000030: f799 5a3f f799 5a3f f799 5a3f f799 5a3f
0.8539118 0.8539118 0.8539118 0.8539118 0.8539118 0.8539118 0.8539118 0.8539118
0.8539118 0.8539118 0.8539118 0.8539118 0.8539118 0.8539118 0.8539118 0.8539118

bias f4 [16]
00000000: 0000 0000 0000 0000 0000 0000 0000 0000
00000010: 0000 0000 0000 0000 0000 0000 0000 0000
00000020: 0000 0000 0000 0000 0000 0000 0000 0000
00000030: 0000 0000 0000 0000 0000 0000 0000 0000
0.0 0.0 0.0 0.0 0.0 0.0 0.0 0.0
0.0 0.0 0.0 0.0 0.0 0.0 0.0 0.0

weight f4 [16]
00000000: f799 5a3f f799 5a3f f799 5a3f f799 5a3f
00000010: f799 5a3f f799 5a3f f799 5a3f f799 5a3f
00000020: f799 5a3f f799 5a3f f799 5a3f f799 5a3f
00000030: f799 5a3f f799 5a3f f799 5a3f f799 5a3f
0.8539118 0.8539118 0.8539118 0.8539118 0.8539118 0.8539118 0.8539118 0.8539118
0.8539118 0.8539118 0.8539118 0.8539118 0.8539118 0.8539118 0.8539118 0.8539118

bias f4 [16]
00000000: 0000 0000 0000 0000 0000 0000 0000 0000
00000010: 0000 0000 0000 0000 0000 0000 0000 0000
00000020: 0000 0000 0000 0000 0000 0000 0000 0000
00000030: 0000 0000 0000 0000 0000 0000 0000 0000
0.0 0.0 0.0 0.0 0.0 0.0 0.0 0.0
0.0 0.0 0.0 0.0 0.0 0.0 0.0 0.0

in_proj_weight f4 [48, 16]
00000000: ffe8 cf3b ff8e 7dbe d0e4 54be 52aa ee3d
00000010: ac65 9cbd 4bd1 aebe 28c2 7abe 7f9e a93d
00000020: 15e2 35be 5c3a 63be 1365 003e 3c77 743e
00000030: 0685 3abe 6e8b 483a 3705 4e3d 0e41 dd3d
00000040: 5e1d 3f3d 06c4 313e 39a4 0f3c 473f d43c
00000050: 312a 3e3e 8d39 4fbd d25a 2c3e 047e 96be
00000060: dbbb 21be 4351 8e3e c763 6a3d f7b7 643e
00000070: 212e cabd 35ea 95be eb3d 543e 604f a43e
00000080: e497 0fbd 6c8f 08bd 29df 8e3d 446c 7cbc
00000090: ae5b 7cbe 63ed 89bd 822a a5be a66f 5dbd
000000a0: f7dd ac3e ff26 8a3e 509f e7bd 9838 8e3e
000000b0: 5f90 8f3e dfd9 3c3e a259 2c3e 285e 6fbe
000000c0: a25e 1abe 0fbe 8c3e 0b31 1bbe 1e59 653d
000000d0: b3fb 853e 6ca2 7c3e e9ae 903d 6409 0a3e
000000e0: adaf 8cbe 93b4 dd3d f584 68be 398a 7a3d
000000f0: 8998 113e b68e 69be 9644 73bd a703 223e
00000100: 52a9 9d3d 6aed 67be 03f9 153e 0060 9fbd
00000110: bfd0 323d 0070 84be b401 0d3e e24a 16be
00000120: 263d 1dbe f6c8 913d 06fa 573a 43f2 8d3e
00000130: 5293 6fbe fd87 20be ffb5 19be 69cd 0b3d
00000140: 1d0a f1bd dd73 1d3e 256e fb3d 6cc4 9ebe
00000150: 1eb7 af3c cde9 8dbe a9f7 983e bfe8 823e
00000160: 05bf b3be b484 f8bd 899f 41be 9a08 e0bd
00000170: 90f9 f73c 60c6 623e 2b9b 6dbe 408a 82be
00000180: d007 943d f302 99be 1d8b 95be 089b f7bd
00000190: 4e3d 23be 0a94 3c3e 9e4e 3b3e 6998 67be
000001a0: da98 17bd a243 413e 824e 863e c60e 64be
000001b0: 85f9 7f3e b1b0 773d 445e 2f3c f4a9 443e
000001c0: 1da9 413e 5416 65be 04a3 883e 5f26 acbe
000001d0: 8ea6 5cbd 3741 8abd 30dc 343e 7a06 473e
000001e0: b6d2 0dbc 9a19 d6bd 230b 383e 714c 473e
000001f0: fded 47bb fa0f 70be 0016 9cbd 3cbe a5be
00000200: 8814 80be 5a2a adbd 94e2 31bd dbf5 8b3c
00000210: 104b 833e 9369 073e 43a0 25bd 7eeb 6b3e
00000220: f8ce 8f3e 50ea 4c3e c6a6 81bc 1aef 42be
00000230: d3c3 663e 591b 9c3e 9a9c 32bd 9055 703e
00000240: 6a25 63be b19d 62be 9b54 8c3e 25f0 8a3e
00000250: 3c7a 7bbe abcc 81be 7c46 97be d203 4dbe
00000260: 9b6a a33e c5b9 773e 2e9d f33c d94c a13e
00000270: f210 7fbe 335b bb3d 33f4 b3bb 317c 34be
00000280: 19a4 59be 8a24 9abe 99d4 1bbe 55c8 c63d
00000290: 7830 46be 5040 5cbe b49b c33d b422 7abe
000002a0: 504e a63d c1c0 893e 1430 a53d ef01 2cbe
000002b0: a00c 2b3e 95b0 5cbe 5153 ea3d 879c 313d
000002c0: 4f92 663e e5c4 42be 7865 693e 3dda 94bc
000002d0: c0ee 60bd b5c1 d7bd 5cba 57be 09a2 0a3e
000002e0: 89dd 44be 09c0 943e da74 80be c005 dfbd
000002f0: a89d 88bd 5d1c 203e 448e 163e e6c5 65bd
00000300: 739a 4e3e 0386 56be a12a a33e 3c80 be3d
00000310: 9bec ccbc e6b6 46be 73c0 88be 7d5a 7c3e
00000320: af0a 74be 0722 283e e3d3 83be c846 96be
00000330: 1a1f 403b 39ff 08be 7a38 92bc f230 8c3c
00000340: a40e 873d d8ec 5dbc 9093 4dbe 4df8 94be
00000350: ca57 00be b0f0 13be 6a8e 85be b120 833e
00000360: f77f 9fbe 54e4 90bd 68db d3bb 703c 2bbe
00000370: 4faa 27bd 39bf bf3d e9ea 683e edb3 4cbe
00000380: 495a 02be 4c26 0d3c 7474 1a3d cbc4 40bd
00000390: 064a 3c3e e165 ad3e b1a7 6abe f9e6 7cbe
000003a0: 13d2 e93d 662b bebd 7ea2 1d3e 8bc7 39be
000003b0: 6273 86be 868c 8c3e 086f 5fbe f31d 26be
000003c0: 2010 efbd ac49 47bb 177d 83be eeca 1cbe
000003d0: 8847 dc3d 2b4d 463e 2fb2 f3bd 3e62 3cbe
000003e0: 00e9 ddbd 59ee 123d 524d 813e 617c 583e
000003f0: 3a87 643e f040 8c3c e6e2 8ebd e800 c63d
0.006344914 -0.2476158 -0.2079041 0.1165358 -0.0763658 -0.34144053 -0.24488127 0.08282184
-0.17762025 -0.22190231 0.12538557 0.2387361 -0.18214807 0.0007650171 0.050297942 0.10803424
0.046658866 0.17359933 0.008767181 0.02590908 0.18570782 -0.050591994 0.1683152 -0.29393017
-0.15794317 0.27796373 0.05722406 0.22335802 -0.0987208 -0.29280248 0.20726745 0.32091808
-0.035056964 -0.033339903 0.06976158 -0.015406672 -0.24644348 -0.06734731 -0.32258993 -0.054061554
0.33763096 0.26982877 -0.11309683 0.27777553 0.28039834 0.18442486 0.16831067 -0.23375762
-0.15075162 0.27488753 -0.15155427 0.055993192 0.26168594 0.24671334 0.070646115 0.13480145
-0.2747778 0.108254574 -0.22706969 0.061166976 0.14218344 -0.22808346 -0.05939158 0.15821706
0.07698311 -0.2264916 0.14645772 -0.077819824 0.043656107 -0.258667 0.13770181 -0.14677003
-0.15355358 0.071184084 0.00082388555 0.27723894 -0.23396042 -0.15676875 -0.15010832 0.03413144
-0.11769507 0.1537623 0.12276868 -0.31009233 0.021449622 -0.27717438 0.2987645 0.25568196
-0.35106674 -0.12134686 -0.18908514 -0.109391406 0.030270368 0.22145987 -0.23203723 -0.254961
0.072280526 -0.29885063 -0.29207698 -0.12090117 -0.15941355 0.18415847 0.18291709 -0.22616734
-0.037011005 0.18873456 0.26231772 -0.2227126 0.24997528 0.06047124 0.010703627 0.19205457
0.18912168 -0.22371799 0.2668687 -0.33623025 -0.053869776 -0.0675072 0.1766212 0.19436064
-0.008656194 -0.10454102 0.17972998 0.19462754 -0.0030506842 -0.23443595 -0.07621384 -0.323717
-0.25015664 -0.084553435 -0.043428972 0.017085006 0.25643206 0.13223867 -0.04043604 0.23039052
0.28087592 0.20011258 -0.015826594 -0.19036523 0.22535639 0.30489615 -0.04360638 0.2347014
-0.22182241 -0.22130467 0.274083 0.2713634 -0.24558347 -0.25351462 -0.29545963 -0.20020989
0.3191727 0.24191959 0.029738035 0.31503943 -0.24908808 0.09148254 -0.0054917573 -0.176255
-0.21254005 -0.30106002 -0.15217818 0.09706179 -0.19354427 -0.21508908 0.095511824 -0.244273
0.08120406 0.26904872 0.08065811 -0.16797613 0.16704035 -0.21551736 0.114416726 0.043362167
0.2251675 -0.19020422 0.22792614 -0.01817047 -0.05491519 -0.105349936 -0.21067184 0.13538374
-0.19225134 0.2905276 -0.2508915 -0.108897686 -0.066706955 0.1563582 0.14702708 -0.056096934
0.20176105 -0.20949559 0.3186846 0.093018025 -0.025015166 -0.19405708 -0.26709327 0.24643894
-0.238322 0.1641923 -0.25747594 -0.29350877 0.0029315413 -0.1337861 -0.017849196 0.017113183
0.06594589 -0.0135452375 -0.20075822 -0.29095688 -0.12533489 -0.14447284 -0.26085216 0.2561088
-0.31152317 -0.070748 -0.0064653642 -0.16722274 -0.040933903 0.09362645 0.22745861 -0.19990511
-0.12729754 0.008615088 0.037708715 -0.047062676 0.18387613 0.3386679 -0.22915532 -0.24697484
0.114170216 -0.09285621 0.15394017 -0.18142526 -0.26259905 0.2745096 -0.21819699 -0.16222362
-0.116729975 -0.0030408902 -0.25681373 -0.15311787 0.10755831 0.19365375 -0.1189922 -0.18396851
-0.10835457 0.035871837 0.25254303 0.21141197 0.2231721 0.017120808 -0.06976871 0.096681416

in_proj_bias f4 [48]
00000000: 1087 e5bb f63b 683b c6ac 9bbc c3ba e03d
00000010: 00c9 e43d 4c6e d73d d4a6 6dbd 9b01 a53d
00000020: 9b33 b73d 49db a9bc 8f4d 4f3d c285 1c3d
00000030: 7121 d7bc 223b 72bd a443 2fbd 9396 343d
00000040: f973 beb5 317f d936 de28 3b37 cd99 1fb6
00000050: 9e1f 1437 d1f7 bd36 fba4 81b5 1248 cc35
00000060: 10a2 bfb6 d28b 31b7 508f d736 2e74 c6b6
00000070: ae26 5cb7 a60c 06b7 fa07 6137 3d7d bb36
00000080: ec15 f7bb 4e79 303c 0d26 4cbb 804a 63bb
00000090: 5584 58bb e204 a63b 0f25 9e3b 5b42 4f3b
000000a0: 10f4 22bb de2e ccbb d687 91bc 1cb7 cd3b
000000b0: b5ab febb ba4f 2cbc c26e f9bb bdeb 4c3c
-0.007004626 0.003543613 -0.019003283 0.10973122 0.1117115 0.10519084 -0.058020428 0.08056947
0.0894539 -0.020734446 0.050611075 0.0382135 -0.026261063 -0.059138425 -0.042789117 0.04408891
-1.4189856e-06 6.481911e-06 1.1155584e-05 -2.378237e-06 8.828849e-06 5.6614886e-06 -9.659265e-07 1.522016e-06
-5.71111e-06 -1.0582577e-05 6.424183e-06 -5.914385e-06 -1.3122028e-05 -7.989967e-06 1.3412902e-05 5.587614e-06
-0.007540455 0.010771109 -0.003115061 -0.0034681857 -0.003303786 0.0050665 0.004826195 0.0031625244
-0.002486471 -0.006231173 -0.017764967 0.006277932 -0.007771934 -0.010517055 -0.0076120803 0.012507376
