RNAModXApp/model/multi-class-type-A.pt (torch, 40147 bytes, 27 tensors)

weight f4 [94, 16]
0	0xbf3a4a2c	-0.7276943
1	0xbf1417d3	-0.5784885
2	0x3f00ed19	0.5036178
3	0xbf11ae56	-0.5690664
4	0xbea83d96	-0.32859486
5	0xbdc073f3	-0.093971156
6	0x3d3bce66	0.045851134
7	0xbe91a258	-0.2844417
8	0x3ef392ed	0.47573033
9	0xbf8c70dd	-1.0971943
10	0xbeb6b893	-0.35687694
11	0x3e6ae67f	0.2293949
12	0xbf7fa369	-0.9985872
13	0x3f12a274	0.57279134
14	0xbf73daf8	-0.95255995
15	0xbf478bf4	-0.77947927
16	0x3e8a3479	0.26993158
17	0xbf3c1b17	-0.73478836
18	0xbbbfbcb2	-0.0058513517
19	0x3fb0d306	1.3814399
20	0xbf5a9255	-0.85379535
21	0x3ef1db00	0.47237396
22	0x3fcb4628	1.5880785
23	0xbf3e7276	-0.74393404
24	0xbef13c1b	-0.4711617
25	0xbfc91a5b	-1.5711168
26	0x3f4e4d0e	0.80586326
27	0x3ef062f2	0.4695049
28	0x400208ea	2.031794
29	0x3f928772	1.1447585
30	0x3eeae4a7	0.45877573
31	0x3f9f05fc	1.2423701
32	0x3e4f6c81	0.20256235
33	0xbffa8784	-1.9572606
34	0x3fac9df2	1.3485701
35	0xbe8943ca	-0.2680953
36	0xbf44d39f	-0.7688541
37	0xc001e299	-2.0294554
38	0xbf6b7a3c	-0.9198339
39	0x3e98d7c4	0.29852116
40	0xbf85665f	-1.0421866
41	0x3f474285	0.77835876
42	0xbdf74b0d	-0.12074862
43	0xbed00fb7	-0.4063699
44	0xbdfeb990	-0.12437737
45	0x4014a803	2.3227546
46	0xbf1c942b	-0.61163586
47	0xbf0bf4e2	-0.54670537
48	0xbeaa42e3	-0.33254156
49	0xbf321dc7	-0.69576687
50	0x3edeb9c4	0.43501103
51	0x3eda5532	0.42643124
52	0x3f4976b6	0.78696764
53	0xbee313c6	-0.44351023
54	0x3f86f2ff	1.0542907
55	0xbfda69f3	-1.7063583
56	0x3f706975	0.93910915
57	0x3e4baf0b	0.19890992
58	0x3f66c116	0.90138376
59	0xbf0ff65f	-0.5623531
60	0x3f0681fb	0.52542084
61	0xc0018ab6	-2.0240912
62	0xbf08f7b8	-0.5350299
63	0xbec812c3	-0.39076814
64	0xbe9fb1d5	-0.31190363
65	0xbe43dad7	-0.1912645
66	0xbf57608e	-0.84131706
67	0xc015acbe	-2.3386683
68	0x3f8bc6a1	1.0919992
69	0x3f65e0ea	0.89796317
70	0xbfb939fa	-1.4470818
71	0xbd81d538	-0.063394964
72	0x3b54bf30	0.003246259
73	0x3f5dd16f	0.86647695
74	0x3e83465f	0.25639626
75	0xbcd12d43	-0.025534278
76	0x3eb9a8bc	0.36261547
77	0xbf6a0656	-0.9141592
78	0xbc18b6d7	-0.009320936
79	0xbe9442f9	-0.28957346
80	0x3ea15a96	0.31514424
81	0xbebf73bd	-0.3739299
82	0x3f9beb6a	1.2181218
83	0xbebc3d98	-0.36765742
84	0xbe670326	-0.22559795
85	0xbfcee485	-1.6163489
86	0x3dd93e52	0.1060759
87	0x3e3623ac	0.17787045
88	0xbea267e4	-0.31719887
89	0xbf3f7aaf	-0.74796575
90	0x3df55e39	0.11980862
91	0x3f3c579d	0.7357119
92	0x3fa8bd97	1.3182858
93	0x3f925b68	1.1434145
94	0xbf0edb91	-0.5580378
95	0x3fd4076b	1.6564764
96	0xbf095dc8	-0.53658724
97	0x3f46399f	0.7743167
98	0x3fb98d31	1.4496213
99	0x3e16e140	0.14734364
100	0xbf47798c	-0.7791984
101	0x3f75664d	0.95859224
102	0xbf261aeb	-0.64884824
103	0x3f396f7a	0.72435725
104	0xbf77e37c	-0.9683149
105	0x3fd4ca51	1.6624242
106	0x3dc7f49f	0.09763455
107	0x3f17011a	0.58986056
108	0x3e9da476	0.30789536
109	0x3f395bc5	0.72405654
110	0x3e9b78fc	0.3036574
111	0x3fb18f14	1.3871789
112	0xbe7f6c8f	-0.24943756
113	0xbeaab56b	-0.33341536
114	0xbe604f66	-0.21905288
115	0x3f5a26a7	0.8521523
116	0xbdca3e22	-0.09875132
117	0x3dacfd38	0.08446735
118	0xbe86b700	-0.26311493
119	0xbe1bfc4f	-0.15232967
120	0xbf1ec27d	-0.62015516
121	0x3cc0f6cd	0.023555184
122	0x3ea94cf1	0.33066514
123	0x3f1300e6	0.57423246
124	0xbdd01db0	-0.101619124
125	0x3fa7d077	1.3110493
126	0x3dfcbc69	0.12340624
127	0x3f34511e	0.70436275
128	0x3dd9a971	0.106280215
129	0xbf3e70ad	-0.7439068
130	0xbf962497	-1.1729916
131	0x3e2a7ec4	0.1664992
132	0xbf2b25a1	-0.6685429
133	0xbfa0c338	-1.2559576
134	0xbec3c280	-0.3823433
135	0x3dce2491	0.10065568
136	0xbfc87207	-1.5659798
137	0x3f6c3140	0.9226265
138	0xbe908e01	-0.2823334
139	0x3f1be7df	0.6090068
140	0xbf2828c3	-0.656872
141	0x3dd45785	0.103682555
142	0xbfa7e425	-1.3116499
143	0x3f6e1b70	0.93010616
144	0x3eda0012	0.4257818
145	0x3eec5d41	0.46164897
146	0x3ed119bf	0.40839955
147	0x3e27e880	0.16397285
148	0xbf963915	-1.173617
149	0xbe90fded	-0.2831873
150	0xbf9c1d0b	-1.2196363
151	0x3ea71eea	0.32640773
152	0x3ec8dddf	0.39231774
153	0x3f2d4512	0.6768352
154	0x3fd015b4	1.6256623
155	0xbec14382	-0.37746817
156	0xbf944dd9	-1.1586257
157	0x3f10e3a2	0.5659734
158	0xbfed6825	-1.8547407
159	0x3ebaba95	0.36470476
160	0xbf6e3661	-0.93051726
161	0x3f3679f2	0.71279824
162	0x3df7a6b0	0.1209234
163	0x3dbe8272	0.09302224
164	0x3f650dee	0.8947438
165	0x3fcfa308	1.6221628
166	0x3efe3979	0.49653223
167	0x3f7d80c6	0.9902462
168	0x3f16aae3	0.588545
169	0xbdc2d15d	-0.09512589
170	0xbce27866	-0.027645301
171	0x3e2e742b	0.17036502
172	0x3f031e4a	0.5121809
173	0x3e8af0f5	0.2713696
174	0x3f0f799c	0.56044936
175	0xbf78ab94	-0.9713681
176	0x3f71057c	0.94148993
177	0x3f59a5aa	0.8501841
178	0xbeb7a482	-0.35867697
179	0x3eeb5f41	0.4597111
180	0xbf1fb3f0	-0.6238394
181	0x3eeef1c8	0.4666884
182	0x3f87ce64	1.060986
183	0x3e728dc0	0.23686886
184	0x3da5458f	0.08069908
185	0xbfbd0c90	-1.4769459
186	0x3fba6ec2	1.4565051
187	0xbfafa77c	-1.3722987
188	0xbfce73c2	-1.6129076
189	0x3fe6f9cb	1.8044981
190	0x3d1f59ec	0.038904116
191	0x3f1bbf89	0.60839134
192	0x3e5da0ff	0.21643446
193	0xbf07870f	-0.5294046
194	0x3fa97ce2	1.3241236
195	0xbfd3abeb	-1.653684
196	0xbf2f1a04	-0.6839907
197	0xbea41a1c	-0.3205117
198	0xbf0d4e95	-0.5519803
199	0x3e3f324e	0.18671533
200	0xbf0b758e	-0.5447625
201	0x3edc5f1f	0.43041322
202	0xbfe8d7e8	-1.8190889
203	0x3f4f3ebc	0.809551
204	0x3bba80ac	0.0056916084
205	0xbf986d05	-1.190827
206	0x3f437a0e	0.76358116
207	0x3f8bd9c9	1.0925838
208	0x3f80846d	1.0040413
209	0x3fb1ba9c	1.3885074
210	0x3e3ca8e7	0.18423806
211	0xbecfd6a3	-0.40593442
212	0xbf8cf3b0	-1.1011868
213	0xbf183e50	-0.5947008
214	0x3f202e61	0.6257077
215	0x3f0a7198	0.5407958
216	0xbf52e71d	-0.823839
217	0x3fcae593	1.585131
218	0x3e03015c	0.12793487
219	0xbe9e782e	-0.30951065
220	0x3f11020a	0.56643736
221	0xbdeeaff2	-0.11654653
222	0xbfd047f4	-1.6271958
223	0x3ebc6110	0.36792803
224	0x3f2b4962	0.6690885
225	0xbfcc2a4b	-1.5950407
226	0x3be0004d	0.0068359734
227	0x3e6763a2	0.225966
228	0x3f9c4cbd	1.2210919
229	0xbf3db51f	-0.74104494
230	0xbfba590d	-1.4558426
231	0x3e450282	0.19239238
232	0x3f2c0dd4	0.672086
233	0xbf598fa6	-0.84984815
234	0xbf505b7e	-0.81389606
235	0xbfb9432b	-1.4473623
236	0x3f436ef4	0.76341176
237	0x3fba01fa	1.4531853
238	0xbe2fb4cb	-0.17158811
239	0x40059f3f	2.0878446
240	0x3f6f28ee	0.9342183
241	0xbe26c5d8	-0.16286409
242	0xbd941490	-0.072304845
243	0x3e8aa822	0.270814
244	0x3f2f1a85	0.6839984
245	0xbeabbdb3	-0.33543167
246	0x3f3164ac	0.6929424
247	0xbf97b85d	-1.1853138
248	0x3f2d2f15	0.67649966
249	0xbfa5e9b0	-1.2961941
250	0xbf004efe	-0.5012053
251	0x3f499df6	0.78756654
252	0xbfecdb48	-1.8504419
253	0x3e63e096	0.22253641
254	0xbf438eb4	-0.7638962
255	0xbff9d5e1	-1.9518396

in_proj_weight f4 [48, 16]
0	0x80055be8	-4.92147e-40
1	0x002aac6c	3.918944e-39
2	0x0045a4b7	6.395738e-39
3	0x800e67a9	-1.322883e-39
4	0x80416ea0	-6.008992e-39
5	0x803667a7	-4.9963e-39
6	0x802d63ad	-4.168354e-39
7	0x00161171	2.026638e-39
8	0x000c6254	1.1373e-39
9	0x0013c442	1.815278e-39
10	0x003aff7b	5.418108e-39
11	0x0034fd26	4.866258e-39
12	0x000d7f24	1.239471e-39
13	0x0021c7d0	3.10225e-39
14	0x80010137	-9.2271e-41
15	0x000c86dc	1.150404e-39
16	0x800f0117	-1.377923e-39
17	0x003e847a	5.741324e-39
18	0x002ddba7	4.211394e-39
19	0x003e01ca	5.694443e-39
20	0x80153d05	-1.950435e-39
21	0x00242895	3.320636e-39
22	0x803ace4d	-5.400466e-39
23	0x00382a49	5.157957e-39
24	0x800c0ec3	-1.107321e-39
25	0x001a1763	2.396112e-39
26	0x80343d1a	-4.797365e-39
27	0x001e646d	2.791091e-39
28	0x803d71d5	-5.6428e-39
29	0x8008f7ca	-8.23574e-40
30	0x001ac183	2.457142e-39
31	0x000f6926	1.415253e-39
32	0x002337dc	3.234281e-39
33	0x001f79fc	2.89066e-39
34	0x80345443	-4.805673e-39
35	0x001480c7	1.882907e-39
36	0x800355bf	-3.06266e-40
37	0x001a7bc3	2.43212e-39
38	0x000de893	1.277293e-39
39	0x80033662	-2.95015e-40
40	0x002dea9e	4.216762e-39
41	0x8040dfdf	-5.957782e-39
42	0x8004d575	-4.43916e-40
43	0x001bf301	2.566732e-39
44	0x8042cb24	-6.134016e-39
45	0x801a3efb	-2.410316e-39
46	0x0021d372	3.106424e-39
47	0x8020b4a0	-3.003532e-39
48	0x0004b922	4.33755e-40
49	0x003b1b86	5.428168e-39
50	0x8037a833	-5.111291e-39
51	0x000fc001	1.44641e-39
52	0x802008e3	-2.941924e-39
53	0x0006ca03	6.23481e-40
54	0x0036bf41	5.027726e-39
55	0x800c793b	-1.145515e-39
56	0x800bf2ad	-1.097246e-39
57	0x8032deee	-4.671747e-39
58	0x80332faa	-4.700709e-39
59	0x003a78a4	5.369736e-39
60	0x801dcff2	-2.737826e-39
61	0x00110afc	1.565144e-39
62	0x000bdfa9	1.090425e-39
63	0x802e777d	-4.267297e-39
64	0x00101c62	1.47955e-39
65	0x00214c86	3.058023e-39
66	0x80133d81	-1.766938e-39
67	0x00396b07	5.273017e-39
68	0x803040e5	-4.431384e-39
69	0x0026c324	3.559752e-39
70	0x802ec12c	-4.29373e-39
71	0x002ce703	4.123633e-39
72	0x801c0fd8	-2.577078e-39
73	0x80432ac2	-6.168317e-39
74	0x001e3259	2.773126e-39
75	0x801e5456	-2.785319e-39
76	0x803d27e1	-5.616271e-39
77	0x00268c95	3.54018e-39
78	0x803ac8dc	-5.398514e-39
79	0x8039ee5d	-5.320132e-39
80	0x0019a2a3	2.35423e-39
81	0x00008b75	5.0028e-41
82	0x0022c02e	3.191348e-39
83	0x001f2539	2.860253e-39
84	0x80462640	-6.442206e-39
85	0x004185a9	6.017255e-39
86	0x80122c5c	-1.668952e-39
87	0x80077a57	-6.86736e-40
88	0x002da537	4.191865e-39
89	0x000eb54d	1.350735e-39
90	0x002c5eb6	4.074738e-39
91	0x003307c4	4.686396e-39
92	0x80339162	-4.735764e-39
93	0x00193bc8	2.317333e-39
94	0x0002572b	2.14941e-40
95	0x0031b2a6	4.564026e-39
96	0x80059ba2	-5.15008e-40
97	0x8028ec71	-3.758239e-39
98	0x80225f1f	-3.15653e-39
99	0x80405da4	-5.911064e-39
100	0x0034ae33	4.837937e-39
101	0x8031355a	-4.519078e-39
102	0x802a7f64	-3.90279e-39
103	0x00114d29	1.588883e-39
104	0x80435ca5	-6.186213e-39
105	0x801d1fab	-2.67459e-39
106	0x801391f9	-1.79724e-39
107	0x8037b2ef	-5.115142e-39
108	0x802e9f71	-4.28163e-39
109	0x801a8d02	-2.438307e-39
110	0x8042c9e9	-6.133574e-39
111	0x0045ca88	6.409304e-39
112	0x8015ecd0	-2.013498e-39
113	0x00145d3e	1.870159e-39
114	0x00146fd1	1.876822e-39
115	0x800cbce3	-1.169786e-39
116	0x001cb68c	2.63688e-39
117	0x003edd1e	5.773123e-39
118	0x0027df08	3.661593e-39
119	0x803a3b0f	-5.347645e-39
120	0x80028c7c	-2.34067e-40
121	0x80273353	-3.599996e-39
122	0x8032cfe4	-4.666352e-39
123	0x8003786c	-3.18706e-40
124	0x0040acbb	5.939436e-39
125	0x801176de	-1.603845e-39
126	0x8042f9b7	-6.150724e-39
127	0x00224658	3.147641e-39
128	0x80371f34	-5.062146e-39
129	0x003a206a	5.338087e-39
130	0x0016d50d	2.096809e-39
131	0x0032d4c2	4.668098e-39
132	0x001177c6	1.60417e-39
133	0x000a231e	9.30953e-40
134	0x0014383c	1.856883e-39
135	0x803da6ab	-5.661754e-39
136	0x800f8010	-1.423473e-39
137	0x8022a1ec	-3.180493e-39
138	0x002f1706	4.324528e-39
139	0x802257dc	-3.153925e-39
140	0x002ed085	4.299236e-39
141	0x8004457f	-3.92272e-40
142	0x00103f38	1.492047e-39
143	0x801c0841	-2.574355e-39
144	0x0004e288	4.48606e-40
145	0x802bcc0a	-4.022122e-39
146	0x000a4513	9.43134e-40
147	0x801fd6b0	-2.923916e-39
148	0x800298e9	-2.38525e-40
149	0x004003b7	5.878804e-39
150	0x8035e9f9	-4.951215e-39
151	0x8014dcd9	-1.915935e-39
152	0x801a2a64	-2.40293e-39
153	0x800aa20c	-9.76486e-40
154	0x80115043	-1.589996e-39
155	0x8034916d	-4.827615e-39
156	0x0018bcb0	2.27174e-39
157	0x003e1789	5.702244e-39
158	0x800bb191	-1.073889e-39
159	0x80171ccd	-2.122548e-39
160	0x00214912	3.056784e-39
161	0x00314c4f	4.527314e-39
162	0x8017fcc8	-2.202897e-39
163	0x00023574	2.02846e-40
164	0x00157eea	1.974074e-39
165	0x8028a24e	-3.731644e-39
166	0x8020dd36	-3.018091e-39
167	0x8009c81a	-8.98302e-40
168	0x001c2dfc	2.58789e-39
169	0x803e15ac	-5.701575e-39
170	0x0024e4fc	3.388222e-39
171	0x80393a47	-5.255529e-39
172	0x80162f4c	-2.037348e-39
173	0x00171d3e	2.122707e-39
174	0x002aa17d	3.915022e-39
175	0x80145474	-1.867006e-39
176	0x8039cc46	-5.307903e-39
177	0x80042229	-3.79596e-40
178	0x0013abfb	1.80657e-39
179	0x00448e61	6.29589e-39
180	0x002f2ada	4.33164e-39
181	0x80041e52	-3.78219e-40
182	0x001cf230	2.658274e-39
183	0x801c3878	-2.591651e-39
184	0x800e4416	-1.310122e-39
185	0x003d36e6	5.621659e-39
186	0x002387a7	3.262905e-39
187	0x00347e31	4.820715e-39
188	0x000e2dd1	1.302133e-39
189	0x00274f79	3.610094e-39
190	0x8043b8fa	-6.219335e-39
191	0x0026ce06	3.563656e-39
192	0x802c4458	-4.065279e-39
193	0x004360f4	6.187758e-39
194	0x80087a73	-7.7861e-40
195	0x80413bec	-5.990803e-39
196	0x8003713f	-3.16132e-40
197	0x802c2ced	-4.056878e-39
198	0x001e6fe5	2.795205e-39
199	0x8045cd0e	-6.410209e-39
200	0x00130da8	1.749773e-39
201	0x003a5c97	5.359674e-39
202	0x001ed3af	2.831003e-39
203	0x8023f71c	-3.302889e-39
204	0x00151560	1.936213e-39
205	0x8039432d	-5.258721e-39
206	0x003af796	5.415276e-39
207	0x00325f00	4.625854e-39
208	0x802356ef	-3.245428e-39
209	0x001d7040	2.703497e-39
210	0x8018c853	-2.275915e-39
211	0x802c5961	-4.072825e-39
212	0x800e4a4b	-1.312348e-39
213	0x000ff314	1.464732e-39
214	0x802ec770	-4.295978e-39
215	0x800aee51	-1.003847e-39
216	0x801f2f66	-2.863904e-39
217	0x00398756	5.283173e-39
218	0x000f48e4	1.40368e-39
219	0x0042d464	6.137334e-39
220	0x8015116c	-1.934795e-39
221	0x001b96da	2.533674e-39
222	0x803672b0	-5.000259e-39
223	0x0040c4c8	5.948064e-39
224	0x001edf42	2.835155e-39
225	0x003d5272	5.631541e-39
226	0x8010cd61	-1.543044e-39
227	0x8013192a	-1.753902e-39
228	0x00200f3c	2.944201e-39
229	0x0039b8cc	5.300916e-39
230	0x00020be0	1.87931e-40
231	0x002d7a9a	4.176578e-39
232	0x800be553	-1.092456e-39
233	0x0001f05b	1.78059e-40
234	0x00292dbe	3.781665e-39
235	0x803f22fc	-5.798186e-39
236	0x8018a7ff	-2.264318e-39
237	0x0044501f	6.273556e-39
238	0x8030451b	-4.432894e-39
239	0x804598ed	-6.391509e-39
240	0x0007dbb3	7.21662e-40
241	0x001ebfcb	2.823867e-39
242	0x80048127	-4.13673e-40
243	0x801efc19	-2.8455e-39
244	0x0030dda5	4.487615e-39
245	0x00389fca	5.20011e-39
246	0x8039cb83	-5.30763e-39
247	0x002d6d45	4.171796e-39
248	0x00073ab6	6.6391e-40
249	0x0010304e	1.486696e-39
250	0x801829e0	-2.219074e-39
251	0x80139ff8	-1.80226e-39
252	0x00379f5f	5.108124e-39
253	0x00125aab	1.685564e-39
254	0x003cb8ba	5.576397e-39
255	0x001c602b	2.605892e-39

in_proj_bias f4 [48]
0	0x00000000	0.0
1	0x00000000	0.0
2	0x00000000	0.0
3	0x00000000	0.0
4	0x00000000	0.0
5	0x00000000	0.0
6	0x00000000	0.0
7	0x00000000	0.0
8	0x00000000	0.0
9	0x00000000	0.0
10	0x00000000	0.0
11	0x00000000	0.0
12	0x00000000	0.0
13	0x00000000	0.0
14	0x00000000	0.0
15	0x00000000	0.0
16	0x00000000	0.0
17	0x00000000	0.0
18	0x00000000	0.0
19	0x00000000	0.0
20	0x00000000	0.0
21	0x00000000	0.0
22	0x00000000	0.0
23	0x00000000	0.0
24	0x00000000	0.0
25	0x00000000	0.0
26	0x00000000	0.0
27	0x00000000	0.0
28	0x00000000	0.0
29	0x00000000	0.0
30	0x00000000	0.0
31	0x00000000	0.0
32	0x00000000	0.0
33	0x00000000	0.0
34	0x00000000	0.0
35	0x00000000	0.0
36	0x00000000	0.0
37	0x00000000	0.0
38	0x00000000	0.0
39	0x00000000	0.0
40	0x00000000	0.0
41	0x00000000	0.0
42	0x00000000	0.0
43	0x00000000	0.0
44	0x00000000	0.0
45	0x00000000	0.0
46	0x00000000	0.0
47	0x00000000	0.0

weight f4 [16, 16]
0	0x802d1f7e	-4.143895e-39
1	0x8042a9d0	-6.12206e-39
2	0x803acf2d	-5.40078e-39
3	0x00446145	6.279707e-39
4	0x80383f0d	-5.165406e-39
5	0x001d7b27	2.707408e-39
6	0x8028af43	-3.736292e-39
7	0x801a278e	-2.401912e-39
8	0x00370e10	5.055997e-39
9	0x802a9683	-3.911084e-39
10	0x0000bcc5	6.7718e-41
11	0x8035cd37	-4.940899e-39
12	0x002aa208	3.915217e-39
13	0x00046a1e	4.0541e-40
14	0x8005bab7	-5.26158e-40
15	0x0014105c	1.842579e-39
16	0x800251aa	-2.12967e-40
17	0x80324b3c	-4.618764e-39
18	0x803c6636	-5.546796e-39
19	0x8018b867	-2.270203e-39
20	0x000bce57	1.084211e-39
21	0x800cb706	-1.167682e-39
22	0x002de027	4.213008e-39
23	0x001dd09b	2.738063e-39
24	0x001cb42f	2.636032e-39
25	0x802f25d3	-4.329837e-39
26	0x003178ed	4.54332e-39
27	0x0015680d	1.965872e-39
28	0x80227bcb	-3.166815e-39
29	0x802a611f	-3.891931e-39
30	0x002d5214	4.162041e-39
31	0x8029444a	-3.789753e-39
32	0x0027cf1f	3.655885e-39
33	0x800e4328	-1.309788e-39
34	0x8024451d	-3.330871e-39
35	0x00364a4b	4.985768e-39
36	0x0015bf18	1.997097e-39
37	0x001f3cd3	2.86872e-39
38	0x0024904f	3.357846e-39
39	0x803e253e	-5.707161e-39
40	0x002cf20b	4.12759e-39
41	0x00255f41	3.432084e-39
42	0x801632be	-2.038584e-39
43	0x8001bf6b	-1.60503e-40
44	0x0026b0da	3.553191e-39
45	0x00338c59	4.733958e-39
46	0x80137fff	-1.790791e-39
47	0x803a90d5	-5.378415e-39
48	0x800a52e5	-9.48092e-40
49	0x801317ab	-1.753365e-39
50	0x8012697d	-1.690881e-39
51	0x00126628	1.689686e-39
52	0x001ddda9	2.742746e-39
53	0x8015211e	-1.940426e-39
54	0x80339002	-4.73527e-39
55	0x002f480c	4.342114e-39
56	0x8043286c	-6.167479e-39
57	0x0017f879	2.201352e-39
58	0x802bd41e	-4.02502e-39
59	0x0022cbe8	3.195555e-39
60	0x0032d9f9	4.669969e-39
61	0x003bafa4	5.481302e-39
62	0x800ffe9a	-1.468866e-39
63	0x80085533	-7.65248e-40
64	0x80419cb0	-6.025516e-39
65	0x0036fdb8	5.050134e-39
66	0x800d90a5	-1.24575e-39
67	0x80225818	-3.154009e-39
68	0x8029b21d	-3.82915e-39
69	0x80277d9d	-3.626646e-39
70	0x002e39d2	4.245175e-39
71	0x800ebbd6	-1.35308e-39
72	0x0015f9af	2.018115e-39
73	0x803c895f	-5.559409e-39
74	0x0020d5db	3.015453e-39
75	0x00013bba	1.13261e-40
76	0x8028f625	-3.76172e-39
77	0x8012c6fc	-1.724421e-39
78	0x801671f3	-2.061258e-39
79	0x0036f507	5.047016e-39
80	0x80239de4	-3.270883e-39
81	0x80169c09	-2.076356e-39
82	0x000a823c	9.65074e-40
83	0x8024f4ea	-3.393936e-39
84	0x0012c50d	1.723727e-39
85	0x800f6ff7	-1.417698e-39
86	0x000e0d88	1.290551e-39
87	0x00459b59	6.392377e-39
88	0x800274ff	-2.25641e-40
89	0x001694df	2.073786e-39
90	0x003a4703	5.351933e-39
91	0x00399030	5.286348e-39
92	0x803f5fd5	-5.820014e-39
93	0x802511e2	-3.404329e-39
94	0x80101d84	-1.479956e-39
95	0x000701e4	6.43527e-40
96	0x803a7b73	-5.370744e-39
97	0x000a53de	9.48441e-40
98	0x002a4ef3	3.885412e-39
99	0x000de3c5	1.27557e-39
100	0x0037ee25	5.136382e-39
101	0x800291c5	-2.35963e-40
102	0x002ec705	4.295828e-39
103	0x8029e79a	-3.848338e-39
104	0x80408af0	-5.927313e-39
105	0x8011bd01	-1.629005e-39
106	0x8010274a	-1.483462e-39
107	0x80126f25	-1.69291e-39
108	0x003e3da1	5.715909e-39
109	0x802ae9a9	-3.940912e-39
110	0x0036e802	5.042346e-39
111	0x0043465e	6.178221e-39
112	0x002ef6e6	4.313003e-39
113	0x802d9b7b	-4.188373e-39
114	0x003bcf49	5.492654e-39
115	0x8041685a	-6.006742e-39
116	0x003249eb	4.618292e-39
117	0x801ab327	-2.45199e-39
118	0x800766fb	-6.79791e-40
119	0x000ad09e	9.93193e-40
120	0x80123aa3	-1.674074e-39
121	0x802c4010	-4.063743e-39
122	0x00412a02	5.984377e-39
123	0x000e3e48	1.308039e-39
124	0x0010da39	1.547651e-39
125	0x002014ac	2.946152e-39
126	0x8040bc84	-5.945098e-39
127	0x002f5e7d	4.350164e-39
128	0x0015681b	1.965891e-39
129	0x0041fd92	6.060271e-39
130	0x002ac818	3.928871e-39
131	0x80457aa4	-6.380644e-39
132	0x801dcf3b	-2.73757e-39
133	0x80398bf5	-5.28483e-39
134	0x8035a99b	-4.928124e-39
135	0x8022769d	-3.164957e-39
136	0x002fc2e9	4.386189e-39
137	0x002b0bed	3.953204e-39
138	0x0001b413	1.56434e-40
139	0x80239c38	-3.270283e-39
140	0x801de8f6	-2.7468e-39
141	0x8045d479	-6.41287e-39
142	0x00203358	2.957155e-39
143	0x002315d4	3.222073e-39
144	0x80019c18	-1.47831e-40
145	0x8004f747	-4.56048e-40
146	0x00458fd4	6.388245e-39
147	0x00166fdf	2.060513e-39
148	0x8019ae28	-2.358363e-39
149	0x002bf6c0	4.037444e-39
150	0x8023cbde	-3.287376e-39
151	0x00303077	4.42549e-39
152	0x8030d447	-4.484255e-39
153	0x0022d1de	3.197693e-39
154	0x003313c2	4.690698e-39
155	0x004107fc	5.972172e-39
156	0x0012d4f8	1.729438e-39
157	0x80347014	-4.815652e-39
158	0x002ed6c2	4.301473e-39
159	0x00040655	3.69613e-40
160	0x8016276a	-2.03452e-39
161	0x0044e540	6.327053e-39
162	0x80384b33	-5.169764e-39
163	0x0004e838	4.50646e-40
164	0x8045d521	-6.413105e-39
165	0x0011ff06	1.652689e-39
166	0x001310e9	1.75094e-39
167	0x80393e1f	-5.256908e-39
168	0x80048214	-4.14005e-40
169	0x0014bb33	1.903864e-39
170	0x80351ee1	-4.878359e-39
171	0x00061b81	5.6088e-40
172	0x802adbe1	-3.935969e-39
173	0x803f417f	-5.809132e-39
174	0x002995dd	3.819016e-39
175	0x801be6e4	-2.562386e-39
176	0x001d8ead	2.714412e-39
177	0x001c9ee8	2.628399e-39
178	0x00081e57	7.45568e-40
179	0x8038cc37	-5.216046e-39
180	0x0023cfe7	3.288824e-39
181	0x00098d5e	8.77232e-40
182	0x803660a2	-4.993782e-39
183	0x80079c36	-6.98886e-40
184	0x802c0dc1	-4.045696e-39
185	0x003c2b32	5.525625e-39
186	0x00183df2	2.226274e-39
187	0x0043e413	6.234796e-39
188	0x0001a987	1.5265e-40
189	0x803705a8	-5.052981e-39
190	0x8006608b	-5.85646e-40
191	0x801ff3c2	-2.934344e-39
192	0x00339021	4.735314e-39
193	0x801f6348	-2.882516e-39
194	0x80363d9a	-4.981215e-39
195	0x003c46bb	5.535503e-39
196	0x80386347	-5.178402e-39
197	0x801ff5f3	-2.93513e-39
198	0x00002791	1.4194e-41
199	0x8020e6cd	-3.021532e-39
200	0x0032dcd1	4.670989e-39
201	0x8002ca5f	-2.56268e-40
202	0x800edfaa	-1.365932e-39
203	0x003e1765	5.702193e-39
204	0x800eb33d	-1.349996e-39
205	0x803d7f14	-5.647552e-39
206	0x8033d2c6	-4.759222e-39
207	0x00265513	3.520268e-39
208	0x803eb875	-5.759971e-39
209	0x00116205	1.596366e-39
210	0x003dc96b	5.67422e-39
211	0x003dd8c3	5.679725e-39
212	0x001c0582	2.57337e-39
213	0x00012b85	1.07447e-40
214	0x0045cc46	6.409929e-39
215	0x00294278	3.7891e-39
216	0x001db47c	2.727975e-39
217	0x80413d25	-5.991242e-39
218	0x800c1f85	-1.113333e-39
219	0x00031307	2.82332e-40
220	0x003c6c00	5.548873e-39
221	0x0045ca2a	6.409172e-39
222	0x8035435d	-4.891447e-39
223	0x8037ab96	-5.112506e-39
224	0x0033c614	4.754667e-39
225	0x001d639a	2.69896e-39
226	0x80325e7a	-4.625667e-39
227	0x0044cf00	6.319071e-39
228	0x001068f4	1.507018e-39
229	0x002aeef4	3.942811e-39
230	0x00189d7d	2.260548e-39
231	0x801ccb8f	-2.644417e-39
232	0x00134696	1.770196e-39
233	0x8010bede	-1.537838e-39
234	0x8005d9cd	-5.3731e-40
235	0x000ab6f8	9.83992e-40
236	0x80426a79	-6.099338e-39
237	0x001d7db6	2.708326e-39
238	0x00362a62	4.974321e-39
239	0x004625e2	6.442075e-39
240	0x802010c0	-2.944745e-39
241	0x00378619	5.099057e-39
242	0x003ac2db	5.39636e-39
243	0x802b0256	-3.949764e-39
244	0x001c7c96	2.616087e-39
245	0x000c588c	1.13379e-39
246	0x80315799	-4.531363e-39
247	0x003b4a39	5.44492e-39
248	0x003f0bf6	5.789927e-39
249	0x0002448c	2.08261e-40
250	0x0045b9ed	6.403347e-39
251	0x00458b2a	6.386572e-39
252	0x000e5f5a	1.319903e-39
253	0x8034484d	-4.801382e-39
254	0x0041e29d	6.050601e-39
255	0x8028602e	-3.707923e-39

bias f4 [16]
0	0x00000000	0.0
1	0x00000000	0.0
2	0x00000000	0.0
3	0x00000000	0.0
4	0x00000000	0.0
5	0x00000000	0.0
6	0x00000000	0.0
7	0x00000000	0.0
8	0x00000000	0.0
9	0x00000000	0.0
10	0x00000000	0.0
11	0x00000000	0.0
12	0x00000000	0.0
13	0x00000000	0.0
14	0x00000000	0.0
15	0x00000000	0.0

weight f4 [32, 16]
0	0x8028cd18	-3.746994e-39
1	0x80068dd3	-6.0189e-40
2	0x80396406	-5.270505e-39
3	0x0028b98b	3.73998e-39
4	0x802fdc40	-4.395279e-39
5	0x801ae81f	-2.470992e-39
6	0x80169075	-2.072202e-39
7	0x00076714	6.79826e-40
8	0x801e6e34	-2.794598e-39
9	0x8010e52d	-1.551581e-39
10	0x800baece	-1.072899e-39
11	0x8037167e	-5.059021e-39
12	0x002a42cb	3.881052e-39
13	0x801cec82	-2.656237e-39
14	0x801c82e0	-2.618343e-39
15	0x000475f8	4.09661e-40
16	0x802661c9	-3.524828e-39
17	0x802a5d8a	-3.890646e-39
18	0x00188538	2.251842e-39
19	0x0026222d	3.502009e-39
20	0x001fd1ce	2.922164e-39
21	0x80400a74	-5.881222e-39
22	0x003c1664	5.518162e-39
23	0x80282177	-3.685425e-39
24	0x002c324d	4.058806e-39
25	0x000b2f83	1.027234e-39
26	0x802564db	-3.434093e-39
27	0x000aa4f4	9.77529e-40
28	0x802eebc8	-4.309015e-39
29	0x00275c58	3.614711e-39
30	0x801c8395	-2.618597e-39
31	0x801b3083	-2.496961e-39
32	0x803ce5b4	-5.592532e-39
33	0x802dbfb3	-4.201366e-39
34	0x8018c9c4	-2.276432e-39
35	0x000d6a76	1.232052e-39
36	0x004120de	5.981098e-39
37	0x802125ce	-3.044133e-39
38	0x003a5b4f	5.359214e-39
39	0x002176ec	3.073233e-39
40	0x00327a10	4.635563e-39
41	0x804560c3	-6.371361e-39
42	0x001b91ef	2.53191e-39
43	0x80293925	-3.785755e-39
44	0x0014c860	1.908591e-39
45	0x00294b02	3.792163e-39
46	0x803c0bf8	-5.514423e-39
47	0x80021d6f	-1.9423e-40
48	0x0028083b	3.676372e-39
49	0x003e91dd	5.746127e-39
50	0x80014f91	-1.20379e-40
51	0x00180ce1	2.208672e-39
52	0x80017657	-1.34288e-40
53	0x800a73ac	-9.5985e-40
54	0x80349734	-4.829687e-39
55	0x801ec079	-2.824111e-39
56	0x802c342e	-4.05948e-39
57	0x803c9f47	-5.567268e-39
58	0x003aa1da	5.38452e-39
59	0x002cb520	4.105737e-39
60	0x8010c342	-1.539413e-39
61	0x00010353	9.3028e-41
62	0x8039ca87	-5.307276e-39
63	0x80256b61	-3.436434e-39
64	0x00457fe1	6.382524e-39
65	0x00133dc0	1.767026e-39
66	0x8019b453	-2.360576e-39
67	0x00166a99	2.058621e-39
68	0x000384e4	3.23179e-40
69	0x0013e335	1.826381e-39
70	0x80317188	-4.540667e-39
71	0x003f369c	5.805226e-39
72	0x0008ad11	7.96768e-40
73	0x80263664	-3.50926e-39
74	0x003e48a6	5.719862e-39
75	0x8041c7ee	-6.041029e-39
76	0x800fff06	-1.469018e-39
77	0x80411ac2	-5.978906e-39
78	0x80325b2a	-4.624478e-39
79	0x00034cf8	3.03118e-40
80	0x0019929f	2.348485e-39
81	0x8045126d	-6.343259e-39
82	0x0038dd28	5.222124e-39
83	0x80202fdf	-2.955909e-39
84	0x802af4eb	-3.944951e-39
85	0x8039585f	-5.266325e-39
86	0x002d9f6f	4.189791e-39
87	0x0013f1d6	1.831629e-39
88	0x0009d406	9.02579e-40
89	0x001cf54d	2.659391e-39
90	0x801791e9	-2.164559e-39
91	0x000a5452	9.48603e-40
92	0x800b925b	-1.062693e-39
93	0x8030f1c9	-4.49484e-39
94	0x0003dad9	3.54014e-40
95	0x00298a80	3.81494e-39
96	0x00129122	1.705103e-39
97	0x8041fd55	-6.060186e-39
98	0x0045719b	6.377403e-39
99	0x00376ffb	5.091123e-39
100	0x80406495	-5.913554e-39
101	0x801b2d4d	-2.495809e-39
102	0x0040b478	5.942212e-39
103	0x0044a7f7	6.305068e-39
104	0x001a8e48	2.438764e-39
105	0x002fd9a3	4.394342e-39
106	0x803cf00f	-5.596247e-39
107	0x0026b92d	3.556177e-39
108	0x0031802d	4.54592e-39
109	0x804632d7	-6.446723e-39
110	0x803e6a35	-5.7319e-39
111	0x80328d06	-4.642364e-39
112	0x0036b3f4	5.023672e-39
113	0x80226d80	-3.161688e-39
114	0x8025b41f	-3.462529e-39
115	0x0003d8ed	3.53325e-40
116	0x803c2a61	-5.525332e-39
117	0x80271b9b	-3.591487e-39
118	0x00079d7d	6.99345e-40
119	0x002b137d	3.955917e-39
120	0x80218b70	-3.080592e-39
121	0x8002372b	-2.03462e-40
122	0x800280e5	-2.2991e-40
123	0x800e574c	-1.317013e-39
124	0x00109557	1.522941e-39
125	0x801ce279	-2.652637e-39
126	0x8005fe76	-5.50461e-40
127	0x00428109	6.107432e-39
128	0x80068af1	-6.00856e-40
129	0x00071b07	6.52544e-40
130	0x0021111c	3.036709e-39
131	0x00228627	3.170532e-39
132	0x8002cca7	-2.57086e-40
133	0x80245095	-3.334985e-39
134	0x8019c3b9	-2.3661e-39
135	0x801cad25	-2.633506e-39
136	0x803a2af8	-5.341873e-39
137	0x0004ad47	4.29502e-40
138	0x8001beb9	-1.60254e-40
139	0x8036bb7d	-5.026375e-39
140	0x000427d4	3.8163e-40
141	0x003c239f	5.522908e-39
142	0x003bdd2a	5.497633e-39
143	0x0024bf73	3.374757e-39
144	0x800ff7f1	-1.466477e-39
145	0x00171da6	2.122852e-39
146	0x00420b12	6.065114e-39
147	0x000616b4	5.59157e-40
148	0x001ba8b5	2.540079e-39
149	0x802af941	-3.946506e-39
150	0x00329184	4.643976e-39
151	0x80263864	-3.509978e-39
152	0x00222377	3.135129e-39
153	0x0038e1ac	5.223744e-39
154	0x801f8986	-2.896234e-39
155	0x0032fd7e	4.68271e-39
156	0x002d539a	4.162588e-39
157	0x003c3897	5.53043e-39
158	0x80272653	-3.595332e-39
159	0x0002c92c	2.55838e-40
160	0x8001f8bd	-1.81066e-40
161	0x80037e4c	-3.20813e-40
162	0x001d7e07	2.70844e-39
163	0x80309773	-4.462434e-39
164	0x8040b175	-5.941131e-39
165	0x000e7bd9	1.330125e-39
166	0x0005a275	5.17456e-40
167	0x00192b32	2.311383e-39
168	0x8026b26d	-3.553756e-39
169	0x801691d2	-2.072691e-39
170	0x804057e0	-5.908995e-39
171	0x00122f31	1.669968e-39
172	0x803f818e	-5.832112e-39
173	0x00136310	1.780411e-39
174	0x80454367	-6.360829e-39
175	0x001e5b0d	2.787728e-39
176	0x0045f31b	6.423859e-39
177	0x80214190	-3.054091e-39
178	0x802c562a	-4.071672e-39
179	0x000f03ac	1.37885e-39
180	0x800651b3	-5.80321e-40
181	0x00418d15	6.019918e-39
182	0x8011ec3b	-1.645947e-39
183	0x8013f364	-1.832187e-39
184	0x8044c125	-6.314101e-39
185	0x0044440b	6.269223e-39
186	0x00188795	2.25269e-39
187	0x0013f4ca	1.832688e-39
188	0x0019ec75	2.380712e-39
189	0x0018883c	2.252924e-39
190	0x0043bcf9	6.220769e-39
191	0x80120efa	-1.658412e-39
192	0x0038e82b	5.226074e-39
193	0x8002308f	-2.0109e-40
194	0x002457f2	3.337627e-39
195	0x8023a219	-3.272392e-39
196	0x800c0d48	-1.10679e-39
197	0x803bfca6	-5.508927e-39
198	0x0005b817	5.25216e-40
199	0x8036bcd4	-5.026856e-39
200	0x003c2d69	5.52642e-39
201	0x002a1619	3.865018e-39
202	0x003a5303	5.356238e-39
203	0x00066baa	5.89636e-40
204	0x803b82b3	-5.46518e-39
205	0x000f5f24	1.411662e-39
206	0x803518e0	-4.876205e-39
207	0x803ec743	-5.765282e-39
208	0x00037d49	3.2045e-40
209	0x8011ae2e	-1.623687e-39
210	0x80065015	-5.79741e-40
211	0x001dd97a	2.741245e-39
212	0x000d459d	1.218834e-39
213	0x8029de4e	-3.845003e-39
214	0x8034bc58	-4.843011e-39
215	0x0032831f	4.638812e-39
216	0x0045419f	6.36019e-39
217	0x800e8360	-1.332825e-39
218	0x8029d384	-3.841133e-39
219	0x8044b299	-6.308883e-39
220	0x0000fb7e	9.0218e-41
221	0x80313926	-4.52044e-39
222	0x00456283	6.371989e-39
223	0x80459f64	-6.393828e-39
224	0x000b3acd	1.031284e-39
225	0x002e3870	4.244679e-39
226	0x0017ec74	2.19704e-39
227	0x0021ef1f	3.116352e-39
228	0x0008dae5	8.13209e-40
229	0x802f6432	-4.352212e-39
230	0x001ed038	2.82976e-39
231	0x800a210a	-9.30207e-40
232	0x801a7ba6	-2.43208e-39
233	0x003acdcc	5.400285e-39
234	0x0008f280	8.21677e-40
235	0x80427974	-6.104712e-39
236	0x80339965	-4.738638e-39
237	0x801a190d	-2.39671e-39
238	0x80259042	-3.449663e-39
239	0x000c8b4d	1.151998e-39
240	0x003fb8ea	5.851971e-39
241	0x00357ea5	4.912713e-39
242	0x80308ceb	-4.458656e-39
243	0x000c2094	1.113713e-39
244	0x003042fc	4.432133e-39
245	0x000a727d	9.59426e-40
246	0x001e8fb3	2.806614e-39
247	0x0004fae3	4.57343e-40
248	0x80272e43	-3.59818e-39
249	0x8029928b	-3.817825e-39
250	0x0014bfef	1.905563e-39
251	0x8017b61b	-2.177544e-39
252	0x003ff4bf	5.873435e-39
253	0x802e8bca	-4.27458e-39
254	0x0028fb84	3.763647e-39
255	0x8007deb7	-7.22744e-40

bias f4 [32]
0	0x80222d9d	-3.13877e-39
1	0x80016f06	-1.31663e-40
2	0x00152d4c	1.944795e-39
3	0x0037300d	5.06819e-39
4	0x0007b041	7.06076e-40
5	0x00287ef1	3.718958e-39
6	0x0034eb80	4.859927e-39
7	0x8030f944	-4.497523e-39
8	0x0015f425	2.016128e-39
9	0x8036723f	-5.0001e-39
10	0x803c319a	-5.527923e-39
11	0x803c81fb	-5.556758e-39
12	0x00015494	1.22176e-40
13	0x8025414e	-3.42134e-39
14	0x003f6af1	5.824e-39
15	0x00250d06	3.402585e-39
16	0x802f2722	-4.330307e-39
17	0x00421b4b	6.070934e-39
18	0x8026ac0d	-3.551469e-39
19	0x8000dcd4	-7.9218e-41
20	0x0006d238	6.26425e-40
21	0x8019df56	-2.376005e-39
22	0x00138e10	1.795837e-39
23	0x002960d6	3.799994e-39
24	0x800a8853	-9.67259e-40
25	0x00249199	3.358308e-39
26	0x803babc5	-5.479914e-39
27	0x001adf9e	2.467942e-39
28	0x80317df7	-4.545127e-39
29	0x803d77b6	-5.64491e-39
30	0x003c8d8b	5.560906e-39
31	0x802b066c	-3.95123e-39

weight f4 [16, 32]
0	0x001329ed	1.759915e-39
1	0x8015c52e	-1.99928e-39
2	0x8022d276	-3.197906e-39
3	0x0033b30b	4.747839e-39
4	0x0025b11d	3.46145e-39
5	0x802ba637	-4.008553e-39
6	0x80022bed	-1.99429e-40
7	0x00461d23	6.438937e-39
8	0x00046cce	4.06374e-40
9	0x80154080	-1.951684e-39
10	0x8036420e	-4.982813e-39
11	0x00421925	6.070163e-39
12	0x00010b9f	9.6004e-41
13	0x80138a4a	-1.794483e-39
14	0x0028379b	3.693367e-39
15	0x802c2ebf	-4.057531e-39
16	0x803da1b8	-5.659979e-39
17	0x0013976f	1.799199e-39
18	0x8033680c	-4.720935e-39
19	0x003df7ba	5.690833e-39
20	0x0025a158	3.455793e-39
21	0x001d3c7a	2.684924e-39
22	0x80315098	-4.528851e-39
23	0x002d6bd5	4.17128e-39
24	0x8019093e	-2.299203e-39
25	0x8045d754	-6.413894e-39
26	0x00369642	5.013019e-39
27	0x0015b11f	1.992084e-39
28	0x80419301	-6.022042e-39
29	0x803d8c67	-5.652332e-39
30	0x003d4d9f	5.62981e-39
31	0x002bf2c2	4.036011e-39
32	0x000ff440	1.465153e-39
33	0x003bfb98	5.508549e-39
34	0x8026eb0b	-3.574066e-39
35	0x8004670c	-4.04308e-40
36	0x000b97ea	1.064687e-39
37	0x80175b60	-2.144996e-39
38	0x8016683a	-2.05777e-39
39	0x000bbdb9	1.07825e-39
40	0x800cb659	-1.16744e-39
41	0x00378ff3	5.102592e-39
42	0x803512d7	-4.87404e-39
43	0x00375941	5.08297e-39
44	0x80119a90	-1.61665e-39
45	0x002ab647	3.92248e-39
46	0x8038b754	-5.208554e-39
47	0x8036e937	-5.042779e-39
48	0x0005de66	5.38959e-40
49	0x00265b5f	3.522527e-39
50	0x003ecf13	5.768085e-39
51	0x803575cb	-4.909537e-39
52	0x80001181	-6.279e-42
53	0x801d2ab2	-2.678546e-39
54	0x002b3fa7	3.97176e-39
55	0x800145b8	-1.16846e-40
56	0x0002dc60	2.62727e-40
57	0x8035bf22	-4.935847e-39
58	0x00226321	3.157968e-39
59	0x0045f0f4	6.423087e-39
60	0x0002d282	2.59187e-40
61	0x000a2753	9.32462e-40
62	0x801094f4	-1.522802e-39
63	0x803bf222	-5.505155e-39
64	0x003602ac	4.960075e-39
65	0x001bfbae	2.569844e-39
66	0x0025d290	3.473449e-39
67	0x80407694	-5.92001e-39
68	0x802bc1fd	-4.018516e-39
69	0x800b175d	-1.018572e-39
70	0x0004a29e	4.25678e-40
71	0x00254699	3.423239e-39
72	0x8023ccac	-3.287665e-39
73	0x803e503b	-5.722582e-39
74	0x00245718	3.337321e-39
75	0x803a0e84	-5.331666e-39
76	0x000d3006	1.211089e-39
77	0x0020ad8b	3.000991e-39
78	0x000afbbc	1.00866e-39
79	0x80291e46	-3.776115e-39
80	0x80006750	-3.7062e-41
81	0x0019d754	2.373133e-39
82	0x00206edb	2.978503e-39
83	0x80375f6d	-5.085185e-39
84	0x801a0210	-2.388463e-39
85	0x801a3db6	-2.40986e-39
86	0x002e59c1	4.25663e-39
87	0x00002728	1.4047e-41
88	0x802b9ee7	-4.00593e-39
89	0x00257547	3.439985e-39
90	0x000aa322	9.76876e-40
91	0x80108e00	-1.520308e-39
92	0x003d1e85	5.612914e-39
93	0x000609de	5.54553e-40
94	0x000e5997	1.317836e-39
95	0x80360139	-4.959555e-39
96	0x80268c1e	-3.540013e-39
97	0x001cfb2d	2.661499e-39
98	0x0014129c	1.843386e-39
99	0x00220523	3.12425e-39
100	0x00148d6d	1.887444e-39
101	0x003840bb	5.166009e-39
102	0x0000f718	8.864e-41
103	0x0010e51b	1.551555e-39
104	0x003f169f	5.793751e-39
105	0x0013eebe	1.830519e-39
106	0x80381edf	-5.153862e-39
107	0x00147ba2	1.881061e-39
108	0x000d4414	1.218283e-39
109	0x8031ed99	-4.585173e-39
110	0x00260926	3.49303e-39
111	0x803082c9	-4.45502e-39
112	0x0009ca49	8.99086e-40
113	0x002515cf	3.405737e-39
114	0x0029f999	3.854794e-39
115	0x80266b45	-3.52823e-39
116	0x801886dc	-2.25243e-39
117	0x001d556a	2.69387e-39
118	0x00301539	4.415717e-39
119	0x8040bd1f	-5.945316e-39
120	0x00157ab3	1.972562e-39
121	0x001b17db	2.488116e-39
122	0x8011e728	-1.644127e-39
123	0x002074ad	2.980591e-39
124	0x0020db86	3.017486e-39
125	0x00169eeb	2.07739e-39
126	0x80048c5f	-4.17698e-40
127	0x001bd08f	2.554375e-39
128	0x800b3d4f	-1.032184e-39
129	0x003938b8	5.25497e-39
130	0x0002ff84	2.75333e-40
131	0x0025a25d	3.456158e-39
132	0x001730f4	2.129777e-39
133	0x8018f35a	-2.29135e-39
134	0x80261c3e	-3.49988e-39
135	0x8011e1ca	-1.642201e-39
136	0x802d44b5	-4.157245e-39
137	0x003f530f	5.815432e-39
138	0x8019a4fa	-2.35507e-39
139	0x803cf05c	-5.596354e-39
140	0x000db8b4	1.26012e-39
141	0x00400bbf	5.881685e-39
142	0x803542a9	-4.891194e-39
143	0x002efdb7	4.315449e-39
144	0x0013fcc6	1.835552e-39
145	0x80067a8f	-5.94979e-40
146	0x803cb67f	-5.575597e-39
147	0x00334d06	4.711241e-39
148	0x0018bd09	2.271865e-39
149	0x8036a97a	-5.019914e-39
150	0x802f8ce0	-4.366805e-39
151	0x802fa9d1	-4.377187e-39
152	0x00160265	2.02124e-39
153	0x002a3fdc	3.879999e-39
154	0x00321570	4.599465e-39
155	0x002770d5	3.622061e-39
156	0x803e1d77	-5.704371e-39
157	0x002a0ca7	3.86163e-39
158	0x8039567d	-5.26565e-39
159	0x0041106a	5.975196e-39
160	0x80152cee	-1.944663e-39
161	0x0008019f	7.35266e-40
162	0x00331f6b	4.694881e-39
163	0x000de3e3	1.275612e-39
164	0x00177e77	2.157583e-39
165	0x00208114	2.98504e-39
166	0x8032f55e	-4.679796e-39
167	0x00439abe	6.208489e-39
168	0x803d099e	-5.605415e-39
169	0x001ec8b3	2.827062e-39
170	0x803fcd7c	-5.85935e-39
171	0x801a54bf	-2.418124e-39
172	0x0013d248	1.820309e-39
173	0x001fe6cc	2.929695e-39
174	0x8003926b	-3.28031e-40
175	0x0019196c	2.305007e-39
176	0x80422836	-6.075568e-39
177	0x003feb64	5.870079e-39
178	0x002ce9b8	4.124604e-39
179	0x00403712	5.897227e-39
180	0x0009b1f1	8.90353e-40
181	0x801ed86a	-2.8327e-39
182	0x003ec616	5.76486e-39
183	0x8024c285	-3.375858e-39
184	0x800a77bd	-9.61309e-40
185	0x800e7a79	-1.329632e-39
186	0x802449e0	-3.332579e-39
187	0x0030f483	4.495818e-39
188	0x8037cda5	-5.124724e-39
189	0x80377763	-5.09378e-39
190	0x0007987b	6.97548e-40
191	0x0027024b	3.582407e-39
192	0x002eed71	4.309611e-39
193	0x8005ceea	-5.33404e-40
194	0x001ddf17	2.743259e-39
195	0x000b9fad	1.067471e-39
196	0x00205f52	2.97293e-39
197	0x000d613b	1.228741e-39
198	0x80445693	-6.275871e-39
199	0x0025a3fc	3.45674e-39
200	0x8042264f	-6.074885e-39
201	0x0026cac4	3.562487e-39
202	0x00388e64	5.193868e-39
203	0x000b6245	1.045443e-39
204	0x801f8da6	-2.897714e-39
205	0x0037a2d8	5.10937e-39
206	0x00161c7f	2.030603e-39
207	0x000851f6	7.64086e-40
208	0x8014ebe6	-1.921334e-39
209	0x802323d9	-3.227102e-39
210	0x8029d795	-3.842592e-39
211	0x00126f6d	1.693011e-39
212	0x800cf201	-1.18884e-39
213	0x804023da	-5.890333e-39
214	0x80238498	-3.261808e-39
215	0x80399c4c	-5.290692e-39
216	0x0000fbce	9.033e-41
217	0x8001a0b3	-1.49484e-40
218	0x802d3e3f	-4.154927e-39
219	0x003efcb5	5.784455e-39
220	0x80436e02	-6.192442e-39
221	0x80426a01	-6.09917e-39
222	0x803e403d	-5.716845e-39
223	0x0036f4a4	5.046877e-39
224	0x003b307f	5.435691e-39
225	0x0034f841	4.864503e-39
226	0x0001b8d0	1.58134e-40
227	0x80355811	-4.898874e-39
228	0x8023fb1f	-3.304328e-39
229	0x801a50b5	-2.416675e-39
230	0x0024504f	3.334887e-39
231	0x80458bdd	-6.386823e-39
232	0x00377b8f	5.095277e-39
233	0x002a6372	3.892765e-39
234	0x00210171	3.031088e-39
235	0x00453b56	6.357935e-39
236	0x004200ee	6.061476e-39
237	0x0002bd4a	2.51575e-40
238	0x8040816a	-5.923897e-39
239	0x003936f9	5.254344e-39
240	0x803d711e	-5.642544e-39
241	0x8026e4ff	-3.571897e-39
242	0x8033eb0d	-4.76793e-39
243	0x801ebedb	-2.823531e-39
244	0x001d1978	2.672366e-39
245	0x0033aba3	4.745182e-39
246	0x0037dc62	5.130011e-39
247	0x000b6e4a	1.049755e-39
248	0x803c5472	-5.540423e-39
249	0x8020f577	-3.026792e-39
250	0x80261bb6	-3.49969e-39
251	0x00388c7c	5.193184e-39
252	0x00441c46	6.254956e-39
253	0x002d78f9	4.175994e-39
254	0x00400d0d	5.882153e-39
255	0x80164720	-2.045896e-39

bias f4 [16]
0	0x80370d8a	-5.055809e-39
1	0x000407c9	3.70135e-40
2	0x80293437	-3.783986e-39
3	0x00134e68	1.773001e-39
4	0x0015a673	1.988256e-39
5	0x000836ba	7.54316e-40
6	0x8033a629	-4.743217e-39
7	0x0042997f	6.116207e-39
8	0x002cf536	4.128727e-39
9	0x00265df8	3.523458e-39
10	0x00057b8f	5.03502e-40
11	0x0010caf7	1.542178e-39
12	0x800e8eae	-1.336881e-39
13	0x000962f9	8.62024e-40
14	0x00016928	1.29558e-40
15	0x80264c44	-3.517108e-39

weight f4 [16]
0	0x13f49ea3	6.1750687e-27
1	0x13f49ea3	6.1750687e-27
2	0x13f49ea3	6.1750687e-27
3	0x13f49ea3	6.1750687e-27
4	0x13f49ea3	6.1750687e-27
5	0x13f49ea3	6.1750687e-27
6	0x13f49ea3	6.1750687e-27
7	0x13f49ea3	6.1750687e-27
8	0x13f49ea3	6.1750687e-27
9	0x13f49ea3	6.1750687e-27
10	0x13f49ea3	6.1750687e-27
11	0x13f49ea3	6.1750687e-27
12	0x13f49ea3	6.1750687e-27
13	0x13f49ea3	6.1750687e-27
14	0x13f49ea3	6.1750687e-27
15	0x13f49ea3	6.1750687e-27

bias f4 [16]
0	0x00000000	0.0
1	0x00000000	0.0
2	0x00000000	0.0
3	0x00000000	0.0
4	0x00000000	0.0
5	0x00000000	0.0
6	0x00000000	0.0
7	0x00000000	0.0
8	0x00000000	0.0
9	0x00000000	0.0
10	0x00000000	0.0
11	0x00000000	0.0
12	0x00000000	0.0
13	0x00000000	0.0
14	0x00000000	0.0
15	0x00000000	0.0

weight f4 [16]
0	0x13f49ea3	6.1750687e-27
1	0x13f49ea3	6.1750687e-27
2	0x13f49ea3	6.1750687e-27
3	0x13f49ea3	6.1750687e-27
4	0x13f49ea3	6.1750687e-27
5	0x13f49ea3	6.1750687e-27
6	0x13f49ea3	6.1750687e-27
7	0x13f49ea3	6.1750687e-27
8	0x13f49ea3	6.1750687e-27
9	0x13f49ea3	6.1750687e-27
10	0x13f49ea3	6.1750687e-27
11	0x13f49ea3	6.1750687e-27
12	0x13f49ea3	6.1750687e-27
13	0x13f49ea3	6.1750687e-27
14	0x13f49ea3	6.1750687e-27
15	0x13f49ea3	6.1750687e-27

bias f4 [16]
0	0x00000000	0.0
1	0x00000000	0.0
2	0x00000000	0.0
3	0x00000000	0.0
4	0x00000000	0.0
5	0x00000000	0.0
6	0x00000000	0.0
7	0x00000000	0.0
8	0x00000000	0.0
9	0x00000000	0.0
10	0x00000000	0.0
11	0x00000000	0.0
12	0x00000000	0.0
13	0x00000000	0.0
14	0x00000000	0.0
15	0x00000000	0.0

in_proj_weight f4 [48, 16]
0	0x3d680d82	0.056653507
1	0xbeb1d00f	-0.3472905
2	0xbe4d5dcf	-0.20055316
3	0xbddd4887	-0.10804849
4	0xbeba722d	-0.36415234
5	0xbe09b897	-0.13449322
6	0xbdd45689	-0.10368068
7	0x3d6b92aa	0.057512917
8	0xbe0813e0	-0.13288832
9	0xbde85a8e	-0.11345397
10	0x3eee785a	0.46576196
11	0x3e2c6cff	0.16838454
12	0xbe9d4f3e	-0.3072452
13	0xbdde66f4	-0.108594805
14	0x3e0f4ef4	0.13994962
15	0x3f1a6eb6	0.6032518
16	0xbeb3b3ea	-0.350982
17	0x3d46a70e	0.04849916
18	0xbcdf7852	-0.027279053
19	0xbea4995b	-0.3214825
20	0xbeb21bc4	-0.34786808
21	0x3dd5b1c1	0.104342945
22	0xbe41c313	-0.18922071
23	0x3ea41c93	0.3205305
24	0x3e162621	0.14662983
25	0x3d8cd86c	0.06877217
26	0x3d40293d	0.046914328
27	0x3df3e799	0.11909408
28	0x3d9b90a3	0.07595947
29	0x3eb818d9	0.35956457
30	0x3e61cf51	0.22051741
31	0x3d09c3ec	0.03363411
32	0xbee9137b	-0.45522675
33	0xbe944960	-0.2896223
34	0x3d142fb7	0.036178317
35	0xbe06344b	-0.13105886
36	0x3cfb5727	0.030681206
37	0x3d8e3106	0.06942944
38	0xbdc407bd	-0.095717885
39	0xbd797a5d	-0.06090771
40	0x3e445452	0.1917279
41	0x3e38cca0	0.18046808
42	0x3ec73119	0.38904646
43	0xbdacb013	-0.08432021
44	0x3e7dc6ab	0.24782817
45	0xbc091802	-0.00836754
46	0x3d0abaa7	0.03386941
47	0xbe104c84	-0.14091688
48	0xbec9f9ec	-0.39448488
49	0x3dd95908	0.106126845
50	0xbe1e9e44	-0.15490061
51	0xbe963df6	-0.29344147
52	0x3ec129c7	0.37727186
53	0x3e8deabf	0.2771816
54	0x3eaf9e94	0.34300673
55	0xbe1a9bc9	-0.1509849
56	0xbe9e5c17	-0.30929634
57	0xbeacde78	-0.3376348
58	0xbc33c754	-0.0109728165
59	0xbd3bbc36	-0.04583379
60	0x3e489c70	0.19590926
61	0x3e74a284	0.2389012
62	0xbe543330	-0.20722651
63	0x3edd1246	0.43178004
64	0x3e9b7621	0.30363563
65	0x3e7d1376	0.24714455
66	0x3e585c0a	0.2112886
67	0x3eac32b1	0.33632424
68	0xbd8b38ea	-0.06797965
69	0x3dfee3db	0.12445804
70	0x3eb15bec	0.34640443
71	0x3e198255	0.14991124
72	0x3d9d1abb	0.07671114
73	0x3e273b02	0.16331103
74	0x3eab8166	0.3349716
75	0xbe0fd145	-0.14044674
76	0x3eb0abc9	0.34506062
77	0xbe8fac1e	-0.28061002
78	0x3df9954e	0.12186681
79	0xbe1da321	-0.1539426
80	0xbe00ceac	-0.12578839
81	0x3e972e01	0.29527286
82	0x3e028d82	0.12749293
83	0x3dea6201	0.11444474
84	0xbe3ccb7f	-0.18437003
85	0xbe9b6df3	-0.30357322
86	0x3d574b77	0.052562203
87	0xbe77a157	-0.2418264
88	0x3ea016f8	0.31267524
89	0x3f0acf0a	0.54222167
90	0xbe22840c	-0.15870684
91	0x3e2dd073	0.16974048
92	0x3db66cf6	0.089075014
93	0xbebb23aa	-0.36550647
94	0x3dc18c90	0.09450638
95	0x3e8ff6d0	0.2811799
96	0x3dd6bf6d	0.1048573
97	0xbd8e6e23	-0.06954601
98	0xbde21aa1	-0.11040235
99	0xbd0596ff	-0.032614704
100	0xbebd876f	-0.3701739
101	0xbe0d5483	-0.1380177
102	0x3ece5893	0.40301952
103	0xbee24a0e	-0.44197124
104	0x3dda2746	0.10652022
105	0x3ef88f96	0.48547047
106	0x3df2d27e	0.118565544
107	0x3dfc6e9e	0.12325786
108	0xbe4dbfad	-0.2009265
109	0xbd62ecb4	-0.05540152
110	0x3f227344	0.6345713
111	0xbe1d9fac	-0.15392941
112	0xbd7b4a3c	-0.061350092
113	0xbededa9f	-0.4352617
114	0x3e2b4bd7	0.1672815
115	0xbe1a74f5	-0.15083678
116	0xbbc16114	-0.005901465
117	0xbf194c57	-0.5988211
118	0xbe930670	-0.2871585
119	0xb99aa6d1	-0.00029497457
120	0x3dae22e1	0.085027464
121	0x3d9410b5	0.07229749
122	0x3eb0e19a	0.3454712
123	0xbe0a41b6	-0.13501629
124	0xbe8dd6c1	-0.27702907
125	0xbea606f1	-0.3242717
126	0x3dcabcd1	0.09899295
127	0xbe1ea808	-0.15493786
128	0x3e9793fb	0.29605088
129	0x3dd9c504	0.10633281
130	0x3e0ad614	0.13558227
131	0x3d9703bc	0.07373759
132	0x3e649c0d	0.22325154
133	0xbe70e22e	-0.2352378
134	0xbe01552d	-0.12630148
135	0xbea22269	-0.31666878
136	0xbec078f5	-0.37592283
137	0x3dbb4f95	0.091460384
138	0xbe53a807	-0.20669566
139	0xbcc3590d	-0.023846174
140	0xbda7eaf4	-0.081991106
141	0xbece9cdc	-0.4035405
142	0x3d8e1b75	0.06938831
143	0xbea27114	-0.31726897
144	0xbdefb218	-0.117038906
145	0xbed7041a	-0.41995317
146	0x3efd3708	0.49456048
147	0x3e8551c6	0.2603895
148	0x3ebf0dcf	0.37315223
149	0xba26c8dc	-0.0006362328
150	0x3e5c1e6d	0.21495982
151	0x3e510faf	0.20416139
152	0xbe4e06b5	-0.20119746
153	0xbe99268a	-0.29912215
154	0xbeaa8fcf	-0.33312842
155	0x3e47c9aa	0.19510522
156	0x3e9146d6	0.28374356
157	0x3eddfc80	0.43356705
158	0xbe18fb29	-0.1493956
159	0x3ea90975	0.33015028
160	0x3d8de0a4	0.069276124
161	0xbe67dedf	-0.22643612
162	0x3e8c1fa7	0.273679
163	0xbe5e3923	-0.21701483
164	0xbe10cf68	-0.14141619
165	0x3e72a735	0.23696597
166	0xbd83c03f	-0.064331524
167	0xbde1f2c3	-0.11032631
168	0xbe8b197c	-0.2716788
169	0x3e651713	0.22372083
170	0xbd4cb3d4	-0.049976185
171	0xbe305b32	-0.17222288
172	0x3c89f2b8	0.01683937
173	0x3e8e2a3e	0.27766603
174	0x3d44d5e9	0.048055563
175	0x3e9b5fd2	0.30346543
176	0x3ed4e987	0.41584417
177	0x3eae9c76	0.34103745
178	0x3e05cd7a	0.13066664
179	0x3e4e9e64	0.20177609
180	0xbe609510	-0.21931863
181	0xbeb761da	-0.35816842
182	0xbe09f39b	-0.13471834
183	0x3e9ab247	0.3021414
184	0xbde11bc2	-0.109916225
185	0xbdccbfe0	-0.09997535
186	0x3d6b2608	0.057409316
187	0xbde7ce5f	-0.11318659
188	0xbe0b4147	-0.1359912
189	0x3e09a453	0.13441591
190	0x3d92f331	0.07175291
191	0x3f33daa8	0.7025552
192	0xbea1c5af	-0.31596133
193	0x3de907ad	0.11378417
194	0x3dc6c935	0.09706346
195	0xbdf54d04	-0.1197758
196	0xbce5abb9	-0.028035985
197	0x3f0690e1	0.5256482
198	0x3d10cff8	0.035354584
199	0x3dbd93d2	0.0925671
200	0x3e1cf7c0	0.15328884
201	0xbde01ca7	-0.10942965
202	0xbf0e6e1b	-0.5563676
203	0x3d17011f	0.036866304
204	0xbdf754cd	-0.12076721
205	0x3e3c7253	0.18402986
206	0x3dde62f8	0.108587205
207	0x3ec6a34e	0.38796467
208	0x3dd283d2	0.10279049
209	0xbf0912e7	-0.5354447
210	0xbe68db58	-0.22739923
211	0x3e65412e	0.22388145
212	0xbce6dd95	-0.02818183
213	0x3e29454b	0.1653034
214	0xbd005a7a	-0.031336285
215	0x3eb016c6	0.34392375
216	0x3e9b210d	0.30298653
217	0x3e6f274b	0.23354833
218	0xbd656bb7	-0.056010928
219	0x3d9eb3c1	0.07749129
220	0xbe462d86	-0.19353303
221	0x3e2841a1	0.16431285
222	0xbf5a553a	-0.85286295
223	0x3e7b8bbc	0.24565023
224	0xbe73c46f	-0.23805402
225	0xbe4f188b	-0.20224206
226	0xbdf71483	-0.12064459
227	0xbdda5c02	-0.1066208
228	0x3d3cb727	0.046073105
229	0xbe80f87c	-0.2518958
230	0x3cc20457	0.02368371
231	0xbe1850f3	-0.1487463
232	0x3cc8fdcd	0.024535084
233	0x3e29dea9	0.16588844
234	0xbe55cde1	-0.20879318
235	0xbe80d301	-0.25160983
236	0x3d8dc66d	0.06922612
237	0xbe9480e4	-0.29004586
238	0xbe33a611	-0.17543818
239	0x3db0530d	0.08609591
240	0xbe5970ef	-0.21234487
241	0x3e312de1	0.17302658
242	0x3f001a18	0.50039816
243	0xba880968	-0.001037878
244	0xbbf4d2ff	-0.0074714418
245	0x3e53c1d6	0.20679411
246	0xbe302364	-0.17201
247	0xbddeb1f6	-0.10873787
248	0xbd58e5ee	-0.052953653
249	0xbe16b8ea	-0.14718977
250	0xbecac2be	-0.39601701
251	0xbdc50f38	-0.09622043
252	0x3ee552bc	0.44789684
253	0xbe4cea82	-0.20011333
254	0x3dfd52aa	0.123692825
255	0xbe9ad841	-0.30243114

in_proj_bias f4 [48]
0	0x3f2ed5b2	0.68294823
1	0x3e85ef63	0.261592
2	0x3e6facbb	0.23405735
3	0x3e64838a	0.22315803
4	0x3dd6db2a	0.10491021
5	0x3e5bf6dd	0.2148089
6	0x3caac737	0.020846946
7	0x3e2b2f01	0.1671715
8	0xbe482422	-0.19545034
9	0x3eadff11	0.33983663
10	0xbf03b259	-0.5144401
11	0x3e5d2663	0.21596675
12	0x3d9c7ff1	0.076415904
13	0xbdef5df3	-0.11687841
14	0x3eb5d88b	0.35516772
15	0xbbbde21d	-0.005794777
16	0xb653d131	-3.1563216e-06
17	0x37ba8192	2.2233264e-05
18	0xb6fd4e6d	-7.5491175e-06
19	0x36e27078	6.748418e-06
20	0x359bcb89	1.1607636e-06
21	0x381c5560	3.727281e-05
22	0x38a34d58	7.786852e-05
23	0xb4fece78	-4.7461413e-07
24	0x37621ea1	1.3477781e-05
25	0x37de3cdd	2.6492804e-05
26	0xb8410bcd	-4.6025776e-05
27	0x37dd95a3	2.6414933e-05
28	0x37ad5886	2.0664429e-05
29	0x381aee5d	3.6938454e-05
30	0xb71abb58	-9.222735e-06
31	0xb6ac267a	-5.1304787e-06
32	0x3c1fc518	0.009751581
33	0x3b78827d	0.0037919574
34	0x3d1e4907	0.038643863
35	0xbdb3f561	-0.08787037
36	0xbdb9d5e0	-0.090739965
37	0x3d424cb6	0.04743644
38	0x3cac8048	0.021057263
39	0x3d36b445	0.044605512
40	0x3c0f87a2	0.008760365
41	0x3c3131c4	0.010815088
42	0xbadde851	-0.0016930198
43	0xbd841469	-0.064492054
44	0xbd47d3ed	-0.048786093
45	0xbc0a0950	-0.008425072
46	0xbb9d3116	-0.0047971113
47	0x3c3df510	0.011594072
