RNAModXApp/model/multi-class-type-C.pt (torch, 76851 bytes, 39 tensors)

weight f4 [94, 16]
00000000: 4e06 583e 1875 0440 be45 d7bf 062a 933e
00000010: 89a2 0fbf c5c5 2a3f fec6 8bbf 51c9 0cbf
00000020: 4d30 073f a95a d03f 19bd 853f 0ddf 2cbf
00000030: ff82 acbe 82e4 2e3f 640b 6c3f fda8 8b3f
00000040: 1f94 1cbf 7c16 0fbf c5e7 abbe 5417 f33e
00000050: 13d3 063f d5a8 d03e 784e 843f 3b6f a73e
00000060: 77ce c23f 25fe 96bd 906a 83be 5fe0 25bf
00000070: 5864 0cbf b6b9 4abf 08fc 473f 8871 f23e
00000080: c9b8 2b3e 3e1b 14c0 4aae 4ebf ce5d f73b
00000090: 73db e4be 75dc 9cbf 26a7 1dbe 5ddd f5bd
000000a0: 990c c0bf c61f 0f3f d673 393f e5b8 b9bf
000000b0: 8045 12bf 7cdd 413f 9e2a c9bf ded9 7bbf
000000c0: 3545 c63e 6baf dfbf cd1d e83f a56d 53bd
000000d0: 47fb 98be 7348 1dbe f4c2 953f 848a 9f3f
000000e0: 25bd f93d 3aa2 babd d69b 21be 9bc8 573f
000000f0: 3922 073f 9d8d 0f3f 83ad 133f 93e3 d73f
00000100: a166 c73f a72b 13bf 2f54 29bf d846 c3bf
00000110: b9f5 713f a54f 393e 391f 2c40 8dc7 81be
00000120: 70dc 733f 2ac1 62bf ea81 443f 0ed6 9b3e
00000130: 8d98 a0bf ef10 173f acaa 75be 3eff 0bbf
00000140: 2ded b03e 8249 b2be 44ab 463f 1d1d fa3e
00000150: 0b95 ba3f 4a6c fdbe 4702 4d3e 8bd2 363f
00000160: 7e5e 1e3f 6996 1cbf 9d8c 0f3e 8c19 52bd
00000170: f3eb f8bf 02a6 39bf eead d0bc fdb9 aebe
00000180: ed2f 41be a964 8bbf bbf5 233f 5dd4 a7bf
00000190: 9101 a6be ec61 9a3f 0cb4 a73f 3d08 b7bf
000001a0: d726 cabf 5c7f b1be 592d 043f 1c44 8cbe
000001b0: a792 32c0 18ab 73bf fe70 413f 0b7a 203f
000001c0: 9042 cc3f 4d61 65bf 8d15 8cbe d198 5abf
000001d0: ba32 b2bf 9944 253f 4641 5dbf 90c8 53bf
000001e0: 9649 753e 8937 0fc0 c2b9 81bf 5290 acbf
000001f0: 4964 72ba 0ede 3bbf f457 2ebf f840 7b3f
00000200: 9884 393f aa9d 703f 978f fc3e b6c7 333f
00000210: a103 e6bf 5d39 aebe 8bde a2bf b9ca a23f
00000220: 1a6a 5cbf 7a40 3a3f 2be6 dabe f386 313e
00000230: 1ad4 e63e 2406 9ebe bfc0 523e 2761 eabf
00000240: 3416 8fbf 61fd b9be 8e0c b73f 77d1 51bf
00000250: ae81 30bf a6c7 4f3e af68 94bd 8ff2 c33f
00000260: 4288 06bf fe9d cfbe da58 9fbf 49be 543f
00000270: 6b66 dbbf d107 77bf a27d 0640 d8c9 993e
00000280: b96a 06bf d4ef 823f 16b1 0f3f c86c 15be
00000290: 292d 8a3e f3b4 cd3c 6531 b2be 5da1 253f
000002a0: 50fd 91bf cf59 103f a769 3c3e 3844 f4be
000002b0: 047c 0240 7728 fcbe 9b08 ef3f f66b d6be
000002c0: a687 0940 9d92 8e3f b062 8d3c e3cf c43f
000002d0: bc49 5a3e 6081 c3bd 47fb 05bf d5cf d3be
000002e0: 95bb be3f 4195 0ebf 198d 16bf 8af5 72be
000002f0: 9524 c2bf 95ac d23e 6def bfbf dec9 db3d
00000300: eaed 883f de24 df3e 677f 8b3f 2cc9 68bd
00000310: 8b96 593f 153b 873f 4385 19bf 2d5b 233d
00000320: 4c58 003f 39df 893f 1d6a 67be 3dc6 a83f
00000330: 385a cdbd db3c 363e 8bd4 2ebf cc07 5f3f
00000340: 6425 2dbf 666a d8bc af98 173f eb9a d73f
00000350: 124a d33f bd39 19be 4920 e93f 7e43 18bf
00000360: 7154 3cbf fef5 25be 46b6 bf3e 5fef 09c0
00000370: f36d b83e ebf6 dc3e b43a 6bbf 74a6 623f
00000380: 442e 63bf 20b8 a73f 919d 7fbd b199 c53e
00000390: 2084 683f 317a ebbf 97c0 823f 3ed9 0b3f
000003a0: f135 be3f 3098 873f 5d5d 0d40 81af b93e
000003b0: f752 483e 8678 823f 5cc2 1cbf 7d0b 963f
000003c0: 6cf9 ba3e 501e 30be d4dc acbd 1689 513f
000003d0: fdaf f93f 15ea bebf e850 1d3e eb16 69bf
000003e0: 843b 3f3f 8cd3 98be 62d3 813d 0e75 a0be
000003f0: 2700 4fbf 50f6 e23f bbb5 14bf 5ad5 85bf
0.21096155 2.0696468 -1.6818159 0.28743 -0.56107384 0.6670802 -1.0920103 -0.54994684
0.52808076 1.6277667 1.0448333 -0.6752785 -0.33693692 0.68317425 0.9220488 1.0910946
-0.61163515 -0.55893683 -0.33575264 0.47478735 0.52665824 0.4075381 1.0336447 0.3270205
1.5219258 -0.07372693 -0.25667238 -0.6479549 -0.5484061 -0.7918962 0.78118944 0.47352242
0.16769709 -2.3141627 -0.80734694 0.007549024 -0.44698676 -1.2254778 -0.15395793 -0.12005112
-1.5003844 0.5590786 0.72442377 -1.450955 -0.571373 0.75728583 -1.5716131 -0.98379314
0.38724676 -1.7475408 1.8134094 -0.051618237 -0.2987921 -0.15359668 1.170012 1.2464147
0.121942796 -0.091129735 -0.15782103 0.84290475 0.52786595 0.5607546 0.5768663 1.6866325
1.5578195 -0.57488483 -0.6614408 -1.5255995 0.9451557 0.18096788 2.6894057 -0.25347558
0.95258236 -0.88575995 0.76760733 0.30436748 -1.2546555 0.59010214 -0.23990887 -0.54686344
0.3455595 -0.34821707 0.7760508 0.48850337 1.4576734 -0.4949668 0.200204 0.71415013
0.61862934 -0.6116701 0.14018483 -0.051293895 -1.9447006 -0.7251893 -0.025473561 -0.34126273
-0.18865938 -1.0890094 0.6404683 -1.3111683 -0.3242307 1.2061133 1.3101821 -1.4299389
-1.5793103 -0.3466748 0.51631695 -0.27395713 -2.790201 -0.95182943 0.7556304 0.6268622
1.5957813 -0.89601594 -0.27360192 -0.8538943 -1.392173 0.64557797 -0.86427724 -0.8272791
0.23953852 -2.2377646 -1.0134814 -1.3481543 -0.0009246511 -0.73385704 -0.68102956 0.9814601
0.72467947 0.93990576 0.493283 0.7022661 -1.7969857 -0.3402814 -1.2724165 1.2718116
-0.860994 0.72754633 -0.4275373 0.17336635 0.45083696 -0.3086406 0.2058134 -1.8310899
-1.1178651 -0.36326125 1.4300706 -0.81960243 -0.68947875 0.20291004 -0.07246529 1.5308398
-0.5255166 -0.40550226 -1.244899 0.8310285 -1.714063 -0.964963 2.101418 0.30036807
-0.52506596 1.022944 0.56129587 -0.14592278 0.2698758 0.025110697 -0.3480331 0.64699346
-1.140543 0.5638704 0.18399678 -0.47708297 2.0388193 -0.49249622 1.8674501 -0.41879243
2.1489043 1.1138493 0.017258972 1.5375942 0.2131719 -0.09546161 -0.52336544 -0.413695
1.4900995 -0.55696493 -0.5880905 -0.23726478 -1.5167414 0.41147295 -1.4994942 0.107318625
1.0697606 0.43582815 1.0898255 -0.056832477 0.84995335 1.0564905 -0.59968966 0.039881874
0.5013473 1.0771247 -0.22599073 1.3185498 -0.100269735 0.17796652 -0.68293065 0.8712127
-0.6763518 -0.026417922 0.5921735 1.6844152 1.650698 -0.14963432 1.8212978 -0.59477985
-0.7356635 -0.1620712 0.3744375 -2.155235 0.36021385 0.43157133 -0.9188645 0.8853524
-0.8874247 1.3103065 -0.062406126 0.3859382 0.90826607 -1.8396665 1.0215024 0.5462836
1.4860212 1.0593319 2.2088234 0.3626671 0.19562899 1.0193031 -0.6123407 1.1722256
0.3651842 -0.17199063 -0.08440557 0.818498 1.9506832 -1.4915186 0.15362895 -0.91050595
0.7470019 -0.29848897 0.06339146 -0.31339306 -0.8085961 1.7731419 -0.580898 -1.0455735

in_proj_weight f4 [48, 16]
00000000: 150d a8b3 6800 500d 2e7c 9d0c c485 8eb8
00000010: 1a90 41b5 8561 9719 1ec7 1029 32d0 1f9c
00000020: de55 501e 81ee a735 1497 94b3 5431 8bb4
00000030: 403b f736 909c 9fac ef9d 17b6 e09e 630c
00000040: 5e27 2db3 7ede 4d37 cafe 662a 13a4 472a
00000050: 9b3c a6ac 86cf b2ad d75f 0c2e af57 fb2c
00000060: 3125 1697 83b2 bba8 6007 8599 c620 8db4
00000070: 5410 639e 8ec1 be24 0a59 dc2f 3828 3b32
00000080: ce8e 709b dbc3 08ac 132b 3bb6 43ae b132
00000090: c808 cfb2 dc14 6aa5 bb01 7fa0 8b25 83b1
000000a0: a5eb 0124 c71d 1d31 201c 3735 b8c9 ad35
000000b0: 162f ab10 da06 70b1 db8a f418 09e0 0e35
000000c0: ade6 989e cd45 9129 2baa 5925 c4db 2a34
000000d0: 1445 3136 e9d7 6d8b 79e6 8eb6 d012 db30
000000e0: 8970 0938 31e3 109a 7ad2 f220 fa20 c1b7
000000f0: e5bc 169e 832f a6b3 a1e2 d735 e569 85b1
00000100: 712a d52e 095a 6cb5 3768 3838 3918 9b0f
00000110: d117 e114 96a9 bcb7 5d77 571d 723a 84ad
00000120: 4ee8 39b5 88d3 8c33 5573 afb3 96a8 0d35
00000130: 1897 4227 a0e3 8a93 a1cd e829 5ed0 4e37
00000140: cc35 3b1a ec2d 290a 9a72 b988 211e d4b6
00000150: fc23 312f ef53 e28f ef7b 17b6 5be9 3138
00000160: b5c8 3038 5fdc 94b7 46e3 2d14 b055 f925
00000170: 19a8 0d29 8513 dca9 6f2d 3434 f414 8eb7
00000180: 8fba 9a25 1af7 cd91 e784 ba9b 2d06 7f11
00000190: 70c2 1907 18f7 1224 19df 1730 5d0c fd8a
000001a0: a6f7 4317 c89c 42ac ced2 89a3 7ea3 d834
000001b0: 67ee dbab 7baf 5e35 1533 8db5 2459 99a5
000001c0: c742 0baf 89c2 8f22 0db5 c636 9979 3db0
000001d0: 4a79 4799 2f77 1b2d 6009 b735 eb18 1892
000001e0: 520e 72ad 27d6 c9b0 5e44 95af 6d7f 00a0
000001f0: 8fd6 a135 6b0c e9af 1f60 8c38 e516 3fa8
00000200: 1ae7 9111 78f1 ff32 1a00 e530 02a2 9912
00000210: eacb ba30 6e5e 5faf 50aa c1ab 779c 2a2b
00000220: 3172 ad33 f125 c337 ec9b bb9c 6a1d f735
00000230: 4ea0 4e30 389b 602b 8746 9b13 db43 4c20
00000240: 1fbf 8e35 341a 0f37 84d1 5c1c 8b50 6fb7
00000250: dcef f0b6 6a70 9222 8f95 8203 42b8 1bae
00000260: eb9f 2c38 cb52 09a6 ad28 4eb3 ee28 d315
00000270: 19a0 4833 a8a4 4022 be3a 0820 ee35 7338
00000280: 650c b536 7f8e 5216 341c dab7 12c9 ae28
00000290: 29e4 f3a9 dd69 241d 80f5 d52a 487c 9229
000002a0: b63e 2430 82bc 6b2e 414e 8e35 0809 07b1
000002b0: eb13 7bb7 518a 98b8 6998 0d29 d83f 3031
000002c0: 8e98 0234 c33e 0320 f0ee 85ac e3e1 51ac
000002d0: c78b 64a6 e220 46b0 ac79 ea31 c53d 44b3
000002e0: 6b49 008d 242c d61c c94b 1d1c d0c7 05b3
000002f0: bc12 a9b1 8eb6 0434 d54a 1696 676d 9d91
00000300: d1f8 23b7 e6e0 c9b2 b875 bd2c 5701 781b
00000310: e18d ce2a 24c5 6bb5 502e fe27 6cf6 5030
00000320: beca 3ba3 eb0a c6b7 ac44 1fb3 6957 be85
00000330: 0b65 5132 f04e 6e35 f5fe 981d 5a80 59af
00000340: adb4 9e35 953b 24b7 c50a 0c24 1778 feb0
00000350: a705 642e 2cab fb16 9ce2 652b 3a96 83b4
00000360: ae16 0c35 6c1a 432a 912d 1538 6577 0f30
00000370: 774c 031e da26 8c33 6dae 872d ae0e 9cb6
00000380: 0746 882d 423d 8537 6583 8f07 f5ea 3a22
00000390: a44e 9da9 0ded 1135 a632 cc9b 1f21 4613
000003a0: 9e36 461c b632 9630 9b82 372a 4821 8933
000003b0: 9529 9837 aea4 6cb5 6036 97a2 2573 19b2
000003c0: 5eda 0097 14a2 12b2 c6c1 6bb7 b41c 9334
000003d0: 334c 88b8 fbf4 e5b5 686f 2e2d da24 3a24
000003e0: ff5b a491 56b0 7907 b44f 671a 2646 22b7
000003f0: 9c55 bba0 97b8 32b8 5b60 1ca0 af51 d2b0
-7.825489e-08 6.4095438e-31 2.4264418e-31 -6.7960034e-05 -7.21078e-07 1.5652422e-23 3.214713e-14 -5.2877773e-22
1.1029185e-20 1.2511883e-06 -6.919268e-08 -2.5926659e-07 7.3680712e-06 -4.5364337e-12 -2.2592683e-06 1.7535254e-31
-4.0315506e-08 1.2270755e-05 2.0516501e-13 1.7731675e-13 -4.7247323e-12 -2.0328416e-11 3.1917437e-11 7.143584e-12
-4.8514556e-25 -2.0838588e-14 -1.3754856e-23 -2.6287142e-07 -1.20206565e-20 8.272726e-17 4.0081033e-10 1.0893977e-08
-1.9898477e-22 -1.9435484e-12 -2.7890244e-06 2.0684757e-08 -2.4101965e-08 -2.0303332e-16 -2.1599913e-19 -3.81687e-09
2.8172015e-17 2.2863433e-09 6.821374e-07 1.2948212e-06 6.7520155e-29 -3.4928491e-09 6.321273e-24 5.3225136e-07
-1.6189031e-20 6.451402e-14 1.8879405e-16 1.5912434e-07 2.6415264e-06 -4.5806972e-32 -4.2587603e-06 1.5939694e-09
3.2768152e-05 -2.9962026e-23 4.1135676e-19 -2.3022749e-05 -7.979996e-21 -7.73862e-08 1.6084706e-06 -3.8828483e-09
9.693658e-11 -8.804787e-07 4.3966076e-05 1.529351e-29 2.2728588e-26 -2.2490316e-05 2.8516722e-21 -1.5032618e-11
-6.925592e-07 6.557735e-08 -8.170051e-08 5.277192e-07 2.7004816e-15 -3.5060553e-27 1.03385406e-13 1.2327071e-05
3.871415e-23 8.145691e-33 -1.1161225e-33 -6.3216e-06 1.611084e-10 -2.231765e-29 -2.2572892e-06 4.2417418e-05
4.2148593e-05 -1.7745593e-05 8.77909e-27 4.3252679e-16 3.145409e-14 -9.773349e-14 1.6780335e-07 -1.6937476e-05
2.6841159e-16 -3.2495585e-28 -3.0857005e-22 2.0117856e-28 1.1567581e-34 3.1868e-17 5.525052e-10 -2.4367664e-32
6.3320474e-25 -2.765609e-12 -1.4942849e-17 4.0352091e-07 -1.5627056e-12 8.29568e-07 -1.0520185e-06 -2.6601673e-16
-1.26657e-10 3.89662e-18 5.921937e-06 -6.89306e-10 -1.0312553e-23 8.837194e-12 1.3637291e-06 -4.7993457e-28
-1.3759287e-11 -1.4685541e-09 -2.715152e-10 -1.0884183e-19 1.205788e-06 -4.2391277e-10 6.693624e-05 -1.0607594e-14
2.3019394e-28 2.9795714e-08 1.6661972e-09 9.6955955e-28 1.3591237e-09 -2.031528e-10 -1.3760746e-12 6.061327e-13
8.0767116e-08 2.326348e-05 -1.2414927e-21 1.8411495e-06 7.517017e-10 7.9796196e-13 3.9197046e-27 1.7301924e-19
1.0635448e-06 8.529565e-06 7.3062687e-22 -1.4264263e-05 -7.1804807e-06 3.9692402e-18 7.67505e-37 -3.5406574e-11
4.115693e-05 -4.764363e-16 -4.8000107e-08 8.52868e-26 4.6711737e-08 2.610802e-18 1.1539084e-19 5.798594e-05
5.3956633e-06 1.7008629e-25 -2.6000758e-05 1.9405081e-14 -1.0830947e-13 2.175995e-21 3.800675e-13 6.505262e-14
5.975197e-10 5.3600242e-11 1.0602599e-06 -1.965022e-09 -1.4965403e-05 -7.273688e-05 3.1440484e-14 2.5647662e-09
1.2162693e-07 1.1116898e-19 -3.8066147e-12 -2.9826079e-12 -7.9292824e-16 -7.207871e-10 6.824129e-09 -4.5690985e-08
-3.953142e-31 1.4172742e-21 5.204489e-22 -3.1148204e-08 -4.920677e-09 1.2359871e-07 -1.2140516e-25 -2.4837657e-28
-9.773489e-06 -2.3501752e-08 5.3847725e-12 2.0514512e-22 3.66914e-13 -8.78312e-07 7.0549374e-15 7.6020146e-10
-1.0180223e-17 -2.3608523e-05 -3.708253e-08 -1.7899624e-35 1.2188376e-08 8.877678e-07 4.0497684e-21 -1.9781635e-10
1.1824501e-06 -9.789034e-06 3.0366783e-17 -1.8515064e-09 5.184622e-11 4.0659262e-25 8.1671627e-13 -2.4509956e-07
5.218707e-07 1.7328646e-13 3.5566805e-05 5.2192767e-10 6.950895e-21 6.526325e-08 1.5425184e-11 -4.6508712e-06
1.5492508e-11 1.588336e-05 2.1593475e-34 2.5332086e-18 -6.9858426e-14 5.4361664e-07 -3.37817e-22 2.5007443e-27
6.5583296e-22 1.0928349e-09 1.6298978e-13 6.3856135e-08 1.8139175e-05 -8.815649e-07 -4.0986204e-18 -8.931953e-09
-4.163465e-25 -8.535171e-09 -1.4052208e-05 2.7401768e-07 -6.4991786e-05 -1.7133128e-06 9.915492e-12 4.0363535e-17
-2.5931335e-28 1.8784498e-34 4.7834064e-23 -9.672285e-06 -3.1735684e-19 -4.261042e-05 -1.3245595e-19 -1.5302727e-09

in_proj_bias f4 [48]
00000000: 0000 0000 0000 0000 0000 0000 0000 0000
00000010: 0000 0000 0000 0000 0000 0000 0000 0000
00000020: 0000 0000 0000 0000 0000 0000 0000 0000
00000030: 0000 0000 0000 0000 0000 0000 0000 0000
00000040: 0000 0000 0000 0000 0000 0000 0000 0000
00000050: 0000 0000 0000 0000 0000 0000 0000 0000
00000060: 0000 0000 0000 0000 0000 0000 0000 0000
00000070: 0000 0000 0000 0000 0000 0000 0000 0000
00000080: 0000 0000 0000 0000 0000 0000 0000 0000
00000090: 0000 0000 0000 0000 0000 0000 0000 0000
000000a0: 0000 0000 0000 0000 0000 0000 0000 0000
000000b0: 0000 0000 0000 0000 0000 0000 0000 0000
0.0 0.0 0.0 0.0 0.0 0.0 0.0 0.0
0.0 0.0 0.0 0.0 0.0 0.0 0.0 0.0
0.0 0.0 0.0 0.0 0.0 0.0 0.0 0.0
0.0 0.0 0.0 0.0 0.0 0.0 0.0 0.0
0.0 0.0 0.0 0.0 0.0 0.0 0.0 0.0
0.0 0.0 0.0 0.0 0.0 0.0 0.0 0.0

weight f4 [16, 16]
00000000: 2c9b f999 3cc1 f6b4 8c1d 4c2f f948 bd88
00000010: b552 ffb4 dcd7 9532 9932 dd9a 214b d122
00000020: 2247 ed24 6601 ed24 7426 ed9b e518 44ac
00000030: c1b5 898b 5a4d 282e 70e3 9320 8456 0ea1
00000040: c7c1 1334 f736 06b2 dbb7 862c ab50 4fae
00000050: f3f4 1109 2002 2529 9fea 4033 904b 5fa8
00000060: 50ea 562f 470b 8495 2b46 8d23 3c6d b014
00000070: 71c0 7c31 c2c9 edac eb2c a9b0 68ec 3f0b
00000080: afd0 322b 080c 74a3 55b1 532e 3aeb 7687
00000090: 147f 81af fa27 2f27 af58 ae30 1db2 e834
000000a0: 2300 9230 15e4 ec0a a8c1 bf0c 4246 5819
000000b0: d3ee f48e e415 3394 6d47 d3b2 7877 2625
000000c0: 903c 8db2 2f48 1bb1 ba1d a9a0 6626 d38c
000000d0: b35e 04ab 837a bbb4 28be 8892 6aae d9af
000000e0: b91c 09af f87b f7b5 9e29 9eac 5952 a12f
000000f0: bfc2 da9f d639 b6af 3b26 9c2d 4fed b2a8
00000100: a130 a603 bcaf f01b e2e9 8e30 8077 a600
00000110: f4e5 ed01 7e97 4aa0 c897 1323 be00 b9b2
00000120: 48e9 f6a3 32fb 62a4 4866 1b34 aa99 2dac
00000130: 97a1 9614 159e d3a3 2e4e 7935 f825 b334
00000140: 9931 71b4 f899 ab28 c855 402e cb67 dba1
00000150: 7e8d dbae 7d6a 72a6 bf32 3d2e 548b 3c9c
00000160: ca16 b6b0 5fea 5aaa 15cd 269a 8781 85b1
00000170: 220d 5d35 4a25 c51a 3bf1 0bb6 e034 8990
00000180: 35dc 12a1 9ed2 3f30 8b4d 0731 4f80 87af
00000190: a866 e11f 97b7 9f18 6f00 8d32 5114 bc1c
000001a0: f052 1eb0 5d75 5531 2fa5 aa33 8e16 5bb5
000001b0: c634 9735 d870 cd33 c6be 2bb1 5704 26b1
000001c0: 4f20 88a0 2e6a 3d27 9307 ed13 f953 9026
000001d0: 48a5 d922 9ffd d52f 93de 80b2 a4e3 3d84
000001e0: e142 e130 c21d 9db5 90f7 9c8b 115f 70a7
000001f0: 9f86 3a2d eedf 28ad 87c4 6830 89f2 d7a9
00000200: 55ee f4b5 92ba dd2b 9640 9630 c4d6 4ab5
00000210: 4c9e fda5 68b0 27af 68f2 4eb5 1061 8b23
00000220: 67e9 a0a7 ec48 a229 cead 3f1d ada3 66b3
00000230: d1a6 97b3 43a7 2914 3426 36a5 4b06 2ba9
00000240: a012 9eb5 6bb4 282e ba0c b427 7c6b 0f34
00000250: 76f7 0c21 6448 04b0 53f4 d8a3 77ba f531
00000260: 496e 45b4 c72d 0003 d790 0d2e 50f0 5f34
00000270: d0f2 0432 8186 00b2 17bb 68b2 6333 512e
00000280: 1d48 31a5 ba5b 0435 0e46 e428 c711 d622
00000290: 0d99 56aa d980 900d 820a 8f01 6992 d4b3
000002a0: 5445 4290 48b5 dcad 0b73 581a 4387 de2b
000002b0: e52f ac2f ca8d bab4 7cae ec32 33c9 e0aa
000002c0: cd61 1894 7ce6 ec31 e2c4 5234 f834 aeaa
000002d0: 4e71 ad2d d49b 71b5 f509 ceb5 3ffe 8bb2
000002e0: 00bf ed27 cfab c234 2989 c1ac d02b ceaf
000002f0: c99e 1db4 eae3 f226 601a ad04 0817 2424
00000300: 815b 6aae 7eaa 5eae 6c9d 9fa8 bfa6 6492
00000310: 22ea d22f 4173 a79f a471 f7af 1846 18b3
00000320: 3733 daa0 d635 0ab6 7242 7330 6117 e1b5
00000330: 783c 6728 0e4b 4d33 3fa1 9a20 a516 511a
00000340: 36d9 2100 ecd4 8ea9 04c0 152e ca31 350e
00000350: 4127 c930 c35a 9426 4d51 0925 4c19 6596
00000360: b74d 2d8c 2309 221d 24bd 342f f2d4 3a90
00000370: f8e7 04a9 8696 5e21 81eb 178b 14f5 b723
00000380: 828a a0b4 3b3c b9ab 9e2d 301f 8f3b 91af
00000390: 0576 afa5 fba3 2011 2856 9b2d 303d eb33
000003a0: 899b d8a8 172a 3db3 3f9b 4634 86d2 9d11
000003b0: 1b62 ebb5 f934 b3ab f4df 0e8f 65c4 a52b
000003c0: 9a2b 9610 b38e 05b6 a6d3 a025 64af bfab
000003d0: 89a7 0635 6fad a835 61fb 0a23 358f 7827
000003e0: 1da5 7513 4073 1634 2ecf d02d ed24 0eb5
000003f0: ae1b ebae fcc3 341d a08a 4f30 5f27 a333
-2.580867e-23 -4.5961667e-07 1.8564189e-10 -1.13921795e-33 -4.755763e-07 1.7444044e-08 -9.14852e-23 5.672911e-18
1.0290287e-16 1.02784735e-16 -3.923321e-22 -2.7867094e-12 -5.3043953e-32 3.826748e-11 2.5053274e-19 -4.8225974e-19
1.3760938e-07 -7.812324e-09 3.828921e-12 -4.7138e-11 1.7568915e-33 3.6639203e-14 4.491687e-08 -1.2395372e-14
1.9546431e-10 -5.333217e-26 1.5316968e-17 1.7814544e-26 3.6780217e-09 -6.7583448e-12 -1.2309135e-09 3.6963114e-32
6.352791e-13 -1.3229814e-17 4.8133348e-11 -1.857611e-34 -2.3555258e-10 2.43078e-15 1.2685372e-09 4.3342962e-07
1.0622937e-09 2.2811768e-32 2.9544762e-31 1.1181127e-23 -6.0380623e-30 -9.041508e-27 -2.4596114e-08 1.4438682e-16
-1.6442101e-08 -2.25965e-09 -2.8649385e-19 -3.2532808e-31 -4.702724e-13 -3.4920603e-07 -8.629684e-28 -3.9596e-10
-1.2470282e-10 -1.8439014e-06 -4.4952505e-12 2.934424e-10 -9.264877e-20 -3.3146702e-10 1.7752124e-11 -1.9864886e-14
9.767768e-37 3.9818235e-22 1.0398333e-09 1.5287561e-38 8.7390017e-38 -1.716019e-19 8.001027e-18 -2.1537172e-08
-2.6770172e-17 -4.921871e-17 1.447271e-07 -2.467008e-12 1.5209865e-26 -2.2943616e-17 9.2873495e-07 3.3368974e-07
-2.2462918e-07 1.9051587e-14 4.3731935e-11 -1.4867491e-18 -9.984101e-11 -8.4104935e-16 4.3018696e-11 -6.238406e-22
-1.324872e-09 -1.9443603e-13 -3.449366e-23 -3.885535e-09 8.2348026e-07 8.1537534e-23 -2.0853029e-06 -5.411844e-29
-4.9758166e-19 6.97847e-10 1.9689164e-09 -2.4647526e-10 9.546104e-20 4.1285915e-24 1.6414758e-08 1.2446048e-21
-5.7597926e-10 3.1062293e-09 7.9462886e-08 -8.161668e-07 1.1265736e-06 9.5665825e-08 -2.4992217e-09 -2.4158646e-09
-2.3060676e-19 2.628658e-15 5.983468e-27 1.0014768e-15 5.8992966e-18 3.8924683e-10 -1.5002376e-08 -2.232137e-36
1.6389913e-09 -1.1706072e-06 -6.0461505e-32 -3.3358226e-15 1.0602768e-11 -9.599417e-12 8.468039e-10 -9.589991e-14
-1.824878e-06 1.5754778e-12 1.0932293e-09 -7.556339e-07 -4.399577e-16 -1.5251234e-10 -7.709373e-07 1.5111518e-17
-4.4661976e-15 7.206895e-14 2.5368494e-21 -5.369991e-08 -7.061829e-08 8.565306e-27 -1.5798927e-16 -3.7975086e-14
-1.1777338e-06 3.835902e-11 4.9973834e-15 1.3357015e-07 4.7761357e-19 -4.8124194e-10 -2.3522242e-17 7.151637e-09
-1.8387176e-07 3.766837e-37 3.2188332e-11 2.0855919e-07 7.73862e-09 -7.481163e-09 -1.3546717e-08 4.756674e-11
-1.5376736e-16 4.930731e-07 2.5343466e-14 5.802364e-18 -1.9060118e-13 8.905704e-31 5.254498e-38 -9.898651e-08
-3.8313162e-29 -2.509161e-11 4.4760684e-23 1.5811591e-12 3.132065e-10 -3.4748365e-07 2.7553362e-08 -3.9930003e-13
-7.693327e-27 6.894707e-09 1.96294e-07 -3.0945363e-13 1.971814e-11 -9.0006256e-07 -1.5351094e-06 -1.6297347e-08
6.5987797e-15 3.6260323e-07 -5.5006178e-12 -3.7502312e-10 -1.467953e-07 1.68539e-15 4.0696326e-36 3.558134e-17
-5.3286712e-11 -5.0628383e-11 -1.7720817e-14 -7.2149645e-28 3.836514e-10 -7.091792e-20 -4.5009785e-10 -3.5454008e-08
-3.6964528e-19 -2.059494e-06 8.849731e-10 -1.677061e-06 1.2836188e-14 4.7798544e-08 2.6195318e-19 4.323848e-23
3.108492e-39 -6.343003e-14 3.4049222e-11 2.2333945e-30 1.4635831e-09 1.0294164e-15 1.1910402e-16 -1.8506455e-25
-1.3350822e-31 2.1445245e-21 1.6438101e-10 -3.684608e-29 -2.951109e-14 7.541574e-19 -2.9258716e-32 1.9944694e-17
-2.99031e-07 -1.3161758e-12 3.7307183e-20 -2.6417665e-10 -3.0437634e-16 1.2672305e-28 1.7659721e-11 1.095417e-07
-2.404827e-14 -4.4043272e-08 1.8496665e-07 2.4899978e-28 -1.7537417e-06 -1.2733418e-12 -7.044272e-30 1.1778466e-12
5.9231747e-29 -1.9901606e-06 2.7898994e-16 -1.3620047e-12 5.0162686e-07 1.2567451e-06 7.5342265e-18 3.4494546e-15
3.1004755e-27 1.4011766e-07 2.3738869e-11 -5.2952856e-07 -1.06914796e-10 2.3924123e-21 7.550316e-10 7.5974405e-08

bias f4 [16]
00000000: 0000 0000 0000 0000 0000 0000 0000 0000
00000010: 0000 0000 0000 0000 0000 0000 0000 0000
00000020: 0000 0000 0000 0000 0000 0000 0000 0000
00000030: 0000 0000 0000 0000 0000 0000 0000 0000
0.0 0.0 0.0 0.0 0.0 0.0 0.0 0.0
0.0 0.0 0.0 0.0 0.0 0.0 0.0 0.0

weight f4 [88, 16]
00000000: 34fa ca2f f58c 9a9a b79e c7b5 0590 2730
00000010: dddf 6bb2 0ff6 4134 1d58 4933 7f55 daa2
00000020: 2a34 46ae b9f0 1434 7868 93a5 40dd 1035
00000030: ee9d 0a1e 5e58 ccac ba24 47aa efd6 02a7
00000040: 7f2b e3b2 6ac4 84b0 4149 f6b5 0965 8a92
00000050: e805 3bb3 4549 c59f 711e 2b9b a812 0629
00000060: 1ca4 c30e 21a4 4eaa e25b 412b 7895 9aa5
00000070: 08a6 d8aa bd36 b3b2 11ad 4915 b769 b130
00000080: c7f2 a09d 6394 b532 9a56 f0a1 fe29 7bb3
00000090: 2a4d 7634 c775 0f35 847d 3a35 a504 7a9b
000000a0: dc75 b733 7149 beb5 a452 d7b3 4702 03b6
000000b0: fe41 98b4 9d49 6aa4 aea0 001a 5957 2122
000000c0: 95dc d3ae 5480 73b4 e2ba 6016 9054 fe96
000000d0: 8c38 5f8d 01d9 6429 b999 f023 d46e 4c9c
000000e0: 8521 4fa9 be86 b732 a215 43b0 7a8d 5918
000000f0: 9144 b2a1 30ad aa05 a21a dc2e e2c6 18a1
00000100: 3632 61b3 cf71 1731 951c b82c 2267 1532
00000110: 50d8 a9a0 a446 59b0 c3cb 6030 0aac ab05
00000120: 146f 87a4 a19e d918 3b39 5cad 024f 9fb2
00000130: 69a7 858b 80b3 c2ae efbf 79a1 a332 5633
00000140: 2c78 412b 238a a586 556b 1b9c a1f3 0fb1
00000150: 6142 2300 a45b 83a0 6a45 9fb5 e637 3d09
00000160: b073 0635 e0b4 14b4 1e1b 732f 47cc 0ab2
00000170: 995e 7a93 a8ca d429 89a3 d412 ff5f df2e
00000180: ebb1 f4b4 2367 eb2f 69b1 bf34 b2ce 2d80
00000190: e04d eb2a e0a6 53a0 63af d532 3817 538b
000001a0: bfee 841d 209d 1eaa 5f00 4933 8f67 e89d
000001b0: 0f54 8d18 ae8d 8a92 9ef4 67b4 6b8e 05b4
000001c0: 362b 6bb4 e05e 71b5 5023 8ba7 60a8 871e
000001d0: 7b9b 37b4 a90c a70e b4ac d0a0 b1e0 a09d
000001e0: f979 6b2a 3c0e fc8f 1fbb 1d14 3317 3a2e
000001f0: 69ad 5dad ecb7 74ad 0463 8bae 29ea 3eaf
00000200: fdac 329f 440e 440c d4ec 0c0f 817a c731
00000210: 1b5b ba28 c08e 641c 333e 26b0 0a07 862e
00000220: 87ad 88af 335c 0c33 1185 64b2 d86e ad2e
00000230: b39c c635 e1c8 0f11 f456 07b1 bf6f 3924
00000240: f22b 89a9 2a8e a2b4 9629 0932 bdaa 1434
00000250: f259 8e2e 6019 57ae e01b c2a1 5773 3f2b
00000260: 2ad6 9528 a207 0930 37eb 60b4 248f ac8b
00000270: 05b2 921c 0a8e 7826 fdae 5234 0a5f f09b
00000280: 7b58 07b0 c203 4cb0 2965 c3b3 3ef2 8832
00000290: 739e 48a8 efac 6c33 9da4 9513 341e dc32
000002a0: fea8 84ac 6bcd 9c33 cf07 0b25 053b 162f
000002b0: 0af7 53ac b1cf d612 defa fe34 6fa7 3dae
000002c0: 67df de35 2cb0 e80f d838 0aa4 50a3 ef99
000002d0: f5a4 4916 2715 182c d328 469e 2685 471e
000002e0: 0f77 2d17 ce77 1312 cdbf db2f 7031 0405
000002f0: 669e 3f32 9741 5591 ea9a 1286 864d 59a9
00000300: 33f2 b4ac 17ce 56a8 e334 6f8c e879 ee0f
00000310: fdb6 6f22 17ca 9312 a71b b12a ae3a aa9e
00000320: b76a d635 5d23 b7a6 3bcb 06b2 c063 3433
00000330: 7612 fc31 af28 76a3 401f 4db2 4317 1a25
00000340: df7c 7f02 7955 b21f 1af9 d72a 6b9f 04b2
00000350: 26df 38b2 e82d 3f23 afaf ba1f 7c7f 8135
00000360: cc67 0aa0 4ef6 7cb2 1eb3 27b0 b8e7 ea32
00000370: d4d8 9db5 e7a4 4e0e dffe dd26 1398 f88f
00000380: f064 ac00 c2b3 a22a d927 058f b91d 9932
00000390: ac68 5caa 784e a7b3 7e31 dd31 b449 19aa
000003a0: 01df 78b0 6586 4587 d28e 0ba2 8094 c82f
000003b0: 35a0 e629 5c90 d226 207c f391 f734 5c31
000003c0: 4cb5 33a7 a60a f918 c0de 801d 67e7 a5aa
000003d0: 7fe8 452f 8193 a12c 0060 eea8 7b08 2ab5
000003e0: 5671 bd83 c3b9 ea24 92e5 c9a4 2913 f289
000003f0: cf55 c226 40d2 ca8e dde6 cfac 7f73 118f
3.6921366e-10 -6.3920636e-23 -1.4872847e-06 6.095891e-10 -1.3729701e-08 1.8064041e-07 4.6879098e-08 -5.917954e-18
-4.506632e-11 1.3871148e-07 -2.5571226e-16 5.396614e-07 7.338318e-21 -5.8078395e-12 -1.7687493e-13 -1.815764e-15
-2.6446058e-08 -9.660088e-10 -1.8349748e-06 -8.7339315e-28 -4.3544702e-08 -8.355396e-20 -1.4154625e-22 2.977016e-14
4.8229243e-30 -1.8353419e-13 6.8694887e-13 -2.6816025e-16 -3.8484515e-13 -2.0863235e-08 4.0728152e-26 1.2908491e-09
-4.2602673e-21 2.1138652e-08 -1.6285956e-18 -5.8478683e-08 2.2938607e-07 5.344304e-07 6.947305e-07 -2.0681016e-22
8.54304e-08 -1.4177477e-06 -1.002675e-07 -1.9521847e-06 -2.8360222e-07 -5.0803015e-17 2.6599576e-23 2.186581e-18
-9.634352e-11 -2.2677824e-07 1.8153546e-25 -4.108928e-25 -6.8785246e-31 5.081439e-14 2.6085956e-17 -6.764118e-22
-4.5992307e-14 2.1365278e-08 -7.097133e-10 2.811802e-24 -1.2079899e-18 1.6050342e-35 1.0009173e-10 -5.176282e-19
-5.243256e-08 2.2038085e-09 5.2327678e-12 8.696391e-09 -2.8772857e-19 -7.9044526e-10 8.178029e-10 1.614396e-35
-5.873509e-17 5.625336e-24 -1.251826e-11 -1.8545965e-08 -5.148163e-32 -8.853984e-11 -8.4618504e-19 4.987181e-08
6.8734146e-13 -6.2269075e-35 -5.142392e-22 -2.0947726e-09 3.238055e-39 -2.2252906e-19 -1.1866625e-06 2.277633e-33
5.008724e-07 -1.3849376e-07 2.2110355e-10 -8.0791045e-09 -3.1601076e-27 9.4498465e-14 1.3419395e-27 1.0157918e-10
-4.5577994e-07 4.2819534e-10 3.5705605e-07 -4.206746e-39 4.1798422e-13 -1.792761e-19 2.487622e-08 -4.065459e-32
3.5186967e-21 -1.4087733e-13 4.6799297e-08 -6.1516966e-21 3.6532523e-24 -8.743951e-28 -2.1602543e-07 -1.2438402e-07
-2.19018e-07 -8.991756e-07 -3.8618536e-15 1.436332e-20 -1.7099767e-07 4.118087e-30 -3.5350856e-19 -4.2583973e-21
2.091451e-13 -2.4854601e-29 7.9633775e-27 4.231211e-11 -1.26009e-11 -1.3910633e-11 -6.338577e-11 -1.736359e-10
-3.783606e-20 1.5103584e-31 6.948144e-30 5.8055893e-09 2.0689659e-14 7.562337e-22 -6.047884e-10 6.094865e-11
-2.4861554e-10 3.2680145e-08 -1.33016025e-08 7.886819e-11 1.4797755e-06 1.1342612e-28 -1.9694513e-09 4.0210133e-17
-6.0916455e-14 -3.027829e-07 7.983905e-09 1.3845688e-07 6.47339e-11 -4.8907878e-11 -1.315333e-18 6.80169e-13
1.6635202e-14 4.9851157e-10 -2.0947196e-07 -6.6467364e-32 9.707487e-22 8.6234783e-16 1.9621434e-07 -3.9766087e-22
-4.923845e-10 -7.422011e-10 -9.098796e-08 1.5942643e-08 -1.11365884e-14 5.5105314e-08 3.777521e-27 2.5625106e-08
-3.7704275e-12 7.3016814e-08 1.2058974e-16 1.3663388e-10 -3.0122038e-12 1.3556499e-27 4.7493717e-07 -4.3122336e-11
1.6605308e-06 2.2944825e-29 -2.997213e-17 -2.4777982e-23 1.6288702e-25 2.161224e-12 -1.0490475e-20 1.0562507e-20
5.604959e-25 4.653269e-28 3.997215e-10 6.2156904e-36 1.1153679e-08 -1.6822949e-28 -2.757336e-35 -4.825092e-14
-5.142797e-12 -1.1924075e-14 -1.8427805e-31 2.3515569e-29 3.2487413e-18 9.326823e-28 3.1460704e-13 -1.802372e-20
1.5975301e-06 -1.2707761e-15 -7.846036e-09 4.2000238e-08 7.336264e-09 -1.3344302e-17 -1.1939676e-08 1.3365252e-16
1.8770277e-37 7.5527335e-20 3.836452e-13 -7.719659e-09 -1.0760948e-08 1.0363852e-17 7.906471e-20 9.648352e-07
-1.1723398e-19 -1.4724334e-08 -6.1008787e-10 2.7346559e-08 -1.1760517e-06 2.5470858e-30 1.5404038e-15 -2.4513265e-29
1.5831915e-38 2.8901713e-13 -6.565081e-30 1.782506e-08 -1.957624e-13 -7.790817e-08 6.437573e-09 -1.3614701e-13
-9.053878e-10 -1.4860128e-34 -1.8913621e-18 3.6485304e-10 1.0241843e-13 1.4610806e-15 -3.8415138e-28 3.204432e-09
-2.4939521e-15 6.4375744e-24 3.4111636e-21 -2.9470455e-13 1.7999645e-10 4.5922714e-12 -2.6464941e-14 -6.3342276e-07
-1.1134442e-36 1.01796016e-16 -8.755876e-17 -5.82774e-33 1.3484713e-15 -4.9999308e-30 -5.908925e-12 -7.171296e-30

bias f4 [88]
00000000: 53d5 33ad 5631 1ab1 d718 1335 b516 fb35
00000010: d03c b80a 6903 0834 b826 e422 1d13 05b6
00000020: 7da0 cca1 1473 ef33 df00 ffb5 94fe 259c
00000030: 4891 182a 3099 4e0d 109f c3a9 af87 f634
00000040: 37a4 21af 6529 a2b2 5ece 3d9b 3772 732e
00000050: d22c 10b0 d0be cf27 9d0e ac1e cd49 7fb4
00000060: 505c e730 876f 8527 cb65 02b4 45ba d832
00000070: b949 d2b0 9f6f 8631 1024 e435 62e2 292a
00000080: 4b6f b91b ff6f a314 2d72 06b5 ea01 b424
00000090: b6f4 4435 243e a3b0 9367 dbb4 55fd 01b4
000000a0: f6fc d6a3 58e5 7c29 3833 e492 4108 b489
000000b0: 6b10 632f 5bb1 3e24 4607 b9b5 6c16 0703
000000c0: b20f 67ae 1cd9 9c85 2ba2 b3a1 031a 112e
000000d0: aa71 7233 e3d4 f597 2c94 8623 9992 aaa0
000000e0: 5d35 7c24 d27b 8ba9 b138 5c1b 9fdb 44b1
000000f0: cbd7 adac ba8e 07aa 401a eeab ceaf ee07
00000100: c238 ae31 3bd5 4da2 cff2 f234 d6ab 6c33
00000110: 8644 08b6 0794 b8a1 c5ab 22a6 2a9b 0814
00000120: 3e77 c79d 40d0 9ab4 971b 8e2b d15d f326
00000130: 66e6 7009 e012 3181 48da 5719 2cac adb3
00000140: d0e9 3435 84cb cf81 1c03 3e8f 0394 091d
00000150: 0bd2 fb9b 6d61 a6a5 66a1 d2b2 3753 b4ac
-1.02223395e-11 -2.2437994e-09 5.4797914e-07 1.8707566e-06 1.774143e-32 1.2667228e-07 6.184052e-18 -1.982967e-06
-1.3866059e-18 1.11502374e-07 -1.8999234e-06 -5.4922955e-22 1.3550717e-13 6.3663044e-31 -8.6873325e-14 4.5919793e-07
-1.4701206e-10 -1.8878106e-08 -1.5700394e-22 5.5353246e-11 -5.245059e-10 5.766092e-15 1.8217252e-20 -2.3775574e-07
1.6833699e-09 3.7035834e-15 -1.2144226e-07 2.5230415e-08 -1.5300464e-09 3.912603e-09 1.6997819e-06 1.5088758e-13
3.0677604e-22 1.6502969e-26 -5.008504e-07 7.80658e-17 7.337179e-07 -1.1877472e-09 -4.086729e-07 -1.2106223e-07
-2.330906e-17 5.6154164e-14 -1.4401449e-27 -4.3341186e-33 2.0651363e-10 4.134991e-17 -1.3785691e-06 3.9698673e-37
-5.253726e-11 -1.4749923e-35 -1.2172437e-18 3.2992286e-11 5.6448393e-08 -1.5886494e-24 1.4591062e-17 -2.889613e-19
5.468899e-17 -6.1943194e-14 1.8216291e-22 -2.8646594e-09 -4.9409136e-12 -1.2039927e-13 -1.6918203e-12 3.5913589e-34
5.070519e-09 -2.7895564e-18 4.525268e-07 5.5104316e-08 -2.0305465e-06 -1.2507507e-18 -5.643783e-16 6.896846e-27
-5.2798155e-21 -2.8836257e-07 1.0097365e-12 1.6886941e-15 2.8997282e-33 -3.2523308e-38 1.1159321e-23 -8.087258e-08
6.739547e-07 -7.633182e-38 -9.368322e-30 1.820832e-21 -4.1660204e-22 -2.8862428e-16 -2.4520613e-08 -5.1251464e-12

weight f4 [16, 88]
00000000: 8204 ac80 ea03 f423 67b9 1f8f 0ae4 10a4
00000010: 4251 760d 2094 41a2 bc26 e31e 4464 94a6
00000020: 385a f91d 53cb 9ca6 a788 9295 21ec 609d
00000030: dfbb 1a14 b236 e617 188a 3613 49b4 b622
00000040: a62a ab05 5516 a68b ace1 5399 6a8b 71a5
00000050: 902f 448e 1ce2 8e22 9694 dd9c 5b57 6685
00000060: bfe4 7321 0d72 d494 c97c 7096 e7e9 4808
00000070: 72d4 b98c 739a 3521 74b0 d09d 8e01 780e
00000080: 9be8 f31a 0e64 1921 eaa0 b2a3 9b72 8095
00000090: de41 16a5 a0c7 8603 0c78 0fa7 681d aca3
000000a0: ded2 82a7 e26e d813 f498 961f 92cd 10a3
000000b0: d268 e212 0352 0299 f4a0 1313 cb38 0e95
000000c0: f602 0120 32c2 c71e dcbb eba2 f5f5 b89b
000000d0: 5e97 5c9e 41ab a624 2358 3883 709c d38d
000000e0: 5247 3387 cca9 ba8f ec92 9a01 60d5 0420
000000f0: 20ea 941f f287 fc96 cd2c e78b 9503 66a3
00000100: cb4e f31d 4f8b 3aa2 0eaa 539d a927 0b18
00000110: cfa1 a11e 676f ad11 0dac 6b26 db11 261b
00000120: 5620 6120 4baa 5e1a cc32 321c 99d2 7427
00000130: 85c2 2c85 0ea2 959e ac4a 329c e886 3213
00000140: f428 2325 8ee5 2d0e ba50 5692 88f0 c2a5
00000150: 96ce f5a6 863e 4622 f06f 151a 480b d022
00000160: ba46 831a a6d9 cb1f 0e69 ec99 2ab0 db9a
00000170: f341 fd20 dcfc 7d00 d23e 930f 2b3b fe8d
00000180: d981 c597 9d3f 8c07 b00e 1f1d eeb2 1b9a
00000190: 4379 db8d d923 081e fc42 e985 e25c 4f10
000001a0: 7974 c3a1 aaad 2201 0057 960b 221c a29c
000001b0: 269c a587 4b11 cca4 20c2 430f 8717 2317
000001c0: 1343 b612 79d9 3096 ac51 4d9a 6489 5307
000001d0: 1a27 b799 a22d db07 a15e 4021 2400 2721
000001e0: 9274 4d0e 842c cf11 6274 5b03 b4e4 9215
000001f0: 1a12 8326 10ce 2b16 263b e222 aa9f 4625
00000200: 8839 1623 0cc4 f111 3cc2 29a6 e859 1611
00000210: 5867 a8a3 6474 18a2 f0d0 4fa2 22b6 bc97
00000220: 6f63 648b 2f84 0c20 ff17 ce17 ee94 de87
00000230: f374 d326 ef9b fc23 5c76 9b24 7d96 8120
00000240: cb22 2f02 4ff9 c09f 41b2 de23 f2af 2616
00000250: 0d2a 7a0e 6dd5 d016 e13a 8917 67db 1ea3
00000260: 62dd 321f 4e92 a316 edcb 3b27 6541 51a4
00000270: 7c38 5411 9019 108c 3798 748b fb59 8519
00000280: 5437 eb1b b45a c616 1b91 7586 2aa4 3ca6
00000290: d054 2290 55f3 0a9a 539f a81a 031b fda1
000002a0: 4be4 4405 bfce 9c20 1773 0413 9f48 8c9c
000002b0: cd14 5f1d 2507 af94 c00f b126 e316 8e12
000002c0: 7315 3e94 a998 2b23 cf17 41a6 d56a 21a0
000002d0: 06b1 c693 1c06 4a26 5843 c59d 7e28 ac13
000002e0: c589 1901 5385 7c1f 41dd da86 7fd6 6197
000002f0: 4d95 d016 05a4 b020 e035 1d95 fc1c e194
00000300: 99eb 2a8d b42b 01a0 f7aa 3f12 2d02 1e97
00000310: 98ce 6911 10ac d21e d7fc 4a8d d801 b324
00000320: 4913 318c 6fdf a208 c0d6 04a1 e3c6 9707
00000330: 4510 d219 45b8 2ca5 b1bf 5292 3ec0 109e
00000340: a5f1 7615 57d3 b6a5 1923 c71d f1d1 c79d
00000350: 897d b61c 1767 a71b cfd3 2020 09d5 8927
00000360: 7cfc 7004 7c7a 8203 c785 3992 f131 1300
00000370: 0e57 7c98 61e0 a711 dd92 83a2 245b 8ca4
00000380: c013 059b 4606 5c9c ed64 bc1a 60cb 48a1
00000390: 8266 f982 2550 8826 1614 0c89 0f52 951a
000003a0: e506 7a21 d341 b090 bbf5 8826 65c4 1900
000003b0: bbb0 4d80 b95c c784 aba2 a712 99f9 300a
000003c0: d9db bb21 9d67 2d8f a3db e098 0406 f51a
000003d0: 5ed4 300e 72e2 1304 80e6 ea1c 5adb 3b97
000003e0: c464 f410 1f57 b012 5288 b30f a654 0498
000003f0: ce13 219a 38e6 9e8c af3c 9b25 7ad9 2387
-1.5797322e-38 2.645619e-17 -7.8750124e-30 -3.141818e-17 7.5902413e-31 -2.6234794e-18 2.405058e-20 -1.029674e-15
6.6003035e-21 -1.0879786e-15 -5.918453e-26 -2.9768229e-21 7.812064e-27 1.4877209e-24 2.3039715e-27 4.9522083e-18
1.6096429e-35 -6.3974476e-32 -1.09540184e-23 -2.0950653e-16 -2.4181766e-30 3.872858e-18 -1.4662962e-21 -1.0830593e-35
8.2634345e-19 -2.1451515e-26 -1.9426421e-25 6.046026e-34 -2.8631624e-31 6.1529597e-19 -5.523959e-21 3.0569109e-30
1.0087824e-22 5.197084e-19 -1.9366948e-17 -5.1879604e-26 -1.3032743e-16 7.921644e-37 -1.9910314e-15 -1.8660731e-17
-3.631087e-15 5.4635405e-27 6.378051e-20 -7.849787e-18 1.4288445e-27 -6.737405e-24 1.8633365e-27 -2.8721473e-26
1.0927705e-19 2.1150262e-20 -6.389578e-18 -3.0599193e-22 -1.1678005e-20 7.228114e-17 -5.4173916e-37 -1.304154e-30
-1.3487422e-34 -1.840642e-29 5.678149e-38 1.1251435e-19 6.3067765e-20 -4.079859e-25 -8.904537e-32 -1.24690835e-17
6.4403034e-21 -2.528145e-18 -2.8013534e-21 1.7985352e-24 1.711346e-20 2.7363244e-28 8.1765176e-16 1.3736968e-22
1.906894e-19 4.6046086e-23 5.8960913e-22 3.3975967e-15 -8.123129e-36 -1.5843013e-20 -5.899177e-22 2.2533272e-27
1.4151872e-16 2.1434423e-30 -6.7625997e-28 -3.3816626e-16 -1.7056285e-15 2.6867103e-18 3.09029e-23 5.6390457e-18
5.4294595e-23 8.6333913e-20 -2.444426e-23 -9.0860885e-23 4.2903509e-19 1.1570146e-38 1.4519517e-29 -1.5668203e-30
-1.2763605e-24 2.1102247e-34 2.1051068e-21 -3.2197787e-23 -1.352611e-30 7.207193e-21 -2.1935821e-35 4.0895106e-29
-1.3244544e-18 2.98793e-38 5.79088e-32 -1.0727533e-21 -2.4918216e-34 -8.850019e-17 9.6516294e-30 5.2697836e-25
1.150235e-27 -1.4285789e-25 -4.245898e-23 1.5914251e-34 -1.893755e-23 3.2978278e-34 6.517737e-19 5.6581987e-19
2.5324327e-30 3.2686276e-28 6.4491917e-37 5.932976e-26 9.094857e-16 1.3878292e-25 6.132005e-18 1.7227859e-16
8.143699e-18 3.814392e-28 -5.889689e-16 1.1860618e-28 -1.8258364e-17 -2.0661458e-18 -2.8164342e-18 -1.2195192e-24
-4.3986008e-32 1.1902197e-19 1.3318495e-24 -3.349038e-34 1.4672765e-15 2.7387935e-17 6.742104e-17 2.1953035e-19
1.2866955e-37 -8.172761e-20 2.4144782e-17 1.3464892e-25 3.0835126e-30 3.3738903e-25 8.868281e-25 -8.6116574e-18
3.787609e-20 2.6426402e-25 2.6062012e-15 -4.5375042e-17 1.6741257e-28 -1.1101049e-31 -4.7107204e-32 1.378822e-23
3.8913244e-22 3.2045867e-25 -4.6185985e-35 -6.5448086e-16 -3.2014204e-29 -2.8734293e-23 6.9740574e-23 -1.7151097e-18
9.2578065e-36 2.656424e-19 1.6717486e-27 -9.283195e-22 2.9524558e-21 -1.7673302e-26 1.2286111e-15 8.967102e-28
-9.596779e-27 9.302256e-18 -6.6992593e-16 -1.3672578e-19 -5.0156786e-27 7.009111e-16 -5.2215098e-21 4.3458833e-27
2.8200507e-38 5.347336e-20 -8.232759e-35 -7.2972153e-25 3.3698434e-25 2.99241e-19 -3.1748397e-26 -2.2730626e-26
-5.2668885e-31 -1.0941185e-19 6.0479704e-28 -5.10553e-25 1.8444121e-28 2.2305778e-20 -6.25504e-31 7.7632e-17
-1.3641387e-31 9.802549e-34 -4.500756e-19 2.283685e-34 2.1720062e-23 -1.4981055e-16 -6.6500594e-28 -7.663051e-21
4.9869928e-26 -3.1715177e-16 5.271115e-21 -5.2891936e-21 1.20762e-21 2.7694453e-22 1.3622609e-19 3.825611e-15
2.83278e-36 7.668834e-37 -5.85406e-28 1.76279e-39 -3.2614188e-24 2.6486238e-28 -3.566312e-18 -6.086972e-17
-1.1007884e-22 -7.28e-22 7.791803e-23 -6.80318e-19 -3.6646098e-37 9.458619e-16 -1.6861331e-33 6.175753e-23
8.471242e-19 -6.952118e-29 9.503501e-16 2.36634e-39 -7.134732e-39 -4.6869827e-36 1.0579282e-27 8.521036e-33
1.2729806e-18 -8.549514e-30 -5.812442e-24 1.01339344e-22 2.1795926e-30 1.7383746e-36 1.5544404e-21 -6.069982e-25
9.6396284e-29 1.1128639e-27 1.7703271e-29 -1.7103337e-24 -3.3310018e-23 -2.4482312e-31 2.6929335e-16 -1.2326668e-34

bias f4 [16]
00000000: 6126 01a6 e470 b91a 434e e50e 5b85 280f
00000010: b250 bfa6 fed7 1821 5162 391b 03da 0d9d
00000020: ca39 e605 72a4 5098 10c8 021e 21b0 ef86
00000030: 7dcd 7883 b5f5 9213 6f88 579f 5eca ec9e
-4.480788e-16 7.669659e-23 5.652822e-30 8.308723e-30 -1.327516e-15 5.1785466e-19 1.5334609e-22 -1.8773904e-21
2.1650324e-35 -2.6966394e-24 6.923515e-21 -9.0160606e-35 -7.311654e-37 3.7097867e-27 -4.5640876e-20 -2.5071169e-20

weight f4 [16]
00000000: 4dc3 ba3e 4dc3 ba3e 4dc3 ba3e 4dc3 ba3e
00000010: 4dc3 ba3e 4dc3 ba3e 4dc3 ba3e 4dc3 ba3e
00000020: 4dc3 ba3e 4dc3 ba3e 4dc3 ba3e 4dc3 ba3e
00000030: 4dc3 ba3e 4dc3 ba3e 4dc3 ba3e 4dc3 ba3e
0.36477128 0.36477128 0.36477128 0.36477128 0.36477128 0.36477128 0.36477128 0.36477128
0.36477128 0.36477128 0.36477128 0.36477128 0.36477128 0.36477128 0.36477128 0.36477128

bias f4 [16]
00000000: 0000 0000 0000 0000 0000 0000 0000 0000
00000010: 0000 0000 0000 0000 0000 0000 0000 0000
00000020: 0000 0000 0000 0000 0000 0000 0000 0000
00000030: 0000 0000 0000 0000 0000 0000 0000 0000
0.0 0.0 0.0 0.0 0.0 0.0 0.0 0.0
0.0 0.0 0.0 0.0 0.0 0.0 0.0 0.0

weight f4 [16]
00000000: 4dc3 ba3e 4dc3 ba3e 4dc3 ba3e 4dc3 ba3e
00000010: 4dc3 ba3e 4dc3 ba3e 4dc3 ba3e 4dc3 ba3e
00000020: 4dc3 ba3e 4dc3 ba3e 4dc3 ba3e 4dc3 ba3e
00000030: 4dc3 ba3e 4dc3 ba3e 4dc3 ba3e 4dc3 ba3e
0.36477128 0.36477128 0.36477128 0.36477128 0.36477128 0.36477128 0.36477128 0.36477128
0.36477128 0.36477128 0.36477128 0.36477128 0.36477128 0.36477128 0.36477128 0.36477128

bias f4 [16]
00000000: 0000 0000 0000 0000 0000 0000 0000 0000
00000010: 0000 0000 0000 0000 0000 0000 0000 0000
00000020: 0000 0000 0000 0000 0000 0000 0000 0000
00000030: 0000 0000 0000 0000 0000 0000 0000 0000
0.0 0.0 0.0 0.0 0.0 0.0 0.0 0.0
0.0 0.0 0.0 0.0 0.0 0.0 0.0 0.0

in_proj_weight f4 [48, 16]
00000000: eade 2bbe cd83 103d 8738 ccbc 3216 84be
00000010: 4bcf 82be 9b00 9d3d bc86 f23d 9c73 debd
00000020: 5015 eb3d 3621 7a3e 3bca 66be 56bf 67be
00000030: cdf4 a03e 29b2 aebd 4ddc 6bbe ad82 713d
00000040: 0c8e 93be d2b0 723e b43e 713e 1d19 a03d
00000050: 165d 1cbe 4c78 48be f05b 523e ad12 353e
00000060: c219 8cbd d51e f2bd f5ee 3ebd 6312 90be
00000070: 8954 0cbe a3c6 88bc 2669 043e 6bf5 cc3d
00000080: 4e64 65bd 3676 e9bd 7eb9 68be 38f7 b33d
00000090: bfa8 51be 744b a8bc 26d8 84bd 2a5f 41be
000000a0: 8eed e73d 79a5 463e b3d8 8c3e 51dd a13e
000000b0: b916 183d a2a0 7abe 0dd9 363d c2ea 843e
000000c0: b83b efbd b85d c53d dd35 e73d d3c8 7c3e
000000d0: 6bd5 8b3e 555c 7bbd 5333 88be 8df8 623e
000000e0: e937 983e b026 39bb 71de c03d 0e48 97be
000000f0: 194a 9fbd 577a 64be 3dcd 623e 76db 51be
00000100: f27d 213e 800e 6abe 1c12 973e c4a8 aa3c
00000110: 3e45 1c3d 1521 5abe 62d9 de3d 02c3 1ebe
00000120: 8ef1 34be 40ce 7b3e fb24 5dbe 6d72 a23e
00000130: ada8 ea3d 4d2a 58bd eef6 e83d e601 8f3e
00000140: a2a3 1f3d bfed da3d 20ba 303d 9da0 82be
00000150: b49e 103e 9f21 c9bc 0c9f 50be e0df 923e
00000160: 40e2 c63e fa71 84be 2b51 203b 089d 1f3e
00000170: 7208 f23d 5221 0dbe 1c4d 993e a638 77be
00000180: a968 013e fc71 e9bd fe93 df3c 037c db3d
00000190: fc27 693d b0c0 fb3c cbdc 683e 890c 113e
000001a0: 33d8 22bd 39d3 3dbe 3683 cabd 82fe 973e
000001b0: 8f6d d5bc 5b17 8d3e 7cc8 adbe 7397 413a
000001c0: de94 2fbe 4b3d a73d 7f1e 9c3e 46da e1bd
000001d0: 63c6 4dbd ae2c 063e d576 963e ef4b 9c3d
000001e0: 2f94 2fbe 63ee 4cbe aa9b 2ebe 882e 12bd
000001f0: 61a7 9c3e 3edb f2bd 4568 7a3e 69de c8bb
00000200: 0842 643d 6569 543e 3ce5 3c3e f6a3 953c
00000210: cc72 0d3e 9ec6 fbbd 2fba 17be 7ac3 a73d
00000220: f3ed 4d3e 3139 9d3e 4487 8dbd f1c6 963e
00000230: 8c67 5d3e 4fc8 363e 4c02 8d3d e660 f83d
00000240: 13a9 713e a08e 903e 4161 1b3d 45a2 95be
00000250: 0a5a a1be 33e2 da3d f828 db3c bfde 38be
00000260: b1cf a63e f376 40bd e723 61be b48c b43d
00000270: 053c 4e3e bce1 b83d ede1 1a3e aafc b23e
00000280: ac3a 823e a470 9cbd 8ad1 a9be b313 a73d
00000290: 27e3 06be fe44 363c e965 c63d 3034 1b3e
000002a0: 07b1 c83d 8534 373e 7991 763e 18b7 40be
000002b0: bc5b 8ebe 382e 94be 99df 133c 5afd 713d
000002c0: 6f35 0d3e 8c1b d73c 3b6b 14be c768 2dbe
000002d0: 1d63 e4bd 8207 33be 991c 303e e3f5 7bbe
000002e0: a9ef 81bd ade9 cd3d abc4 0d3d ed84 84be
000002f0: c685 6dbe 0a93 3b3e dd39 f3bd 1b13 17be
00000300: 11ed aabe 3a13 2ebe f7c2 343e 6e4b ea3d
00000310: 259e c73d 4eb5 71be fcad 173e 6ef4 3d3e
00000320: baa8 9ebd 49c9 91be f04e 82be 8494 793c
00000330: edcd 873e f2ee 833e 9380 3a3d 6336 30be
00000340: 31c3 a43e 7fc8 56be ccf7 903d 25b0 10be
00000350: 3878 163e cd30 9b3d 6437 003e b303 7bbe
00000360: badc 953e e177 cb3d bfda 8e3e fc8e 623e
00000370: 788d 6d3d c48e 7b3e 9e9f 373e 5e22 10be
00000380: 7ab2 ea3d 5541 943e d49a 563d 8184 cc3d
00000390: 2c94 01be 3cb0 433e faa4 10bd 546c cc3c
000003a0: 152c 1d3e 8948 833e 5c50 103e 414c 8a3e
000003b0: a91d a53e 7946 94be 5321 bfbd 23bc 7abe
000003c0: 17d9 41bd 8040 59be 236b 87be b7e1 763e
000003d0: a40f 86be 1dfe 82be 5991 323e f4c0 9d3d
000003e0: b060 003d 3e45 123d 5643 7f3d 19b5 8ebe
000003f0: 6525 d6bd 96a1 abbe d68f 74bd 12b2 75be
-0.16784254 0.035281945 -0.024929298 -0.25798184 -0.25548777 0.07666131 0.11842105 -0.108618945
0.114786744 0.24426731 -0.22538082 -0.22631583 0.31436768 -0.08530075 -0.23033257 0.058962513
-0.2881931 0.23700264 0.23559076 0.0781729 -0.15269884 -0.1957714 0.20542884 0.17682905
-0.068408504 -0.11822287 -0.046614606 -0.28139028 -0.13704123 -0.01669628 0.12930736 0.10007747
-0.05600386 -0.113995 -0.2272701 0.087873876 -0.20474528 -0.020543791 -0.064865395 -0.18883958
0.11324607 0.1939906 0.27509078 0.31614164 0.037131045 -0.24475339 0.04464059 0.25960356
-0.11681312 0.09637016 0.112895705 0.24685983 0.27311262 -0.06136735 -0.26601657 0.22165127
0.29730156 -0.002825182 0.09417427 -0.2954716 -0.07777805 -0.22312294 0.22148605 -0.20493874
0.157707 -0.22857094 0.29506004 0.020832427 0.038151972 -0.21301682 0.10881306 -0.15504077
-0.17670271 0.24590397 -0.21596138 0.31727925 0.114579536 -0.052774716 0.11375223 0.27931136
0.03897441 0.10689878 0.043146253 -0.25513163 0.1412304 -0.024552165 -0.20373172 0.28686428
0.3884449 -0.25868207 0.0024462442 0.15587246 0.11818017 -0.13782242 0.29941642 -0.24142703
0.12637581 -0.11398694 0.027292248 0.10717013 0.056922898 0.030731529 0.22740476 0.14164938
-0.039756965 -0.18537606 -0.09888308 0.29686362 -0.026053218 0.2755688 -0.3394202 0.00073849334
-0.17146632 0.081659876 0.30492017 -0.110279605 -0.050238024 0.13102981 0.29387537 0.07631671
-0.17146371 -0.20012812 -0.17051569 -0.035688907 0.3059645 -0.118582234 0.24453838 -0.006130029
0.055727035 0.2074333 0.18446821 0.01826666 0.13813323 -0.122937426 -0.14817117 0.08191581
0.20110302 0.30707696 -0.069105655 0.29448655 0.21621531 0.17849849 0.06885204 0.12127857
0.23599653 0.28233814 0.037934545 -0.29225364 -0.31514007 0.10687675 0.026752934 -0.18053721
0.3258033 -0.04698844 -0.21986352 0.088158995 0.20140083 0.090274304 0.15125246 0.34958392
0.25435388 -0.07638672 -0.33167678 0.08158054 -0.13172589 0.011124847 0.096874066 0.15156627
0.0979939 0.17891128 0.24078931 -0.18819845 -0.27804363 -0.28941512 0.009025478 0.059079506
0.13789915 0.026258253 -0.1449403 -0.169345 -0.11151717 -0.17483333 0.17198409 -0.24605517
-0.0634454 0.10054336 0.034611385 -0.25882664 -0.23195562 0.1831781 -0.11876271 -0.14753382
-0.33383992 -0.16999522 0.17652498 0.11440168 0.097469606 -0.23604318 0.14812464 0.18550274
-0.07747026 -0.2847388 -0.2545085 0.015233163 0.26524296 0.25768238 0.045532774 -0.17208247
0.3218017 -0.2097492 0.070785135 -0.14129694 0.14694297 0.075776674 0.1252113 -0.2451313
0.29269964 0.099349745 0.27901265 0.22124857 0.057996243 0.2456618 0.17931983 -0.1407561
0.11459823 0.28956094 0.05239375 0.099862106 -0.1265418 0.19110197 -0.035313584 0.024953999
0.15348847 0.25641277 0.14093155 0.27011302 0.3224919 -0.28960016 -0.09332528 -0.24485831
-0.047326174 -0.21216011 -0.26448926 0.24109541 -0.26183808 -0.25584498 0.17438258 0.077028185
0.03134221 0.035710566 0.062320076 -0.27872542 -0.10456351 -0.33521718 -0.059707485 -0.2399371

in_proj_bias f4 [48]
00000000: e46e f4bc c50e 27bd e48c 533d a233 a83b
00000010: 4ba1 1d3d d5a5 a4bc d202 873d 5210 323d
00000020: 93cc 32bd c2a2 71bc 3634 bbbb d590 08bd
00000030: f168 10bd 92b1 a4bc abbd 4e3c 0d58 183d
00000040: 2b94 c537 8f1f 9cb6 886d cc35 e141 12b7
00000050: 9888 9937 903b 6137 a39b 23b7 4184 5fb7
00000060: 064a 9335 25c6 0a37 f0a8 b436 0223 1937
00000070: 3d6a 1837 bfda c436 a960 6d37 7f53 e7b5
00000080: aa2b da3b 223b 5dbc 4912 1bbc f49c 31bc
00000090: 398b 9dbc c6b4 97bb bd65 5a3c f86e 10bc
000000a0: d5cd 4e3b 8507 46bc eb8a 08bc 2eb6 ffb9
000000b0: b0c4 a63b 26d3 ce3b 0cb6 fabb 0f4b 90bb
-0.029838033 -0.04078557 0.051648036 0.0051331082 0.0384839 -0.020098606 0.06592335 0.043472596
-0.04365213 -0.014748277 -0.005713011 -0.033341248 -0.03525633 -0.020104203 0.012618463 0.037193347
2.3553226e-05 -4.652836e-06 1.5231062e-06 -8.717617e-06 1.8302628e-05 1.3424913e-05 -9.751794e-06 -1.3322629e-05
1.0973897e-06 8.271575e-06 5.384085e-06 9.1276615e-06 9.0846415e-06 5.8667206e-06 1.4148806e-05 -1.7235142e-06
0.006658037 -0.013502868 -0.009464809 -0.010840643 -0.019231426 -0.004629704 0.01332992 -0.0088155195
0.003155579 -0.012086754 -0.008333902 -0.00048773125 0.005089365 0.006311792 -0.007651096 -0.004403479
