RNAModXApp/model/multi-class-type-UT.pt (torch, 34844 bytes, 39 tensors)

weight f4 [94, 8]
00000000: 205d b4bf c0da 953f 2ccf adbe 58ec b03f
00000010: e6e2 20bf 082d bebf a3f3 44bf 4a37 ad3d
00000020: 361f 31bf 898e 46bf f3d8 62be 453f 77bf
00000030: 1fee 693f e7dc a43e 93c0 533f da07 873f
00000040: c4db 993f 51df 893f 9304 8c3f cf2a cf3e
00000050: 5b95 a33e a26b 783f 1ee2 70bf 135c 93bd
00000060: 394b 15bf dfb7 34be abe2 59be f7e6 5fbf
00000070: c5e4 af3f c2bd b13f ff60 af3f 1423 12bf
00000080: ab2b e83b 02db c03f 9acf 573f 88d3 bf3f
00000090: f8f0 32bc 3916 903e 4985 0340 c300 b33f
000000a0: 2faa 3d3e 1811 18bf 92a5 2ebe b640 cabd
000000b0: 6eab 1f3f b20d 6fbf 39d6 583f aa70 aabf
000000c0: 90cd 90bc 5152 e93e 8975 bebf 8bd5 d43e
000000d0: 15ed 863f 19bd 02bf 3075 7d3f 6e9c d9be
000000e0: 0fbf b73d 7823 d6bf 6c8a 80bd 15a4 acbf
000000f0: 6a33 113f 3773 0fbf dd83 893f 4982 d7bf
00000100: 689d af3f 4931 d5bf c538 633e be48 8a3f
00000110: 4621 81bf 1e60 33bf 6c58 a43e 7285 be3f
00000120: 6a7e b0bf ce66 4440 19d6 abbd ea99 c4be
00000130: 7cc2 42bf 9bff b73f 818b 3ebf 95dd 5fbe
00000140: f3dc 11bd 0d28 9dbe 95dc 9c3e f1b1 69bf
00000150: c866 0a40 21bd 99bf 5fe3 52bf ed1f 073d
00000160: 2aa4 a5be f7a5 223d cc12 043f 309a 453e
00000170: e700 38be f068 3e3e f8ca 21bf f18f cabd
00000180: 5479 33bf 9a8a 91bd 099f 3a3f 3173 d33f
00000190: 5be0 5abf 91f0 6d3f 9aca 29bf eb2c 83be
000001a0: 5589 663f 4850 ae3e ece4 023d 2924 843c
000001b0: 4979 2fbf 981f ddbf f8e9 fdbe a008 de3e
000001c0: 8287 893f dac6 78be b48a a23e ab9f 813e
000001d0: f5a1 163f b5ed 3cbf 1d6f 15c0 d067 943b
000001e0: edc4 adbd 9154 b93e dfaf 1940 5b37 0a40
000001f0: a1ea 7fbf 2773 1d3f b0b7 f7be 909b c1bf
00000200: 41b0 82bf b301 24bf a8b2 973f 5967 8dbf
00000210: 2244 233f fc0b 553e ea2b ddbf f6a8 573e
00000220: b932 853f 5a24 8dbe 6335 753f 5177 c6bf
00000230: f7d4 8abf ff00 1940 e803 7cbe c52f debf
00000240: d34e 3d3f 4bcf f93e 2ae8 fd3e d04d 3c3d
00000250: 2af4 623e f0a2 a03f 8bf7 973d 9aab 4640
00000260: 8049 0b3f 5774 1ebf 37e0 32bf bf00 f5be
00000270: 4e37 d83e 05c0 a8bf 6ca8 f6bf 9cd2 09c0
00000280: 9339 5c3f 79bb c53e 4a74 ccbe 444c c0bf
00000290: 510f 45be ba73 4a3e 5ee9 0bbe b83c df3e
000002a0: f0ea 0dbf d95c 94bf 1419 06bd 1485 26bf
000002b0: c2d3 3e3f 49bc 093f 4094 20be 9985 b63f
000002c0: da96 453f 6ce8 a2bf fe4d 38bf cb32 de3d
000002d0: 3fd3 79bd 19bf 063f d833 953e b0fd 6e3f
000002e0: 6aa3 6abe c447 743e 494e 4a3f 50a7 3e3f
000002f0: 0e4a 553e 4fb0 2e3f 5b15 bc3e 308e 783f
00000300: 27ee 4e3f ece4 5a3f 0918 cb3f 0b2b 973e
00000310: 30f8 14c0 2527 88bd fd60 e13f feb4 b03f
00000320: 6923 febf d369 86bf 6726 983f b3d6 e8be
00000330: 6696 01be d2d9 483e 5981 b13e 7bc4 38bf
00000340: 46f2 373e 9ee5 223f 67a5 86be 64e2 83bf
00000350: 3816 b0be a046 883f d2e1 d93f 712c 313f
00000360: a628 ac3f b5aa bfbf 854c 67bf 04c5 43bf
00000370: 28d6 883f 81b2 813f e6a7 353e 272e 21bf
00000380: 59a8 1740 4ae2 f1be 40cb a53d 9ab0 013f
00000390: 788c 57bf e943 15be 0efc 31bf 0bd3 e3bf
000003a0: 4c6d bdbf 3cf8 4a3f 43a4 be3f 7d63 55be
000003b0: cc91 2abf 9d6e ee3e 894f 2b3f 4b5c a3bf
000003c0: 3505 b6be 5c8d 72bf 611b 953f 76e9 b8bf
000003d0: 7e6a b7be 5b84 57be cbb9 2a3d a075 8c3f
000003e0: 939c 2dbf 40de 78be 7164 11bf 4f07 803f
000003f0: 7df5 4abf 471a 473e 2a5d 623f c781 6bbf
-1.409092 1.1707382 -0.33947122 1.3822126 -0.6284622 -1.4857492 -0.7693426 0.08457811
-0.6918825 -0.7756124 -0.22153072 -0.96580917 0.9137897 0.32199785 0.8271572 1.0549271
1.2020192 1.0771276 1.0938896 0.40462348 0.31949887 0.97039235 -0.9409503 -0.07195296
-0.58317906 -0.17648266 -0.21277873 -0.874618 1.374169 1.3886034 1.3701476 -0.57084775
0.0070852838 1.5066836 0.8430115 1.4986429 -0.010921709 0.28141955 2.05501 1.3984607
0.18521951 -0.59401083 -0.17055348 -0.09875624 0.62370956 -0.9338027 0.8470188 -1.3315632
-0.017676145 0.45570615 -1.4879619 0.4156917 1.0541102 -0.5106979 0.9900694 -0.4250216
0.089719884 -1.6729574 -0.06276402 -1.3487574 0.56719077 -0.5603518 1.0743366 -1.6836635
1.3719912 -1.6655666 0.22189625 1.0803449 -1.0088279 -0.7006854 0.3209871 1.4884474
-1.3788579 3.0687747 -0.08390445 -0.38398677 -0.7607801 1.437488 -0.74431616 -0.2186187
-0.035611104 -0.3069462 0.3063704 -0.9128714 2.1625233 -1.2010843 -0.8237819 0.03298943
-0.3235181 0.039709058 0.5159118 0.19297099 -0.17969094 0.18594718 -0.6320033 -0.09890736
-0.7010701 -0.07106514 0.7289892 1.6519529 -0.8549859 0.929452 -0.6632477 -0.25620207
0.900533 0.34045625 0.0319566 0.016130524 -0.6854444 -1.7275267 -0.49592566 0.43365955
1.0744479 -0.24294606 0.31746447 0.2531713 0.58840877 -0.7380021 -2.3349068 0.004528977
-0.08484826 0.36197332 2.4013593 2.1596286 -0.9996739 0.61503834 -0.4838233 -1.5125599
-1.0210038 -0.6406509 1.1851397 -1.1047164 0.6377584 0.20805353 -1.7279027 0.21060547
1.0406104 -0.27566797 0.95784587 -1.5505162 -1.0846242 2.3906858 -0.24610865 -1.7358328
0.739484 0.48790964 0.4959119 0.045972645 0.22163454 1.2549725 0.07420262 3.1042237
0.5440903 -0.6189627 -0.69873375 -0.47852132 0.42229694 -1.31836 -1.9270148 -2.1534796
0.8602535 0.38619593 -0.39932472 -1.5023274 -0.19244124 0.19770709 -0.13663241 0.43601012
-0.5543661 -1.1590835 -0.03273876 -0.6504681 0.74541867 0.53802925 -0.15681553 1.4259521
0.77183306 -1.272718 -0.71994007 0.10849532 -0.060992476 0.5263534 0.29141116 0.93355846
-0.229139 0.23855501 0.79025704 0.7447405 0.20829031 0.68237776 0.36735043 0.9709196
0.8083214 0.8550556 1.586671 0.29525027 -2.3276482 -0.06648091 1.7607723 1.3805234
-1.9854556 -1.0501045 1.188672 -0.45476303 -0.12655029 0.19614342 0.34668997 -0.72174805
0.17963514 0.6363162 -0.26298067 -1.0303464 -0.34391952 1.0646553 1.702204 0.6920844
1.3449905 -1.4973971 -0.90351135 -0.76472497 1.0690355 1.01326 0.1773983 -0.6296105
2.3696501 -0.47242957 0.080954075 0.506601 -0.84198713 -0.14576687 -0.6952523 -1.779878
-1.479898 0.79285026 1.4893879 -0.20838733 -0.6662872 0.46568766 0.66918236 -1.276254
-0.35550848 -0.9474695 1.164898 -1.4446247 -0.35823435 -0.21046583 0.041681092 1.0973396
-0.6781704 -0.24303532 -0.56793886 1.000223 -0.79280835 0.19443618 0.8842341 -0.919949

in_proj_weight f4 [24, 8]
00000000: db49 2bbe dbc7 8dbd f6da ce3e 2af6 adbc
00000010: d7de b03d f97a 443d 0a35 41be 62b4 8d3e
00000020: 5c09 ba3d 1adb d1bd d036 75be d77b fb3d
00000030: 26c1 97be d62a 94be 80eb bcbe b74c 9b3e
00000040: 2802 39be 8c2f a5be ae76 2f3d 786b c03d
00000050: f840 793c 802f 00be 3c0a 023d e164 76be
00000060: 02ce 523e dc20 dcbe 7bb8 8ebe 354d b83e
00000070: cc78 d83e 47a0 883e 38f4 e13c 1e90 c63e
00000080: b832 5abe 1399 9f3e c2e9 a03e 741c b23c
00000090: ecf6 8fbe f4b9 d6be c3ac 053e 9fed fa3d
000000a0: 3c0d bdbe 8755 6d3e a934 8cbe b1ce 9d3e
000000b0: cfec 1fbe cb5a 833d b8c0 8c3e d576 47be
000000c0: 1c3f 733e 163f af3e 63e1 7cbe 2d15 f3bd
000000d0: fdfe 96be 1e95 2b3e bacc 89be 1ba6 0abd
000000e0: 6c13 c83d 3c77 903e 7232 8d3e d021 7dbd
000000f0: b161 1dbe 765c b5bd d326 2bbc 3b3b 7c3e
00000100: 812d 9fbe 7d03 d4bd 71a9 a43e 9d05 59be
00000110: e626 c03e b01e 76be cc18 af3e d9a3 acbd
00000120: de21 283e f070 c43e ad75 00be 615a d2bd
00000130: a2b0 2ebd 78d7 cc3e b6a4 433e 6605 1bbc
00000140: c829 7dbe a51f 8b3d 46ff 81be 4ec3 a43d
00000150: 5ed5 333e 8dd0 b33d faa8 ac3e 0f8d dd3d
00000160: 9973 4c3e c185 46be 6526 62bd 41dc 0ebe
00000170: dcf9 81bd 6705 623e d2ee 073e 39c3 aabe
00000180: 7fb0 82be 8b8e ca3e 3f5f 09be 8be8 87bd
00000190: 2478 a23d 80ac ab3e 3b72 92be ac65 513e
000001a0: cd36 863c 5bf2 5a3e 8ee5 7cbe 1025 2bbe
000001b0: 9bf4 f0bd 722b 2abe d037 c93d 1398 95bc
000001c0: 95a0 07bd 01ea 263e 3e27 da3d 2f06 09be
000001d0: cea8 0e3e 8049 3c3e e320 77ba fb59 983e
000001e0: c05f e43c fb5e 1e3b 1760 623e 484d b2be
000001f0: 03f7 913e 3578 f23d c74a 21be 024c 213e
00000200: 9fb0 be3e 187f 463e d6d7 edbd 700c 553d
00000210: 59ae cf3e 20ad c13e 1046 9d3e d2ec aebd
00000220: 3cd8 813e 62c3 0c3e 24e0 97be d80c 8a3d
00000230: dd78 bdbd 4fc5 d1be 7d28 b3bc fc35 4e3d
00000240: 6d4a b63e db8e 07be 227d 4bbe 39cd c4be
00000250: 6ff7 7fbd 93c4 30be 1c47 9ebe 8429 5a3e
00000260: dbc5 993e cf05 d83d a63c d63e 60f8 9dbe
00000270: 9dbe 223e 95e8 193d 2722 11be 0f66 f43d
00000280: cc44 5f3e 540b 993e 400c 973d 6835 82be
00000290: 2f01 cebd b7c0 443e 56ec 953e 2e84 6a3e
000002a0: d2d6 d4be c108 35bd cda6 aebe 7c13 01be
000002b0: 451c d13e eaac c6bd 52ae 5dbd 8283 7d3d
000002c0: f43c b5be f15e a8be 1e2a 63be 6e04 f2bd
000002d0: 35f1 d9be aaa7 c2be 7abb bf3e babc ab3e
000002e0: 8f6f b23e b247 f73d bf22 42be eeb4 cc39
000002f0: 389c f33d ec46 793d 2754 6ebe 64e9 0ebe
-0.16727392 -0.06922885 0.4040143 -0.021235544 0.08636253 0.04796884 -0.18867889 0.27676684
0.090838164 -0.102468684 -0.2394669 0.1227948 -0.29639548 -0.2893893 -0.36898422 0.30331966
-0.18067229 -0.32262838 0.04283779 0.09395498 0.015213244 -0.1251812 0.03174804 -0.2406192
0.20586398 -0.4299382 -0.27875122 0.35996404 0.4227966 0.26684782 0.027582273 0.38781828
-0.2130841 0.31171474 0.31428343 0.021742083 -0.28118074 -0.41938746 0.13054185 0.12252354
-0.3692416 0.23177157 -0.27383927 0.30821756 -0.15617679 0.06413802 0.27490783 -0.19478925
0.23754543 0.34227818 -0.24695353 -0.11869273 -0.29491416 0.16756102 -0.26914006 -0.033849817
0.097693294 0.2821597 0.2757755 -0.061799824 -0.15369298 -0.08855526 -0.010446268 0.2463197
-0.31089404 -0.10352228 0.32160524 -0.21193548 0.37529677 -0.24035144 0.34198606 -0.08429689
0.1641917 0.38367414 -0.1254489 -0.10271145 -0.04264892 0.4000814 0.19105801 -0.009461736
-0.2472297 0.06793145 -0.2539007 0.08045064 0.17561862 0.08780012 0.3372267 0.108179204
0.19965972 -0.1938696 -0.055212397 -0.13951208 -0.06346485 0.22072373 0.13274696 -0.33352068
-0.2552528 0.39561877 -0.1341524 -0.06636151 0.07933071 0.33530045 -0.28602776 0.20448941
0.016383553 0.21381514 -0.24696943 -0.16713357 -0.11765405 -0.16618136 0.098250985 -0.018260991
-0.033112127 0.16300203 0.10652016 -0.13381265 0.13931581 0.18387413 -0.0009427203 0.2975615
0.027877688 0.00241655 0.22106968 -0.34824586 0.28508767 0.11839334 -0.15751182 0.15751651
0.37244126 0.1938442 -0.11613433 0.052013814 0.40562704 0.37827396 0.30717516 -0.08541264
0.25360286 0.13746408 -0.29663193 0.06740731 -0.092515685 -0.40970847 -0.021869892 0.050344452
0.35603657 -0.13238089 -0.19871953 -0.38437822 -0.06249183 -0.17262487 -0.30913627 0.213049
0.30033764 0.10547983 0.41843146 -0.30853558 0.15893026 0.037575323 -0.14173184 0.11933529
0.21803588 0.29891455 0.073753834 -0.2543137 -0.100588195 0.1921414 0.29281873 0.22901985
-0.41570145 -0.0441978 -0.34111634 -0.12605089 0.4084188 -0.097009495 -0.054121323 0.061892994
-0.35398066 -0.32884935 -0.22184035 -0.11817251 -0.4256684 -0.38018543 0.3744772 0.33542424
0.34850737 0.12074222 -0.18958567 0.00039044715 0.11895031 0.060858652 -0.23274289 -0.13956219

in_proj_bias f4 [24]
00000000: 0000 0000 0000 0000 0000 0000 0000 0000
00000010: 0000 0000 0000 0000 0000 0000 0000 0000
00000020: 0000 0000 0000 0000 0000 0000 0000 0000
00000030: 0000 0000 0000 0000 0000 0000 0000 0000
00000040: 0000 0000 0000 0000 0000 0000 0000 0000
00000050: 0000 0000 0000 0000 0000 0000 0000 0000
0.0 0.0 0.0 0.0 0.0 0.0 0.0 0.0
0.0 0.0 0.0 0.0 0.0 0.0 0.0 0.0
0.0 0.0 0.0 0.0 0.0 0.0 0.0 0.0

weight f4 [8, 8]
00000000: 4ec9 3dbc 3652 8f3e bef3 d0bd 4dcf 77be
00000010: 200e da3d 8801 27bd 740d ab3e 06d7 b1be
00000020: e5c9 88bd e08e 91be 2b94 2f3d 4ba0 bd3d
00000030: 02c9 aabe 4d51 23be 8b43 673e 6eee c1bd
00000040: cc25 093e bf51 533e 9189 aabe f7cb 01bd
00000050: aca3 5d3e e3bc 5f3d 338a 193e 9220 1e3e
00000060: 6d7d 8bbe 5d14 17be eccc 5c3e 39c7 a4be
00000070: 55da 3f3e 00a2 a1be 51b3 9d3e 3e41 c8bd
00000080: 0b18 93bd 54e9 49bc 5a3f 8b3d 9b7a 09be
00000090: 8561 473e addf 7fbd 45cc 563e af44 66be
000000a0: 5b42 313d d81f aa3e f421 843d 5f9a 7a3e
000000b0: 1057 95be 6b5f 7e3e 7f20 ae3d 537e a03e
000000c0: ae71 a23d 5a8b 85bd d7bc 183d 0604 ae3e
000000d0: d254 a73e ba80 4cbe d545 5abe 9918 02be
000000e0: e1d3 913c 95c5 65be d130 58be c0c5 a13e
000000f0: f647 a9be f55d 89be b09d 7c3d 34f9 1b3e
-0.011583639 0.2799241 -0.1020274 -0.24200173 0.106472254 -0.040772945 0.334087 -0.34734362
-0.06679133 -0.28429317 0.042865913 0.09259089 -0.33356482 -0.15948983 0.2258436 -0.09469305
0.13393325 0.20636652 -0.3330808 -0.031688657 0.21644467 0.054623496 0.14994125 0.15442112
-0.2724413 -0.14753862 0.21562546 -0.32183245 0.18735631 -0.3156891 0.3080087 -0.09778069
-0.0718232 -0.012323696 0.06799193 -0.13425677 0.19470794 -0.062469173 0.2097636 -0.22487138
0.043276172 0.3322742 0.064517885 0.2447295 -0.29167986 0.24841087 0.08502292 0.31346378
0.07931839 -0.0652072 0.037289467 0.33987445 0.326819 -0.1997098 -0.21315701 -0.12704696
0.017801227 -0.22438653 -0.21112372 0.31596184 -0.33062714 -0.26829496 0.06167382 0.15231782

bias f4 [8]
00000000: 0000 0000 0000 0000 0000 0000 0000 0000
00000010: 0000 0000 0000 0000 0000 0000 0000 0000
0.0 0.0 0.0 0.0 0.0 0.0 0.0 0.0

weight f4 [32, 8]
00000000: 4eab 97be dc2f 953e bbd5 7f3e 2bb0 483e
00000010: 96cc 503d f054 a5bd 2e6a b43d 414f 98be
00000020: 742f d03d 6087 f73d 0cc9 84be 1859 ad3e
00000030: ebc2 a8bd 35a5 7fbd bbbb 88bd 3b4f 373d
00000040: dca0 473d e41d 5c3e ca8f b4bd 8251 543e
00000050: d48d c0bc 93a3 953e 88f3 0b3e 3b82 993e
00000060: 5983 41be 0683 9bbe ca96 85be d89d b2be
00000070: 461b 3a3e 4448 813d f7c4 433e 9fbf 2bbe
00000080: e756 c73d 59c1 cabc 7195 a0bd 06da 02be
00000090: 4850 993e b24c 183e 32c5 15be 5f5b f0bb
000000a0: 4435 aa3d 9aa3 90bd 81e2 813d 7047 d73d
000000b0: b797 8e3e 5b93 a23d cafd 9d3e d053 09be
000000c0: 491b a8be 3a42 97bc 823c 4bbe 92cb d0bd
000000d0: dff1 27be 7e0d a63e 1ace e3bc 4fdc 8c3e
000000e0: 6c94 e4bd 0b0b b43e 3deb 303e 9f8a 8bbe
000000f0: 4648 4f3e 7de6 62be 8076 2e3d de44 583c
00000100: f996 943e 9e68 adbe c88b ac3e f496 5bbe
00000110: 29e6 55be e7c9 0dbe b2e2 2e3e cdf4 093c
00000120: 9af7 da3d 94d4 a43e 65a7 20be 966c 9fbe
00000130: e086 8e3e f6a3 39be 3902 aa3e 99ee 8d3e
00000140: d5b0 d03c 8273 033e 0ad9 933c dfc8 3cbe
00000150: 8eea 3cbe dd9a 82be be2c a53d a22b 3bbe
00000160: 6f53 40be 2646 65be 3601 b6bd 409d 9abe
00000170: a244 7fbe 6883 d33c b1e7 80be d6b0 ed3c
00000180: 8a56 25be f5ed 603e 9af0 7f3e 4977 dabc
00000190: d293 2abd eee5 8f3e c8be 47be 37b3 fbbd
000001a0: fa38 dd3c a9dd 90be 0f04 bfbc 7a9b 523e
000001b0: f694 063e aa4b 52be 6b11 383e 8e08 3f3e
000001c0: 3959 1dbc 77bd 0e3e 5d99 2f3e 509a 33be
000001d0: 4b80 27be d233 1d3e be79 31be ba29 ea3d
000001e0: 06b1 ac3c accb af3e ce05 363c 5723 85be
000001f0: 6c17 8b3b 45f9 aebe 9cdd 053e 39c3 9fbe
00000200: d897 843e fa08 083e ef7d 9c3e d936 b03d
00000210: 185c 1d3e eac8 4d3e 2d48 a63e e491 3e3e
00000220: a6ca 42be c119 3b3e 0d59 f83d 4790 36be
00000230: 9f70 5c3e 72e8 80be c3d8 c8bd d0a5 943d
00000240: 07ca adbe 3422 6cbe df69 173d 0507 153d
00000250: 6842 9ebe 3d23 603d 6a8e ae3e 0751 973e
00000260: c5bc e03c 6927 20be 98db 47be bade 873e
00000270: d525 a43e bd80 973e 558c 08be acd1 c73d
00000280: 53fa 013c 63c9 cbbd eae0 b7bd 504e 263e
00000290: 5065 f9bd a814 8cbe 6334 453e 64cc e93d
000002a0: 4eac 6f3e aac6 b33e e22c 56bc 3203 11be
000002b0: 0043 2ebe 85f5 8cbe a869 afbd c558 27bb
000002c0: 8d16 a43e 1abb 95be afa0 4f3e a6fe a93e
000002d0: 9269 4c3e 4eaf 1ebe e2bb 80bd a66c 9bbe
000002e0: c3ed ad3d fb3a 813e d678 2d3e 3811 8e3e
000002f0: a1d3 643e 0e09 b2bd 8c2a 553e aa73 16be
00000300: b1fe 5dbe 1175 79bd 3369 95be ac30 06be
00000310: e786 a63e 9023 b3bd 4a72 afbe 3793 6dbe
00000320: bd5c 29be 1a06 3b3e 97da 5e3e 3cc3 d1bd
00000330: d5f6 cd3b d795 913e 7609 a8bd a85e e9bd
00000340: 1e84 1cbd 012b 94be e8eb 4a3e b567 8a3d
00000350: c195 9bbd 3757 683e 482b 0c3d f1e8 a1bd
00000360: ebb1 e93c 67a3 143d 419e b1be 0de1 78be
00000370: d31a 68be d7fa 9abe c85f a1be 01f2 103e
00000380: 1e13 bd3d e95c b03e 6bcf b3be efea 3e3e
00000390: f0c3 873e 1792 493e 6f8a 7b3e 54fc af3e
000003a0: 9740 9e3e c1b2 afbe d215 91be edf4 98be
000003b0: cce8 a23e 67a1 bc3d 335c 913e 1354 a2be
000003c0: caff a33e 391c c1bd 869e 5d3e 55a7 2ebd
000003d0: 1a91 833e aea6 803e ca79 f63d 8c32 fa3d
000003e0: 2750 8b3e e3e4 8f3e 7374 c63d eeab b0be
000003f0: fad3 4a3e 1419 553e 0451 3e3e 277e a4be
-0.29622883 0.29138076 0.24983875 0.19598453 0.05097636 -0.08072841 0.08809315 -0.29747966
0.10165301 0.120863676 -0.25934637 0.33857036 -0.08240303 -0.062413413 -0.06676432 0.044753294
0.04873739 0.21495777 -0.08816488 0.20734218 -0.023505129 0.2922636 0.13667119 0.2998217
-0.18897761 -0.303734 -0.26091605 -0.3488605 0.18174466 0.06312612 0.19118105 -0.16772316
0.09733372 -0.024750398 -0.07841004 -0.12778482 0.29944062 0.14873007 -0.14626005 -0.007335111
0.08310941 -0.070624545 0.0634203 0.105116725 0.27850124 0.07938262 0.30857688 -0.13410878
-0.32833317 -0.018464196 -0.198473 -0.10195078 -0.1640086 0.3243217 -0.027808238 0.27511832
-0.11161122 0.35164675 0.17277236 -0.27254197 0.20242414 -0.22158237 0.04259348 0.013200013
0.29021433 -0.3386888 0.33700395 -0.21444303 -0.2088858 -0.13846551 0.17078665 0.008420181
0.106917575 0.32193434 -0.15688856 -0.31137532 0.27837276 -0.18128952 0.3320482 0.27721098
0.025474945 0.12837031 0.018047828 -0.18436001 -0.1844885 -0.25508776 0.080651745 -0.18278363
-0.18781827 -0.22390041 -0.0888695 -0.30198097 -0.24928525 0.025819495 -0.25176767 0.029014986
-0.16146293 0.21965773 0.24994126 -0.026668208 -0.04164488 0.2810511 -0.19506371 -0.12290042
0.027004708 -0.28294113 -0.023317365 0.20567122 0.13142762 -0.20536676 0.17975394 0.18655607
-0.009603792 0.13939463 0.17148347 -0.17539334 -0.16357534 0.15351799 -0.17331597 0.1143374
0.021080505 0.34335077 0.011109782 -0.26003525 0.0042447355 -0.34174553 0.13072819 -0.3120363
0.25897098 0.13284674 0.3056483 0.08604211 0.15367162 0.20096174 0.3247694 0.1861034
-0.19022617 0.18271543 0.1212636 -0.17828475 0.21527337 -0.25177342 -0.09806969 0.07258189
-0.33943197 -0.23059922 0.0369662 0.036383647 -0.3091004 0.054721106 0.34093028 0.29554006
0.027433762 -0.15640034 -0.19517362 0.26537114 0.32060114 0.29590407 -0.13334782 0.097567886
0.007933217 -0.09950521 -0.08978446 0.16240811 -0.12177527 -0.2735951 0.19258265 0.114159375
0.23405573 0.35112506 -0.013072224 -0.14161375 -0.17017746 -0.27531067 -0.08565074 -0.0025535088
0.32048455 -0.2924431 0.2027614 0.33202094 0.19962147 -0.15496561 -0.06285836 -0.3035633
0.08492615 0.2524031 0.16940627 0.27747512 0.22346355 -0.08693133 0.20817012 -0.1469256
-0.21679188 -0.06090266 -0.29181823 -0.13104504 0.32524797 -0.087470174 -0.34266883 -0.2320069
-0.16539283 0.18264046 0.21763073 -0.10242316 0.006285528 0.2843463 -0.082049295 -0.11395007
-0.038211934 -0.2893906 0.19816554 0.06758062 -0.07596923 0.2268952 0.034220964 -0.07905758
0.02852722 0.036288645 -0.3469105 -0.243046 -0.22666483 -0.302695 -0.31518388 0.14154817
0.09232162 0.34445885 -0.35119185 0.18644308 0.26516676 0.19684635 0.24564527 0.343722
0.30908653 -0.34316066 -0.2833696 -0.29874364 0.31818235 0.092104726 0.28390655 -0.3170477
0.3203109 -0.09429211 0.21642503 -0.04264005 0.2569664 0.25127167 0.12034948 0.12216672
0.2720959 0.28104314 0.0969018 -0.34506172 0.19807425 0.20810348 0.18585593 -0.32127497

bias f4 [32]
00000000: d54b 473d b912 2d3e 086b 083e 184a 63be
00000010: 3892 3dbe 02b4 213e 6603 3a3c aea9 3e3d
00000020: abfa c6bd 2275 6a3e f76e 6fbe 6b8b a33d
00000030: 2961 33be b09f 843e a19a 213e 83da 8b3e
00000040: c877 21bd 08f3 fbbd 61e7 1ebe 34b2 3f3e
00000050: e842 adbe b3be 933c 7d4b 4fbe 555c 1ebe
00000060: e410 2b3c e705 87be c817 f73d 691d 313d
00000070: ab36 6ebe 7413 53be 433f 53bd c835 1a3e
0.048656303 0.16901673 0.13322079 -0.22196233 -0.1851281 0.15791324 0.011353349 0.046548538
-0.0971578 0.22896245 -0.23382173 0.07985576 -0.17517532 0.25903082 0.15781642 0.2731515
-0.039420873 -0.12302214 -0.15517952 0.18720323 -0.33840108 0.018035268 -0.2024364 -0.1546491
0.010441039 -0.2637169 0.12065083 0.04324094 -0.23263042 -0.2061289 -0.051574003 0.15059578

weight f4 [8, 32]
00000000: 3e72 12be 8872 2a3e df71 a33d 452f 413d
00000010: b6c5 963d 7931 703d fd3c 0b3d 96f0 193d
00000020: 4a35 a4bd f3be 163e 754c e3bd c1c8 413c
00000030: 46a6 fe3d e59f f4bc f871 13be 84ef f93d
00000040: c6e9 e63c 1c72 0fbe 5d08 a63d 78c1 fd3d
00000050: fd8f 523c 93a3 803d a1b3 febd 6b2b 4fbd
00000060: 038d cc3c 4d64 303e 9632 f33d 9c1c 92bd
00000070: 9f9d 823d 3867 e73d 2103 1abe 5d4e 813d
00000080: df2c bb3c 075d f43c c82a 41bd 8bbc e5bb
00000090: 97e5 a23d 0a73 133d daed 96bd 2c9b 343e
000000a0: 6bcc 323e 24c3 8dbd 2d67 193e 2921 1d3e
000000b0: 9f3e fb3d e668 f1bd 6ab0 24be 2271 f9bd
000000c0: 2a79 343e e4e0 b3bd c100 d6bd 66d7 143d
000000d0: c41d 2bbe 5bde 00bd b714 20be 99b0 b53d
000000e0: 1c7c 20be 54e7 0bbe c0fd a93d 600e ac3d
000000f0: 1327 943d 85a6 e4bd b54e cf3d 415c 353d
00000100: 0320 aebb 2a97 1abe 51f3 07be 1a81 0ebe
00000110: f229 23bc 85ab 86bd 0390 06bd 18d8 e03d
00000120: 0408 343e a525 763c 3945 203e 065b 92bc
00000130: 964c 00be 60b5 bd3d 80f3 113d 2492 913d
00000140: c982 17be 070a 98bc 8b8c 283e d40a 133d
00000150: f1b1 063e fea2 38bc d9dd b8bd 816b 97bc
00000160: 248b 943d 8a07 ebbc cc9c f93d 1c5c 7f3d
00000170: 3fad ef3c ac83 4b3d a2fd 95bd 120c dabb
00000180: 246d 0b3e 4afe 183e 6c89 153e 902b 593a
00000190: c41f a4bd 22e6 3fbd 2f8e fabc b39b 0a3d
000001a0: f7f1 5fbd 64c9 b33d ea6b 3fbb 6593 003e
000001b0: 9290 893d 375f 1fbe 7887 3bbd a200 32be
000001c0: e918 83bd 075d 2bbe db5e 1cbe a2f7 d2bd
000001d0: 3f40 2cbe f094 973d f798 87bd 30b0 cd3d
000001e0: a625 fdbd 4d3e d5bd b4be b0bc 8400 bcb8
000001f0: c696 b63d 0bf8 1dbe 654b 063e 5d95 213e
00000200: cd28 2e3e 81ae 673d 1401 68bb 712f 2f3e
00000210: 338c dc3d f811 acbc 1d82 153e cf7d 30be
00000220: 8751 0bbe 48ae 02bc 2e43 a13d 9ee5 e63d
00000230: 14cb 8ebc 289c 10be a582 ba3d 78d5 913b
00000240: 0c75 c0bd 9a02 713d 8277 16bd 778f 0a3e
00000250: 476f 983b 2f0d d4bd d66d 953d adbc 37bd
00000260: 7b75 7abd 085f 54bd 4ee9 1d3e df1e 17be
00000270: 1995 a03d 5b3a 92bd f678 00be ac45 0f3e
00000280: b758 90bd 112c 34bd 4415 16bd e562 48bd
00000290: 4f49 65bd 995b 0bbe 3012 97bc c780 a3bd
000002a0: 2f73 65bd 8915 043e 6aa9 043e 7c29 29be
000002b0: 219a cebd ccac ee3d d486 88bc 0b1b 2fbe
000002c0: 9182 15be 1e05 f4bd 3b5a a53d 414a a73d
000002d0: 42ff c93d 9893 85bc c2fd 5cbc f00f 7bbc
000002e0: bce9 473c 8825 0e3e 259d f63d 8838 7fbd
000002f0: 53f1 973c d309 113e 930b 3abd bfcb 6ebd
00000300: 8154 1d3e e2b9 fe3d 0362 21be 8a2f 33bd
00000310: 4fab 933d 0971 853a 1700 fc3d 54c5 dfbc
00000320: c0e9 ff3d 4996 34bb 4b29 25bd 25a3 563d
00000330: 491f 053e 12d5 a0bd db66 a33d 98cc 1abe
00000340: ecde fbbd 1674 f0bd 8ffb e4bd 6bb5 39bd
00000350: 7080 ecbd d13f ddbd 8570 273e 7e9c 7c3d
00000360: 5539 5dbc c876 1d3e f086 f4bd 65cf e5bd
00000370: a948 f13d 5dd8 91bd 3dff 47bd 05a3 033e
00000380: b0df 85bd ca70 90bd 45f1 433d 58af eb3d
00000390: a2af 27be 3b0f fb3b e720 9cbc 86c2 d63c
000003a0: 331e fabc e72e fe3d 102c 17be 2d96 883d
000003b0: 1dd2 c33d be6d 403c a855 66bd 6277 33be
000003c0: 072b cbbd 02cf e73c 8541 6b3c afcb 1ebe
000003d0: 9d26 8d3d 1e62 bc3d 70af 83bd 5162 0b3e
000003e0: abc1 e8bd 423c 24be 1e62 0abd e426 bb3d
000003f0: 106a 943d 3ddd 303d fd4d 06be 785a 043e
-0.14301392 0.16645253 0.079807036 0.04716422 0.07361929 0.05864093 0.03399371 0.037582956
-0.080179766 0.14721279 -0.110985674 0.011827649 0.12434058 -0.0298614 -0.14398944 0.12203887
0.028187644 -0.14008373 0.08107064 0.12390417 0.012851712 0.06281199 -0.12436605 -0.050578516
0.024969583 0.17225762 0.11874883 -0.07134363 0.0637772 0.11298984 -0.15040256 0.06313775
0.022848545 0.029829515 -0.04715994 -0.0070110015 0.07953947 0.03599838 -0.07369585 0.17637318
0.17460792 -0.06921986 0.14980765 0.15344681 0.122678034 -0.11787586 -0.16082922 -0.121797815
0.17624345 -0.08783129 -0.104493625 0.036338232 -0.16710573 -0.031462055 -0.15632902 0.08871574
-0.15672344 -0.13662463 0.08300352 0.08401179 0.07234015 -0.111645736 0.10122434 0.044277433
-0.0053138747 -0.15096727 -0.13276412 -0.13916436 -0.009958731 -0.065756835 -0.032852184 0.109787166
0.17581183 0.015023624 0.15651406 -0.017865669 -0.12529215 0.0926311 0.03563261 0.07107952
-0.14795984 -0.018559469 0.16459863 0.035899 0.13153817 -0.011269329 -0.09026689 -0.018483879
0.072531015 -0.028690118 0.1218811 0.0623437 0.029257415 0.04968612 -0.07323767 -0.006654271
0.13615853 0.14940754 0.14603204 0.00082843844 -0.08013871 -0.04685033 -0.030585377 0.033839893
-0.054674115 0.087786466 -0.002920861 0.12556227 0.06717028 -0.15563665 -0.04578349 -0.17383054
-0.064012356 -0.16734706 -0.1527056 -0.103011385 -0.16821383 0.074014544 -0.066209726 0.10043371
-0.123606965 -0.104122736 -0.02157531 -8.9646346e-05 0.089154765 -0.15426652 0.13114698 0.15779634
0.17007752 0.056562904 -0.0035401033 0.17107941 0.107689284 -0.021004662 0.14600416 -0.17235492
-0.13605319 -0.007976122 0.07874142 0.11274265 -0.01743082 -0.14122069 0.0910695 0.0044504963
-0.09397325 0.05884037 -0.036735065 0.1353129 0.004651937 -0.10354077 0.0729634 -0.04485767
-0.061147194 -0.05184844 0.1542103 -0.1475787 0.07840938 -0.07140037 -0.12546143 0.13991421
-0.07048171 -0.043987337 -0.036641374 -0.04892244 -0.055978116 -0.1360916 -0.01844129 -0.07983547
-0.05601805 0.1289884 0.12955251 -0.16519731 -0.100879915 0.11654052 -0.016665854 -0.1710016
-0.14600588 -0.119150385 0.08073851 0.0816846 0.0986314 -0.01630573 -0.013488235 -0.015323624
0.012201723 0.13881505 0.12041692 -0.06230977 0.01854769 0.14163904 -0.045421194 -0.058299776
0.15364267 0.12437798 -0.15760045 -0.04374651 0.07210409 0.0010180782 0.12304705 -0.027315773
0.12495756 -0.0027555397 -0.040322583 0.05240168 0.13000216 -0.0785314 0.079786025 -0.15117109
-0.12298378 -0.11740892 -0.111807935 -0.04533903 -0.11547935 -0.10803188 0.16351517 0.06167268
-0.013502439 0.15377343 -0.119398 -0.11221198 0.11781437 -0.07121346 -0.0488274 0.12855156
-0.06536806 -0.07052763 0.047837514 0.115080535 -0.16375592 0.0076617277 -0.019058658 0.026215803
-0.030531978 0.1241129 -0.14762902 0.06669269 0.0956156 0.011744915 -0.056234032 -0.1752601
-0.09920316 0.028296951 0.014358883 -0.15507387 0.068921305 0.09198402 -0.064299464 0.13611723
-0.11365064 -0.16038612 -0.033784978 0.09138277 0.07246792 0.04317974 -0.13115688 0.12925136

bias f4 [8]
00000000: 8f67 2a3e 67a0 4abd 67f4 343e 0da8 283e
00000010: 9ab0 3d3d 89b5 bc3c 9abe 7ebd ab32 243a
0.16641067 -0.049469378 0.17671357 0.16470356 0.046311 0.023035781 -0.06219349 0.00062636536

weight f4 [8]
00000000: 0000 803f 0000 803f 0000 803f 0000 803f
00000010: 0000 803f 0000 803f 0000 803f 0000 803f
1.0 1.0 1.0 1.0 1.0 1.0 1.0 1.0

bias f4 [8]
00000000: 0000 0000 0000 0000 0000 0000 0000 0000
00000010: 0000 0000 0000 0000 0000 0000 0000 0000
0.0 0.0 0.0 0.0 0.0 0.0 0.0 0.0

weight f4 [8]
00000000: 0000 803f 0000 803f 0000 803f 0000 803f
00000010: 0000 803f 0000 803f 0000 803f 0000 803f
1.0 1.0 1.0 1.0 1.0 1.0 1.0 1.0

bias f4 [8]
00000000: 0000 0000 0000 0000 0000 0000 0000 0000
00000010: 0000 0000 0000 0000 0000 0000 0000 0000
0.0 0.0 0.0 0.0 0.0 0.0 0.0 0.0

in_proj_weight f4 [24, 8]
00000000: a13c 98be bdcf bdbd cc7b 033f 5ee2 4fbe
00000010: d9ab bd3d 6726 bc3d 0cd1 96be bae7 ac3e
00000020: 5535 bf3d f851 2cbd 8272 2abe 5d3f ba3d
00000030: 3dbd 61be 530e 33be 16b3 04bf bc71 9b3e
00000040: ff90 65be 858a b2be fd67 de3d 8e1b 453d
00000050: 52b4 213d b0a9 75bd 9d66 bcbd 1408 8cbe
00000060: b1d5 2b3e fa63 d4be 6302 85be 8749 b33e
00000070: 8794 ff3e 3aa7 a13e 678d 833b 00ea 9b3e
00000080: b49f 9dbe ff05 c73e 3bcc dd3e f06e 89bd
00000090: e15f 67be ba46 cfbe 45b7 043e 71dd 853e
000000a0: a938 aabe 08f2 2d3e 5b80 bdbe b16e ad3e
000000b0: 1b6e 88be 6129 95bb 8ffd c13e f32d 91be
000000c0: dae6 913e c102 a63e 6f8d a5be ede1 e9bd
000000d0: afa4 d4be 61e2 183e b339 3dbe d65e ddbd
000000e0: dc73 b23d 6ba0 a33e 8d87 c03e d3d2 afbd
000000f0: 5613 2cbe 60db fbbd 551e fc3b c943 983e
00000100: bbaf a8be 8eee 1cbc 7919 ec3e d11a b6be
00000110: 76df f43e d72e 57be 10cd 0b3f 30f7 f83d
00000120: a537 ca3d fb6c d93e 4ad2 01be ef31 08be
00000130: 4b4d 88bd 74e6 a83e bbe3 4d3e 2663 5d3c
00000140: 7879 a4be d12f d5bc 0b35 7cbe 7af0 ae3d
00000150: a802 4a3e db51 bf3d 50aa b33e a11a d13c
00000160: a655 513e 7f5e 26be 741f a1bd 4eb9 bbbd
00000170: eec8 ffbc f950 843e c48a 8e3d 1038 a4be
00000180: d970 22be 6630 d93e a13a 30be 9617 a0bd
00000190: 627a 073e ab12 bd3e d516 acbe 4b79 3c3e
000001a0: 0f3d 1ebc 783b 813e 1d20 2dbe 800d 71be
000001b0: 7439 2abe dc8f 4bbe cb0e 393e 407a c13d
000001c0: 2b05 83bd 3114 383e bb4d 6b3e c135 2fbe
000001d0: 1645 4d3d 5880 5f3e 60d8 a63d ad5d bd3e
000001e0: f3d4 043e 9486 bd3c 2983 1e3e b1f7 a8be
000001f0: 034a b93e c231 483e b4e7 70be c9f2 ef3d
00000200: 3c1a e13e ae35 5c3d 564b babe b402 6a3e
00000210: 270f a63e ddac 183f a571 943e 1623 6abe
00000220: a3d9 d53e 88b4 073e 54a7 1bbf 1849 823e
00000230: 80e4 58be 50b7 52be b56e d3bd 576d 2ebd
00000240: b97f c03e ba4d 18bc 9f89 09be 86ad edbe
00000250: f38f 48bd 64e9 88be 3e8f aabe a28f 8f3e
00000260: ca05 033e 8435 2a3e e60d 263f d083 09bf
00000270: 2992 953e c170 ecbd 7034 8f3d c31f 8c3e
00000280: 094f 823e 4d0c 823e 6c1c c63d 228c 71be
00000290: f08d 12be da29 773e 0af7 953e b61c 6b3e
000002a0: f586 dcbe 446b c23a 1136 d2be d023 16be
000002b0: 6366 d63e 002d d1bb c1c8 55bd 91c4 8b3d
000002c0: 7250 fcbe 662a 80be bead 473b 485e 7ebe
000002d0: 5710 b1be 4069 16bf ee10 163f 06ad f23e
000002e0: 0ab0 993e 216d 283e c8e9 01be 3af9 8bbd
000002f0: 49a4 4b3e f06c 063d d8cb 79be 4f64 94bd
-0.29733756 -0.092681386 0.51360774 -0.20301196 0.09261293 0.09187012 -0.29456365 0.33770543
0.09336344 -0.04207036 -0.16645244 0.09094117 -0.22044845 -0.17485933 -0.51835763 0.3036021
-0.22418593 -0.34871307 0.10859678 0.04812198 0.039478607 -0.05997628 -0.091992594 -0.27349913
0.16780736 -0.41482526 -0.25978383 0.35017034 0.49918005 0.31572896 0.004014659 0.30451965
-0.30785906 0.38871762 0.43319878 -0.06710613 -0.22595169 -0.40483648 0.12960537 0.2614551
-0.33246353 0.16986859 -0.3701199 0.33873513 -0.26646504 -0.004552052 0.37888762 -0.2835537
0.28496438 0.32423976 -0.32334468 -0.11420045 -0.41531894 0.14930107 -0.18479042 -0.10809104
0.08713505 0.31958327 0.37603417 -0.085851334 -0.16804251 -0.12297702 0.0076940455 0.29739216
-0.32946572 -0.00957836 0.46113184 -0.35567334 0.47826737 -0.21013962 0.54609776 0.12156522
0.098738946 0.42465958 -0.12677875 -0.13300298 -0.066553675 0.32988322 0.20106404 0.013512408
-0.32123923 -0.026023777 -0.2462961 0.08541961 0.19727576 0.093417846 0.35090876 0.025525393
0.20442829 -0.16246985 -0.07867327 -0.091662034 -0.03122374 0.25843027 0.06960061 -0.32074022
-0.1586336 0.42419738 -0.17209865 -0.07816999 0.13230279 0.36928305 -0.3361117 0.18405645
-0.009658112 0.25240684 -0.16906781 -0.23540306 -0.16623479 -0.19879097 0.1807205 0.094471455
-0.0639747 0.17976452 0.2297887 -0.17110349 0.050114714 0.21826303 0.08146739 0.3698553
0.12971859 0.02313546 0.15479721 -0.33001474 0.3618928 0.19550231 -0.23525888 0.117162295
0.43965328 0.05376213 -0.36385602 0.22852594 0.32433435 0.5963877 0.28992954 -0.22864947
0.41767606 0.13252461 -0.608022 0.2544639 -0.21180916 -0.2057774 -0.1032385 -0.042584743
0.37597445 -0.009295875 -0.13431405 -0.4642145 -0.048965406 -0.26740563 -0.3331241 0.2803927
0.12795177 0.16621977 0.6486496 -0.53716755 0.29213074 -0.115449436 0.069924235 0.27367982
0.25450924 0.2540001 0.0967339 -0.23588613 -0.14311957 0.24137059 0.29290038 0.22960171
-0.43071714 0.0014832993 -0.41056874 -0.14662099 0.4187499 -0.0063835382 -0.052193407 0.068246014
-0.49280125 -0.25032347 0.0030468549 -0.24840653 -0.3458278 -0.5875435 0.5861958 0.4739763
0.3001712 0.1644788 -0.12686837 -0.068346456 0.19886889 0.032818735 -0.24394166 -0.07245695

in_proj_bias f4 [24]
00000000: d536 96bd b467 18be ccdb 16bd 62ac 3c3d
00000010: fa3a 193d 2daf 573d bd05 b53d eeba 043d
00000020: f991 3838 df71 2eb8 071d 9b37 90a8 5fb8
00000030: ad65 7437 7f31 c4b7 8cbd b1b7 1a77 d137
00000040: 3a87 c03d 0340 3d3d 6e00 8dbd 5f38 64bd
00000050: d9a4 773d c782 233c e531 6fbd 8413 67bd
-0.07334677 -0.1488331 -0.03683071 0.046062835 0.03740976 0.052657295 0.08838985 0.032404833
4.4004966e-05 -4.1590883e-05 1.8490957e-05 -5.332433e-05 1.4567207e-05 -2.338807e-05 -2.1188309e-05 2.4970203e-05
0.094007924 0.046203624 -0.068848476 -0.055717822 0.060459945 0.00997991 -0.058397193 -0.056415096

weight f4 [8, 8]
00000000: 013a 4f3e eb91 d73e ab7a 43be eac6 f8be
00000010: ffa7 3e3d ea14 2bbe 136e 063e 8ee4 94be
00000020: a83e 00bd cfbc 69be db35 18bb 0cc0 4abd
00000030: fecb cdbe dad6 56be 7979 fe3d ed1b 88bd
00000040: db10 fc3d 31ac c43d 6a1d e5be ac42 d0bd
00000050: dbda 463e 8814 c83b e3ef a83d c156 113e
00000060: c0ad e5be 7a99 f5bd 0e23 ce3e f852 1bbe
00000070: 596f 803e 65f3 4abe 0003 123f 36f1 fbbd
00000080: 8808 37be f52c 97bc 3981 093e b0a7 adbc
00000090: bea4 7c3e 79bc cc3c f4d3 c43e 4061 92be
000000a0: 9e4a 333e ddd1 de3e 5a12 563d 140f 5b3e
000000b0: 2eb9 7abe 2736 8d3e c162 0cbe cff5 bb3e
000000c0: da8c 003e c15e 08be c86c 55bd 723e 7b3e
000000d0: fc47 903e f10b 8cbe 7bba adbe e138 afbd
000000e0: 0cae 0ebe 173f c9be a1ad c1bd 5732 123f
000000f0: 60b4 b5be c65b 1bbe 54ca 8a3e afb9 273e
0.2023697 0.42103514 -0.19089763 -0.4858926 0.046546932 -0.16707197 0.13127927 -0.29080623
-0.031309754 -0.22825931 -0.002322546 -0.049499556 -0.40194696 -0.20980397 0.12425513 -0.066459514
0.123079024 0.096031554 -0.44749004 -0.10168967 0.19419424 0.006105963 0.0824888 0.1419325
-0.44859123 -0.11992164 0.4026112 -0.15168369 0.25084952 -0.1981941 0.5703583 -0.12301867
-0.17874348 -0.018454054 0.13428201 -0.021198124 0.24672219 0.024992215 0.38442957 -0.2858982
0.17508933 0.43519488 0.052263595 0.2139247 -0.24484703 0.27580377 -0.13709547 0.36710975
0.1255373 -0.13317396 -0.052105695 0.2453554 0.2817992 -0.2735286 -0.33931336 -0.08555771
-0.13933581 -0.39305946 -0.09456945 0.5710806 -0.35489178 -0.15171728 0.2710749 0.16379426

bias f4 [8]
00000000: 074c 543d 062e e83b 4b9d 873d cc79 93bd
00000010: b43a b1bb c4ea 02bd f5af 6e3d 7fe4 aabd
0.051830318 0.0070855645 0.06621798 -0.07200965 -0.0054086093 -0.03196217 0.058273274 -0.083443634

weight f4 [32, 8]
00000000: b755 b3be 3340 b33e 7bb4 633e 45c7 623e
00000010: 7bfb d2bc b959 24be 2e2b 303e 72de 62be
00000020: 441d 233e 7083 ba3d bcbc 94be c2b3 d23e
00000030: 0886 00bd bc52 b3bd 9f89 02be 4277 643c
00000040: 74a1 433d fd80 823e 2b17 41be 9aba 823e
00000050: 6625 d8bc dc6b 5a3e 8d69 5d3e 8bf6 963e
00000060: 1ccf 0bbe 862c 83be 5457 82be 902c dbbe
00000070: 2f66 9f3d 1ea8 243d 54b0 7d3e 0bca 18be
00000080: 7a87 1b3e e186 13be 1750 12bd 70b5 56be
00000090: 9f57 c83e 7c0a 323e 0800 65be ce0e f1bc
000000a0: f1a1 243d bdf9 06be 0c51 6a3c 41d8 453d
000000b0: 656a 9f3e cb59 243e 8f07 a43e 8544 b2bd
000000c0: 2665 9dbe 7ea2 9ebd cfe6 15be adc5 1bbe
000000d0: 7d3c 72be 6d92 aa3e 396a 783d fa3d a83e
000000e0: 185a bebd 55d2 9d3e 6606 373e cc60 bcbe
000000f0: ef3a 923e 5930 ffbd d3b1 54bc e648 bcbc
00000100: 3379 943e 239b c2be cfa0 a33e 0cbd 22be
00000110: 303d 34be 0f68 e4bd 02fb ec3d cf8a 433c
00000120: 2119 d23d 2f74 c53e 5740 dcbd 620f 73be
00000130: 9fbb 813e 5341 87be 9512 a23e ce04 883e
00000140: 61e5 673d 5333 143e a89d 1b3d 4221 2dbe
00000150: ff0e 85be 33e8 9fbe 2cf1 473e b7af 89be
00000160: 243d ebbd 8118 8fbe 3cf3 f8bd c7d9 91be
00000170: ddef 5bbe 5c10 233d 1dca 93be c209 143d
00000180: d487 d4bd 6497 743e 8511 5e3e afc8 aabb
00000190: 640a a53c 863c a13e c633 9abe 79f8 13be
000001a0: 57df 26bd 093b aebe f656 933d 6106 193e
000001b0: 5557 3c3e 92b3 69be 61b3 483e 74c3 5a3e
000001c0: 5a99 f2bc 0d2e 2c3e 57a7 563e d244 44be
000001d0: f21a 88be 9fbc 0e3e 490b c7bd 773a 333e
000001e0: 4ad9 c13d 0fa7 b73e debd c3bc 07a0 7dbe
000001f0: 9e54 bebd 166a c5be aa87 7a3e 1728 c5be
00000200: 37e0 883e b197 ee3d a625 883e ba24 8f3d
00000210: 0f1f 293e d4d1 673e d0d6 ba3e 2816 173e
00000220: ac63 88be ed81 463e dac0 593e 2cc4 10be
00000230: 3bfa f73d 2e02 b6be 1f3e 7bbc 01d8 133e
00000240: 8f53 d2be 04cb 50be ed19 f73d 64a5 bdbb
00000250: 1105 d1be b6ad 2e3d 7425 cf3e 44a0 bf3e
00000260: a835 bf3d 0a21 80be 71ef 3cbe 7295 9c3e
00000270: 42b6 9b3e fadc 9e3e 4cad 69bd 117a fe3c
00000280: ba17 9dbd 28f4 26bd d24d 91bd 2b42 643e
00000290: 32e2 15be f474 b9be 3f30 8b3e 21c1 b33d
000002a0: c795 313e 10b0 b43e 6901 c3bd 95fc 92bd
000002b0: 2d67 05be 83c1 a7be e84d 2ebc c5af 15bd
000002c0: ac54 be3e 4fd7 99be 4521 853e 6354 ae3e
000002d0: c740 e63d b9a0 19be 6043 d6bd aa04 8fbe
000002e0: d87c 363b 596e 2b3e c0f1 423e f938 653e
000002f0: 5a91 b63e aff0 09be 5e05 6b3e c377 a2bd
00000300: b5b1 93be 021c efbd 2cf3 49be 4ca9 8ebe
00000310: e612 d23e c5f5 5f3c 2917 e0be 99ec 60be
00000320: c13e c6bd af48 803e c219 2f3e acf4 02be
00000330: ed58 393d 6b9b b23e d0b5 2bbe 5c8c 6dbe
00000340: 8880 003d adb3 95be f8ab 5c3e 0564 843d
00000350: 803b 33be 819c 4e3e 2867 fb3d bd81 ebbd
00000360: d54c 12bc 3c4d c23b 4312 abbe fc21 85be
00000370: 5538 2cbe 44b7 85be e9e7 b4be 3d07 203e
00000380: 0013 82bc 9fb8 a63e 5149 b8be aa4d ec3d
00000390: 5040 ab3e 618c 953e 9919 903e 4449 a53e
000003a0: 989c 663e 27f2 d5be c523 6fbe 8bbd cabe
000003b0: 35f1 f43e a3aa ac3d eea4 923e 1a28 90be
000003c0: 862b ac3e c5ff 04be 0b87 3b3e d367 293c
000003d0: fd93 ab3e fcb3 ab3e e82f 4d3d a356 403d
000003e0: 876f a33e a0bc 703e ed3e 7d3d 00c7 c5be
000003f0: e01e 6a3e 03c3 173e f681 403e 0146 6bbe
-0.35026333 0.35009918 0.22236817 0.22146328 -0.02575468 -0.16049851 0.17203972 -0.22155169
0.15929133 0.09107101 -0.29050243 0.4115277 -0.031377822 -0.08756015 -0.12747811 0.013944449
0.047761396 0.25489035 -0.18856494 0.2553299 -0.02638502 0.21330208 0.21622296 0.29484972
-0.13653225 -0.25619906 -0.2545725 -0.42807436 0.07783162 0.04019939 0.24774295 -0.14920823
0.15188399 -0.14406921 -0.03572091 -0.2096765 0.3912935 0.17386812 -0.22363293 -0.029426005
0.0401935 -0.13181205 0.01430155 0.04830194 0.3113586 0.16049878 0.32037017 -0.08704475
-0.30741233 -0.07745837 -0.14638828 -0.15212126 -0.23655887 0.3331484 0.060648177 0.32859784
-0.09294528 0.30824533 0.17873535 -0.367926 0.28560588 -0.124603935 -0.01298185 -0.02298398
0.28998718 -0.38008985 0.31958625 -0.15892428 -0.17601466 -0.1115266 0.115713134 0.01193495
0.10258699 0.38565204 -0.10754459 -0.23736337 0.25338456 -0.26417026 0.31654802 0.26566166
0.056615237 0.14472704 0.03799215 -0.16907218 -0.25988004 -0.3123184 0.19525594 -0.26891872
-0.11486271 -0.27948382 -0.12155768 -0.28486463 -0.2147822 0.039810523 -0.28865138 0.03614212
-0.1037747 0.23885876 0.2168637 -0.0052119116 0.020146556 0.31491488 -0.30117625 -0.14450254
-0.040740337 -0.34029415 0.07194321 0.1494384 0.1839269 -0.22822407 0.19599678 0.21363622
-0.02961414 0.16814442 0.20962273 -0.19166878 -0.26583058 0.1393914 -0.09718949 0.17502771
0.09465273 0.35869643 -0.023894247 -0.24768077 -0.09293483 -0.385575 0.24465814 -0.3850715
0.26733562 0.116500266 0.26591223 0.06989427 0.16515754 0.22638637 0.36492014 0.14754546
-0.26638544 0.193855 0.21264973 -0.14137334 0.121082745 -0.35548538 -0.015334635 0.14437868
-0.41079375 -0.20389944 0.12065492 -0.0057875384 -0.40824178 0.042646132 0.40458262 0.3742696
0.09336406 -0.25025207 -0.18450715 0.30582768 0.3041249 0.31027967 -0.057050034 0.031064065
-0.07670541 -0.04076019 -0.07094921 0.22290866 -0.14637068 -0.3622204 0.27185246 0.08777071
0.17342292 0.35290575 -0.09521753 -0.071770824 -0.1302764 -0.32764825 -0.0106386915 -0.03654458
0.37173975 -0.3004708 0.26001945 0.34048757 0.11242824 -0.15002717 -0.104620695 -0.27933246
0.0027845409 0.16741313 0.19037533 0.22385015 0.3565777 -0.1347072 0.22951266 -0.07932999
-0.28846517 -0.11675264 -0.19721669 -0.27863538 0.41030043 0.013669436 -0.4376767 -0.21965255
-0.09679938 0.25055453 0.1709967 -0.12788647 0.04525082 0.348842 -0.16768575 -0.23198074
0.031372577 -0.29238644 0.21549976 0.0646439 -0.17503166 0.20176889 0.12275535 -0.11499355
-0.008929451 0.005929617 -0.3341237 -0.2600249 -0.16818364 -0.26116383 -0.35333183 0.15627761
-0.0158782 0.3256273 -0.35993436 0.11538251 0.33447504 0.29208663 0.2814453 0.3228246
0.22520673 -0.4178631 -0.23353489 -0.39597735 0.47840276 0.08430984 0.28641456 -0.28155595
0.33626956 -0.12988193 0.18313234 0.010339695 0.33511344 0.33535755 0.050094515 0.046957623
0.31921026 0.23509455 0.06182759 -0.38628387 0.2286334 0.14820485 0.18799576 -0.22975923

bias f4 [32]
00000000: e9f7 9c3d 5764 7f3e 0b17 2a3e c6a3 60be
00000010: 5c88 d7bd 6f31 5a3e e05d 543d ed2d 193d
00000020: 46cb dbbd 699b 8c3e 4aee 2cbe a655 093e
00000030: 678e 36be 6ec7 943e bb3d 563e 99ed b33e
00000040: 0956 8cbc fe7c 96bd 4ea3 63bd a59a 6f3e
00000050: ddb7 80be f2dd f7bb 17f8 44be 6b21 27be
00000060: 20e5 1d3e 04ea 61be 2573 303e b2ce 863c
00000070: 8e4a 20be 4d53 20be 0efa 113a 3f88 003e
0.076644726 0.2494062 0.16610353 -0.21937475 -0.10524055 0.2130792 0.05184734 0.037397314
-0.10732131 0.2746232 -0.16887775 0.13411579 -0.1782776 0.29058403 0.20921986 0.3514221
-0.017130869 -0.07348059 -0.05557566 0.23398836 -0.25140277 -0.0075642997 -0.19235264 -0.16321342
0.15419436 -0.22061926 0.17231424 0.016455982 -0.1565344 -0.15656777 0.0005568572 0.12551974

weight f4 [8, 32]
00000000: 4622 31be 9408 7e3e 9218 a53c d9c5 0d3e
00000010: 4f71 1e3e ceb7 163e d7f7 54bd d86b 813d
00000020: b908 bdbd d941 223e ff0f 04be 58de 5dbc
00000030: 4a56 063e db8f 19bc fe45 54be 9482 1a3e
00000040: 2c00 4d3d 9efe 32be faf9 4dbc 63f4 493e
00000050: 900a 12bd 099a 043e 959b 94bc ed71 8abd
00000060: bc43 e73d 3169 313e edad 223e f68a 28bd
00000070: d75a ff3d e67f 4a3e 7a4a 8fbd 944b 213e
00000080: b899 5ebd 792a 2cbc 58be e6bd 29eb 803d
00000090: 9dae 363e 2e38 743d 4d0b f1bd 867f 323e
000000a0: 11ad 0c3e b2cc fbbd ae42 553d f1f1 1e3e
000000b0: a457 463e 29a6 14be 6ac0 3dbe 35e4 3fbe
000000c0: 4987 1d3e 3057 2dbe 9658 29be ed3f f83d
000000d0: 7d3d 77be cb64 e2bd cd3c edbd 8419 15bd
000000e0: 763d 8cbd 55a0 89bd 52ad c43d f278 9c3d
000000f0: bbf4 d13d 0563 96bd d996 323e c8ee 8d3d
00000100: 91c1 d33c 1824 26be 9307 c6bd 7c2e 8cbd
00000110: 8929 1f3d 6663 0dbc a1df 103d eaa1 e73d
00000120: b123 613e b93d 213d 2101 533e 5975 523d
00000130: 3bd4 d7bd 2a94 163e 2f21 c83d fbc8 773d
00000140: 7e46 ccbd cfe6 c8bb 0828 893e fc15 9c3d
00000150: 8c16 043e b9dd f4bc e827 8fbd 59cb 71bd
00000160: fec9 ce3d 5d2f d33b f825 573e 90bd 3b3d
00000170: 8212 8e3b 342c ab3d 4673 26b6 bff4 ae3a
00000180: dcc0 443e a5d1 483e 4692 533e 6eaa 90bd
00000190: a9ce 34be 4752 bebd c80a 51bd bbb2 d7bc
000001a0: bee1 0ebe fa0a 1e3d 03c6 86bc 3ba2 633d
000001b0: c971 8b3d 53f6 4ebe f999 93bd 51c1 36be
000001c0: 716e d7bd f390 5dbe 9e7c 5abe 49f0 e2bd
000001d0: d12b 07be 50b6 fb3c 3731 a0bd 4380 4f3e
000001e0: 865c 47be 8b65 f5bd 3c56 2fbd fa5b b0bc
000001f0: 5c66 083e 3908 50be 9e5d 0b3d 09a0 fc3d
00000200: cea3 5c3e 853f bc3d a6f3 3b3d 5468 ef3d
00000210: c5b9 d9bb ef34 6fbd c384 273e 5396 53be
00000220: 4f37 40bd 311d 043d 6a38 483e 6ed0 e23d
00000230: 3d57 d5bd 9a1e 09be 9df8 ef3d 650b 5a3d
00000240: 5968 c3bc be89 843d 4117 843d 9f99 a13d
00000250: 17c7 da3d 3572 60bd adbd 083d f395 053d
00000260: 06e4 53be dfa2 03be 001c 283e 2262 0ebe
00000270: c246 e73c 8135 bdbd 3851 3abe 8fe8 f83d
00000280: 8803 5cbd 7452 9bbd 5cbc 49bd e65e febd
00000290: bcdc c2bd ae63 1fbe 727b 48bd 75c8 8dbd
000002a0: 5008 04bd 8ed3 033e 9359 123e 394f 4abe
000002b0: 3d6c c8bd 8bd7 d73d 12e7 bdbc 6f35 12be
000002c0: 271a 28be 9299 12be d4f7 583d aa80 0e3d
000002d0: 5dac 073e f07d 18bc eac0 86bc b519 543d
000002e0: 2836 23bc 2116 0b3e b05e a53d 94e3 93bd
000002f0: 8a86 523c a046 f93d db0d adbd 8421 56bd
00000300: 214a d73d b627 de3d 754d 47be 120a c43b
00000310: 759a 173e da67 94ba bb27 ef3d e4ad 713b
00000320: e266 673d 4387 bdbc 5831 00be 61a0 a13d
00000330: 0613 4d3e 76ee 9cbd 330f 983d 4c5b 48be
00000340: cfc8 38be 84f7 acbd 99b5 3fbe 5914 cabb
00000350: af8b 4ebe 10a8 cfbd 81f5 4c3e 0aec 18bd
00000360: 1047 613d d812 583e ded2 fbbd a414 babd
00000370: 2078 f03d 20fa 8ebd bb64 af3b 70f0 1f3e
00000380: 2f25 c8bd fd0e 01be 62ac ee3c dff8 fd3c
00000390: a17b 72be e01d 8bbd 7a34 ad3c 42c1 cc3c
000003a0: b629 f0bd 5d75 fd3d c5c6 79be daa0 3e3d
000003b0: 20ed 273d 1580 9f3c 99e2 d0bd ff44 87be
000003c0: 442c 41be 9731 053e 62b3 813d feb8 65be
000003d0: d83d 9d3d 0c29 653c ae9d 45be 4dca 163e
000003e0: 90ff 18be 928a 61be b292 f9bd 6154 613d
000003f0: c8eb 943d a3ae 3ebd d2ff 7cbe f209 3f3d
-0.1729823 0.2480796 0.020153318 0.13845004 0.15472911 0.14718553 -0.05199417 0.06319398
-0.09230179 0.15845431 -0.12896727 -0.01354178 0.13118854 -0.009372677 -0.20729825 0.15088874
0.050048992 -0.17479941 -0.012571806 0.19722132 -0.035654604 0.12949385 -0.018140594 -0.06760011
0.11292216 0.17325284 0.1588666 -0.04114815 0.12468498 0.19775352 -0.06996627 0.15751487
-0.054345816 -0.010508173 -0.11266774 0.06294853 0.17840047 0.05962389 -0.117697336 0.17431459
0.13737895 -0.12294902 0.052065544 0.15521981 0.1936937 -0.1451651 -0.18530431 -0.18739398
0.15383638 -0.1692779 -0.16537699 0.12121568 -0.2414455 -0.11054381 -0.115838625 -0.036401287
-0.0684766 -0.06720034 0.09603371 0.07640256 0.10251757 -0.07343105 0.17440356 0.069303095
0.025849136 -0.16224706 -0.096694134 -0.06844804 0.03885797 -0.008629655 0.03536952 0.113101795
0.21986271 0.039365504 0.206059 0.051381443 -0.105385266 0.14704958 0.09771954 0.060494404
-0.09974383 -0.00613103 0.26788354 0.07621381 0.12899226 -0.029890882 -0.069900334 -0.059031818
0.10097121 0.006444855 0.21010578 0.045835078 0.0043357024 0.083580405 -2.4803026e-06 0.0013348087
0.19214195 0.19611223 0.20661268 -0.07063757 -0.1765696 -0.09293037 -0.051035672 -0.026330343
-0.13953301 0.038584687 -0.016451841 0.055574637 0.06808812 -0.20211153 -0.07207102 -0.17847182
-0.10519112 -0.21637325 -0.213366 -0.11080987 -0.13200308 0.030726582 -0.07821887 0.20263772
-0.19468889 -0.119822584 -0.04280685 -0.021528233 0.13320297 -0.20315637 0.034024827 0.12335212
0.21546862 0.09191803 0.045886658 0.11689821 -0.00664446 -0.05840009 0.16359238 -0.20662813
-0.046927746 0.0322544 0.1955277 0.11074911 -0.1041703 -0.1339058 0.11717341 0.053233523
-0.023853468 0.06471585 0.06449748 0.07890629 0.106825046 -0.054796416 0.033384014 0.032613706
-0.20692453 -0.12855099 0.16416931 -0.13904622 0.028231982 -0.09238721 -0.18195045 0.12153732
-0.053714305 -0.07584086 -0.0492519 -0.12420444 -0.09514758 -0.15565369 -0.04894585 -0.06923
-0.03223449 0.1287367 0.14291982 -0.19756784 -0.0978627 0.105391584 -0.023181472 -0.14278196
-0.16416226 -0.14316395 0.052970722 0.034790672 0.13249345 -0.00930737 -0.01644941 0.05178233
-0.009961642 0.1358266 0.08074701 -0.072211415 0.012849459 0.12171674 -0.08449908 -0.052278057
0.10512186 0.10847418 -0.19463141 0.005982646 0.14805014 -0.0011322454 0.116775 0.0036877329
0.0564946 -0.023135787 -0.12518823 0.07891918 0.20026788 -0.0766267 0.07424774 -0.19566077
-0.18045352 -0.08445647 -0.18721618 -0.0061669764 -0.20170473 -0.10139477 0.20015527 -0.03733448
0.05499941 0.21100938 -0.12296079 -0.09085968 0.11741662 -0.06981301 0.005352584 0.15619063
-0.09772717 -0.12603374 0.029134933 0.03100246 -0.23679973 -0.067928076 0.021143187 0.024994496
-0.11726706 0.12375901 -0.24392231 0.04654012 0.040997624 0.019470254 -0.1019947 -0.26419827
-0.18864542 0.13007198 0.06333043 -0.2243385 0.076778114 0.013986837 -0.19298431 0.14725609
-0.1494124 -0.22025517 -0.12186183 0.05501211 0.07271534 -0.046553265 -0.24706963 0.046640344

bias f4 [8]
00000000: a36f 5a3e c074 a1bd 4df4 713e b20f 053e
00000010: 0076 6e3d 0426 03bc e8c9 2cbd 926c 8dbd
0.21331649 -0.078835964 0.2362835 0.12994269 0.058218002 -0.008004669 -0.04218474 -0.06905474

weight f4 [8]
00000000: 6925 893f 3d2d 783f 6aa6 853f 3fc9 883f
00000010: 04c5 673f 20f2 783f 9ccb 643f b3ee 8a3f
1.0714542 0.9694403 1.044141 1.0686415 0.90534997 0.97244453 0.89373183 1.0854095

bias f4 [8]
00000000: 3ebd c93c ec32 06bd d360 563d 5a71 45bd
00000010: b53a 133d f520 16bd c566 0b3d bf5d a2bd
0.02462637 -0.032763407 0.052338433 -0.048203804 0.03594466 -0.036652524 0.034033556 -0.07928037

weight f4 [8]
00000000: b985 8a3f d998 773f ee90 8f3f 2757 893f
00000010: ecd6 663f 1ec5 773f 47df 603f d6e0 8d3f
1.0822059 0.967176 1.1216104 1.0729722 0.90171695 0.9678515 0.87840694 1.108424

bias f4 [8]
00000000: c544 523d 4524 d8bc b3df 523d 1938 32bd
00000010: 1895 a13c 6554 6dbd 715c c13c 5a19 c2bd
0.051335115 -0.026384482 0.051482867 -0.04351053 0.019724414 -0.057941813 0.02360365 -0.09477492
